checkpoints/pna_baseline/best_pna_baseline_seed3.pt (torch, 766766 bytes, 50 tensors)

input.weight f4 [64, 1]
000000 51 ea 64 bf 26 2a 31 bf b0 bd aa be b8 51 59 bf
       -0.8942004 -0.6920494 -0.33347845 -0.8489032
000010 45 05 48 bd 77 60 48 bf ba 9b fe 3e 11 a2 e5 3e
       -0.04883315 -0.78272194 0.49728185 0.4485021
000020 74 1b cd 3d f9 8d 3e 3f 81 29 bb bd cd 1a 11 3f
       0.10015002 0.74435383 -0.091387756 0.5668152
000030 52 92 1a bf 61 78 3c be 2b 69 4b bf eb d1 a4 bd
       -0.6037952 -0.18405296 -0.7945735 -0.08047851
000040 d5 6e 0d bf 65 ff 57 3f 64 1f 19 3f f1 c1 37 3f
       -0.5524724 0.84374076 0.59813523 0.71780306
000050 8c 9d 90 3e f3 f8 f2 be f7 96 5b 3f eb e7 60 bf
       0.282452 -0.47455558 0.8577723 -0.8785388
000060 db be 0a bf b6 42 07 bf cb bf a3 be 42 b2 3c 3e
       -0.5419747 -0.5283617 -0.31982264 0.18427375
000070 5b 28 29 bf 0e 42 3b bf fc 10 c4 be ba be 15 3f
       -0.660772 -0.73147666 -0.38294208 0.5849415
000080 e3 ea 1f bf 7a c0 4c bf 96 0a 45 bf 18 19 cb be
       -0.62467784 -0.79981196 -0.7696928 -0.39667583
000090 09 f1 2e be 59 e2 64 bf 5e f6 be be 2a 83 9a b8
       -0.17084135 -0.8940788 -0.37297338 -7.3677234e-05
0000a0 c0 03 1e 3e cf f6 6f bd f8 24 08 bd 4f e3 0d bf
       0.15431118 -0.058584984 -0.03323838 -0.5542497
0000b0 19 58 f9 3e 60 50 19 be 70 56 16 bf 1e aa 67 be
       0.48700026 -0.14972067 -0.58725643 -0.22623488
0000c0 bd d0 62 bd f0 9a 63 3f fd df d9 3e 71 52 9e be
       -0.05537485 0.8890829 0.42553702 -0.30922273
0000d0 bd 9c 10 be b2 55 57 3f cc 48 1a 3f 64 8f 74 3e
       -0.14122291 0.84115136 0.6026733 0.23882824
0000e0 1c 8e 87 be 9e 32 3c 3f a3 cc aa 3e 72 63 b3 be
       -0.26475608 0.73514736 0.3335925 -0.35036808
0000f0 40 f4 1c 3f 25 3a af 3b e3 94 24 bf ea 4d b2 be
       0.61310196 0.0053475075 -0.64289683 -0.3482507

input.bias f4 [64]
000000 cb f9 26 bf 71 38 3b bf dd 68 eb b7 82 bb 1e bf
       -0.65224904 -0.73133 -2.8063014e-05 -0.62004864
000010 3e be 01 3f 83 53 b4 3e 30 44 46 3e c7 ed 44 3f
       0.5068091 0.35219964 0.19361949 0.7692532
000020 fc 91 b7 be 5e 42 f4 3b ab ed 13 3f 33 ff a7 3e
       -0.35853565 0.0074542006 0.5778453 0.3281189
000030 74 08 22 3d 0c 14 4d 3f a3 84 0c 3e d7 de 22 3f
       0.039558843 0.80108714 0.13722472 0.63621277
000040 e4 c9 43 bf d8 30 4e bf 1c 35 4e bf 90 c6 78 3d
       -0.76479936 -0.8054328 -0.8054979 0.06073624
000050 b6 9e 4c 3f 4f 91 46 bf 63 e9 bf 3e e5 11 49 bf
       0.79929674 -0.77565473 0.37482747 -0.7854293
000060 48 74 11 bf 98 43 7d be 96 c3 9f be 5b 11 8c 3e
       -0.56818056 -0.24732816 -0.31203908 0.2735699
000070 6e d7 3d bf f0 d9 6f 3f 67 c0 78 3d 91 72 ac 3e
       -0.74156845 0.9369192 0.060730364 0.33681157
000080 11 3f 14 bf 3a 7e e9 3e de 02 12 be d4 de cd be
       -0.5790873 0.45604116 -0.14258906 -0.40209067
000090 9d 6d a9 3d 18 99 a4 3e 9e 57 e0 3c a6 17 83 be
       0.0827286 0.3214805 0.02738553 -0.2560398
0000a0 74 8a 32 3e b2 cb 95 be f2 ce 7a be e6 03 8e be
       0.17435628 -0.2925697 -0.24493006 -0.2773735
0000b0 20 19 11 3f 95 3a 1a bf 0a bc ad 3e 5e 3b 00 3f
       0.5667896 -0.6024564 0.33932525 0.5009059
0000c0 bc 6c 11 bf 7d a1 3d bf af cd 11 bf f2 bb 3f bf
       -0.5680654 -0.74074537 -0.56954473 -0.74896157
0000d0 15 53 4d 3f e2 cb 56 3f 39 4b 0d be 45 43 68 3f
       0.802049 0.8390485 -0.13798226 0.90727645
0000e0 97 5d 43 3e ab 3d 62 bf 0b 5f 51 bf b3 6b c6 be
       0.1907867 -0.8837535 -0.8178565 -0.38754043
0000f0 8f 73 66 bf 19 2e ba be a4 9b 36 3e bd 7e e6 38
       -0.9002008 -0.36363295 0.1783281 0.000109908615

convs.0.pre_nns.0.0.weight f4 [64, 128]
000000 64 b7 38 ba 1f 69 ce 3b 90 f6 c8 35 62 02 06 bc
       -0.00070463703 0.0062991525 1.497292e-06 -0.008179279
000010 68 ea 16 3d 30 9d 18 b8 0d 06 a4 3d be 5f a1 3d
       0.03684464 -3.6386016e-05 0.080089666 0.078795895
000020 14 30 48 39 49 ce 8b bd 62 dd 0d 3d cf c3 8b 3d
       0.00019091397 -0.06826455 0.034634955 0.06824457
000030 64 20 09 37 3b 2a 2f bd 64 0e 5c ba 31 e8 52 3d
       8.173378e-06 -0.042764883 -0.00083944784 0.051490966
000040 cf 03 00 39 74 f2 89 bb 4a e1 ca 39 bd d5 0b 3d
       0.0001220845 -0.004209811 0.00038696296 0.034139384
000050 d4 73 d2 ba 5e 3a 50 39 3c 6f 1e 3d 57 47 4e 3c
       -0.0016056248 0.00019858169 0.0386803 0.012590251
000060 22 32 4e 38 dc f4 ea ba 6a a9 94 b8 67 bf 22 bc
       4.9160917e-05 -0.0017925757 -7.088746e-05 -0.009933329
000070 cc cc 26 3b 12 38 36 bd 5a 7c ab b8 96 80 17 bb
       0.0025451658 -0.044487067 -8.177078e-05 -0.0023117415
000080 67 f2 d1 38 24 89 3b 3c c0 67 e2 39 19 df 29 bb
       0.000100110476 0.011446271 0.0004318338 -0.002592033
000090 35 2a fa b9 00 b0 e6 37 8a b9 5c 3b eb 9f 53 bc
       -0.00047715163 2.7500093e-05 0.0033679926 -0.012916545
0000a0 c0 39 6e 3c 4f 91 a6 ba 0f 3a 27 38 78 8a 0f 37
       0.014540136 -0.00127081 3.9869974e-05 8.555704e-06
0000b0 cf ae 97 bd c3 63 f4 39 2e 09 1f 39 4f 1f b5 3c
       -0.07406389 0.00046613635 0.00015166841 0.022109656
0000c0 31 76 e0 39 85 35 01 bc ef 85 03 bc 64 e4 c8 bb
       0.0004281267 -0.007886295 -0.008027538 -0.006130742
0000d0 20 61 75 3d fb 59 58 bd 7c 91 9f 3d 08 a2 80 3d
       0.05990708 -0.052820187 0.07791421 0.06280905
0000e0 c7 9a 89 38 29 a7 d1 3a 61 b2 47 39 c5 98 6d b8
       6.5614986e-05 0.0015995252 0.0001904457 -5.664748e-05
0000f0 f2 4f c4 b9 fa f6 a9 3b 5c de cc 39 6d 20 95 ba
       -0.00037443597 0.0051869126 0.00039075583 -0.0011377461
000100 aa de 35 b8 f1 36 49 3c 4a c4 65 b9 44 4a 30 b8
       -4.3361135e-05 0.012281165 -0.00021912265 -4.2030835e-05
000110 95 fb 80 3b a6 2d 7e 3a 8d ec 19 3d 89 23 88 bd
       0.003936241 0.0009696133 0.037579108 -0.06647403
000120 36 c2 71 b9 ac e5 83 3d fe 85 90 bd 0e e4 f4 bc
       -0.000230559 0.06440291 -0.07056807 -0.029893901
000130 08 20 b0 b8 70 39 cb 3c 21 ab 7d bb 0e 05 a3 3d
       -8.3983e-05 0.024807662 -0.0038706737 0.079599485
000140 8c 69 ab 37 4c 38 40 bc eb 7f 40 3c 76 bd 8d 3d
       2.0433938e-05 -0.011732172 0.011749248 0.069209024
000150 cd d5 96 3d f2 88 6c bc ac ab 8d bd e3 d8 b1 39
       0.07364998 -0.014436947 -0.069175094 0.00033921664
000160 fc f0 f0 b7 fa fd 36 3b 05 41 92 b7 e0 03 53 bd
       -2.8722447e-05 0.0027922378 -1.7434833e-05 -0.051517367
000170 80 c9 e5 35 83 17 c0 bc 36 23 94 b8 47 84 8c 3d
       1.7120474e-06 -0.023448711 -7.0637485e-05 0.068611674
000180 0d 27 fc b9 e4 dd a6 b8 54 75 dd b9 7d f2 41 3c
       -0.0004809428 -7.956827e-05 -0.0004223982 0.011837599
000190 fe a8 a5 bb 1f ff 22 39 00 4d 58 3c 34 46 fb 36
       -0.005055546 0.00015544564 0.013201952 7.4885556e-06
0001a0 c5 de 61 3d 46 80 2d b9 92 d8 4b 3c 09 28 db 3b
       0.05514409 -0.00016546351 0.012441771 0.006688122
0001b0 6d 1d 35 bd ea 7e fe bb cc e3 1f b6 a3 ed f3 3c
       -0.044217516 -0.007766594 -2.3825442e-06 0.0297764
0001c0 c3 52 fe 39 6c c9 ea 3c 3c 63 f5 3a 82 bd e7 b6
       0.00048508318 0.028660499 0.0018721591 -6.906398e-06
0001d0 3f 5e 1d 3d ea 9e a0 bd d4 b2 65 3c 13 2c 90 bc
       0.03841996 -0.078428105 0.014019687 -0.017599141
0001e0 3c b6 0f bc 8e 7a 3d 39 97 21 79 bb 1d 38 e3 3b
       -0.008771475 0.000180701 -0.0038014406 0.0069341795
0001f0 8e 32 05 b6 42 23 1e bb c5 7c 92 b8 ac 3c 5b 39
       -1.984797e-06 -0.0024129902 -6.985063e-05 0.0002090807
000200 54 54 08 bc 3a ec d1 b9 ca 24 3c 39 01 24 fa 38
       -0.008320887 -0.0004003959 0.00017942782 0.00011927635
000210 3e a4 27 3c 61 a6 4f bc 70 67 81 3c ae 40 29 3a
       0.0102320295 -0.012673945 0.015796393 0.00064564764
000220 e2 ed e5 3a e7 49 6e bc 9d 27 79 bd 0e cd 6a bd
       0.0017542208 -0.014543987 -0.060828794 -0.05732446
000230 a1 cb 0d bb 28 f9 c4 3c c1 fe 07 bc 0d 89 23 bd
       -0.0021636265 0.024044588 -0.008300484 -0.039925624
000240 62 f1 05 38 3a e1 28 bc 4d c3 ef 37 62 9e 5b 3c
       3.1934476e-05 -0.010307604 2.8581964e-05 0.013404461
000250 96 92 8d 3d e4 da f8 3a d1 e3 95 bd 3a 68 f8 39
       0.06912725 0.0018986133 -0.07318843 0.000473799
000260 19 cf 3d bc 61 69 31 b9 31 68 92 38 5e 3b b6 ba
       -0.01158502 -0.00016919292 6.98123e-05 -0.0013903191
000270 48 78 72 b6 ac b0 52 bc ce 2e 4a b9 9b 1c 74 bd
       -3.6130823e-06 -0.012859505 -0.00019281657 -0.059597593
000280 70 c8 d8 38 ce 7e 6a bc d0 66 be 35 f6 1f 64 bc
       0.00010337017 -0.014312459 1.4186026e-06 -0.013923636
000290 22 56 d0 38 de ae 91 b7 a1 38 08 38 e0 8c e1 b8
       9.9342564e-05 -1.7366776e-05 3.2477667e-05 -0.00010755076
0002a0 23 e9 ed bc 38 95 6a 3a 4e 28 f0 38 d4 8b 45 3c
       -0.029041832 0.0008948627 0.00011451599 0.012057263
0002b0 a1 db 9c bd dd 46 4f b9 2e f4 a8 38 bb 08 cb 3c
       -0.076590784 -0.00019767457 8.056346e-05 0.024784436
0002c0 f0 5a eb 3b 03 05 35 bd b1 2b 5b bc a2 3c 68 b6
       0.0071824715 -0.044194233 -0.013377116 -3.4605987e-06
0002d0 ed ec cc bc 65 e7 75 3d 6e 9b d1 bc 33 17 af 3c
       -0.025015319 0.06003513 -0.02558681 0.021373367
0002e0 5a e8 07 39 fc 09 25 3b cc c1 3e bc 7e cd 60 3c
       0.00012961161 0.0025182953 -0.011642884 0.013720868
0002f0 d0 c7 00 ba 00 29 1a 37 74 52 f5 b9 f4 d1 2b 3c
       -0.0004912587 9.188661e-06 -0.00046791474 0.010487068
000300 e8 c4 ea 39 fa 56 a2 bb 10 e1 41 3c a2 33 a7 b8
       0.00044778665 -0.004954216 0.011833444 -7.972798e-05
000310 12 2b 9d 3a e2 c9 34 3c e6 14 81 3c ac e2 8b 3d
       0.0011990985 0.011034461 0.015757035 0.068303436
000320 fc 63 d1 37 74 44 50 3b 6a 1e 68 3d b0 2c 6a bd
       2.49613e-05 0.0031779082 0.05666963 -0.057171524
000330 c4 53 cb 39 57 e5 6c bd e9 b2 40 39 60 6a 91 3c
       0.00038781588 -0.057835903 0.00018377196 0.017750919
000340 3c 33 dd 37 9e ad 5c b9 50 44 17 bb de 06 9b 3c
       2.636911e-05 -0.00021045512 -0.002308149 0.018924173
000350 76 2e 9c bc a2 76 2b b6 58 fc 7e 3d 86 13 3a 3b
       -0.019065123 -2.555004e-06 0.062252373 0.0028392985
000360 65 01 56 b9 90 cd ad b7 ca fb 3b b9 8f bc 72 bd
       -0.0002040915 -2.071893e-05 -0.00017927508 -0.059261855
000370 f4 d0 91 bb f2 f3 5a 3c 47 b8 53 b9 0f 28 94 bd
       -0.004449958 0.013363825 -0.00020191177 -0.07234203
000380 73 69 81 3a 2c d2 d8 3a 12 73 f9 39 52 a6 01 39
       0.0009873345 0.0016542128 0.00047578715 0.00012364358
000390 72 fb 70 37 6d 5b d5 b9 84 75 ff 38 e0 05 3a bc
       1.4363659e-05 -0.00040694643 0.000121812365 -0.01135394
0003a0 e5 97 46 bd 44 ac 91 ba 6e ba 6b 38 ea a4 1f 39
       -0.0484847 -0.0011113961 5.6201992e-05 0.00015224857
0003b0 23 83 79 bc 4c 1f d6 3b e0 f4 14 b7 49 a2 6a 3d
       -0.015229019 0.0065344926 -8.878502e-06 0.057283673
0003c0 53 9e 49 b8 68 79 03 3d 4d 96 00 ba de 4d 25 37
       -4.8069585e-05 0.032098204 -0.0004905209 9.852896e-06
0003d0 8c 0a b7 3b 9a b5 ab bc d6 a5 d2 bc 15 09 f4 3c
       0.005585974 -0.020960618 -0.025713842 0.029789487
0003e0 f7 c0 a4 b9 ff e0 cf ba 20 89 eb bb fa 6c 53 3c
       -0.00031424288 -0.0015859901 -0.0071879774 0.0129044
0003f0 28 d9 f2 38 f3 f6 8d b7 8e 1e 28 b9 b6 5f 12 b9
       0.00011579908 -1.6923505e-05 -0.00016033111 -0.000139593

convs.0.pre_nns.0.0.bias f4 [64]
000000 8b 5d aa 3c 02 bc 54 3d 37 da 2a bd b7 eb 9f 3d
       0.020796558 0.05193711 -0.041712012 0.07808631
000010 ee ec 48 bc 52 b0 65 bc a0 f1 78 3d d8 1a 5c bc
       -0.01226352 -0.014019089 0.060777307 -0.013434134
000020 79 83 24 bd c2 c3 5c bd bf 25 9b 3d 7b 18 9b 3d
       -0.040164445 -0.053897627 0.07575559 0.07573029
000030 2a 28 6d 3b 0f 29 19 bc 4c 44 5c bd 2f 24 5d bd
       0.003618727 -0.009348168 -0.05377607 -0.053989585
000040 63 6a 89 3d c4 e5 a7 bd a5 7f c6 bb 5e 3d 90 3d
       0.06709745 -0.08198121 -0.006057697 0.07042955
000050 3d 14 1e bd a9 c9 da bb 84 48 5b 3d dd a2 f2 bc
       -0.03859352 -0.006676872 0.053535953 -0.029618675
000060 1a 4d 5e bd 5e a6 23 bd f8 f7 2a 3d 10 d4 53 3d
       -0.05427275 -0.039953582 0.041740388 0.05171591
000070 bf 2b cc bb 31 15 5a 3d 8e a2 ab bd a6 b9 e0 bb
       -0.006230801 0.053242866 -0.08380614 -0.0068580685
000080 68 c1 3c bd 20 86 29 3d 84 d4 09 bd 2b e8 67 3d
       -0.046082884 0.041387677 -0.033649936 0.056617897
000090 75 19 50 3d 66 8a 58 3d 77 df b5 3c f8 57 51 3c
       0.050805528 0.052866362 0.022201283 0.012777321
0000a0 e8 ef 6f 3d 89 a3 1e 3d 3b be e5 bb ba 44 1c bd
       0.0585784 0.038730178 -0.0070112026 -0.03815148
0000b0 15 0a be 3a e8 6e a4 3d 39 46 19 bd c0 21 57 bd
       0.0014498854 0.08028966 -0.037420485 -0.05252242
0000c0 08 34 64 bd 91 6b a6 bd 7d 64 4e bb d0 36 9a bd
       -0.055713683 -0.081259854 -0.0031493 -0.07529986
0000d0 f0 36 45 3d d3 7a 27 bd b7 98 2d bd 83 c5 a5 3d
       0.048148096 -0.04088862 -0.04238197 0.08094313
0000e0 81 0a a5 bd 77 6f 8e 3d a0 6e f6 bb d4 2d b2 3c
       -0.08058644 0.06954854 -0.0075205117 0.021750368
0000f0 be ac dd 3c 5d 15 6b bd d6 42 82 bd df 77 97 3d
       0.027059909 -0.05739342 -0.06360404 0.073959105

convs.0.pre_nns.1.0.weight f4 [64, 128]
000000 56 c4 69 3b 21 f0 24 b9 82 a9 29 bc c2 4b ac b8
       0.0035670004 -0.00015729714 -0.010355355 -8.21571e-05
000010 1b de 17 3d 6b 12 6c b8 51 90 54 bd 34 e3 9e 3c
       0.03707705 -5.6283938e-05 -0.051895443 0.019395448
000020 1c 1c 68 3b d2 c3 29 bb be 99 4a 3c b8 11 a4 bd
       0.0035417145 -0.0025904072 0.012365757 -0.08011192
000030 b1 9a 1d b9 2d 1c 4c bd 4e c4 47 bc 0d 72 0a bc
       -0.00015030314 -0.049831558 -0.012192799 -0.008450043
000040 9b 16 5e b9 11 f1 ee 3a 26 9a b4 38 6b 7a 1a 3d
       -0.00021179991 0.0018229802 8.611781e-05 0.037714403
000050 d1 76 af bd 6f 73 f2 bb 89 b5 94 3d 57 79 5d bb
       -0.08567584 -0.0073990147 0.072611876 -0.0033794248
000060 0a 83 16 3a 89 63 c3 bb 50 5b ac 36 7d 12 bd 3c
       0.0005741572 -0.0059627932 5.1366296e-06 0.023080105
000070 c3 b0 1e 38 ea 3f 07 bc ae 01 87 38 51 fa 65 bd
       3.7834758e-05 -0.008254984 6.4376145e-05 -0.056146923
000080 29 11 0b bb ab 26 d9 b9 33 25 05 3c 92 3f 66 b9
       -0.0021219945 -0.00041418275 0.008126545 -0.00021958191
000090 0e 83 07 bc e0 f7 88 38 a1 4b 8f b9 16 6b f0 38
       -0.008270992 6.531156e-05 -0.00027331433 0.00011464038
0000a0 c5 1b 41 bd 06 7d ff b8 7f a8 0e 3c f6 25 d8 35
       -0.047145624 -0.00012182635 0.008707165 1.6104302e-06
0000b0 fc ef 71 3d f1 79 00 3a 3a c2 7c 36 2b f8 bb 3c
       0.059066758 0.0004900983 3.766398e-06 0.022945484
0000c0 36 1d fd 38 5a 52 08 3d ac 80 95 38 7e 51 54 36
       0.00012069421 0.03328166 7.128841e-05 3.1637896e-06
0000d0 3c 02 36 3d 49 35 32 bc c9 75 1f 3d c0 92 b3 bd
       0.044435725 -0.010876962 0.038930688 -0.08768225
0000e0 45 89 db 38 df ce 66 3b 64 00 e7 39 1e e2 0b 38
       0.00010468302 0.003521852 0.00044060044 3.335077e-05
0000f0 19 f5 e5 3a 74 9c 4f 39 65 2c cc bb 03 fe e2 b9
       0.0017544358 0.00019799342 -0.006230878 -0.00043295333
000100 8e 20 cd ba d0 9c 8a b7 34 92 32 bb b8 83 3a b8
       -0.0015649961 -1.6523903e-05 -0.0027247788 -4.446853e-05
000110 66 bc 83 bd e4 84 0c bb 3a 94 a5 bd e4 6a 80 bc
       -0.064324185 -0.0021441514 -0.080849126 -0.01567597
000120 c0 08 a5 b6 b9 2b 14 bd e4 07 9e bd 82 9e 96 3d
       -4.918402e-06 -0.03617451 -0.07716349 0.07354452
000130 fc 83 ea 3b d1 3d 90 bc 16 fd 00 3a 39 49 3b bd
       0.007156847 -0.017607601 0.0004920525 -0.045724127
000140 34 2f a4 b7 60 75 12 bc eb d9 0f b9 b1 da da bc
       -1.9572304e-05 -0.008939117 -0.00013718723 -0.026715608
000150 75 fa 76 bc 33 75 61 3c c8 01 3b bd d2 37 01 ba
       -0.015074362 0.013760853 -0.045655996 -0.00049292773
000160 91 3c 7b 37 a9 68 67 37 1d b8 de ba 7a 86 8f 3d
       1.4974868e-05 1.3793041e-05 -0.0016992126 0.07008071
000170 de 26 48 3c 82 af 69 bd 0f 11 c1 37 00 75 86 3d
       0.012216298 -0.057052143 2.3015336e-05 0.06565285
000180 cb 12 d6 b9 67 d7 99 b7 29 63 a1 39 16 ee 58 39
       -0.00040831263 -1.8339326e-05 0.00030782193 0.00020688059
000190 40 4e 56 39 a1 25 c4 39 64 e1 75 38 f7 91 a1 39
       0.00020437781 0.0003741207 5.8622463e-05 0.00030817065
0001a0 dc 2e e2 3c 25 47 bd 36 24 1c 8b 39 18 01 d7 3b
       0.027610235 5.6409212e-06 0.00026533112 0.0065614097
0001b0 ca 8b 70 3c 8d 07 ce b9 3a 95 53 38 56 c0 3c 3d
       0.014681766 -0.00039297008 5.04453e-05 0.046081863
0001c0 40 e3 48 39 01 f0 39 bd 3d dc f6 39 9a 41 e7 38
       0.00019158144 -0.0453949 0.00047084867 0.000110271576
0001d0 dc 6e 8c 3d 3c 89 3b bc ad b8 be ba cb 90 a6 bd
       0.06857082 -0.011446293 -0.0014550887 -0.08133086
0001e0 a2 3f 36 3b 8b 5c b6 37 40 69 96 39 52 b8 58 b9
       0.0027808924 2.1739184e-05 0.00028688647 -0.0002066803
0001f0 b0 ef a3 38 68 f1 6b bc 32 54 18 bb d4 86 35 3b
       7.817091e-05 -0.014400817 -0.0023243544 0.0027698772
000200 8a 6d a2 3b 6a bc 18 38 a1 a0 6a 3c 9d 0d 5b 39
       0.0049569057 3.64151e-05 0.0143205235 0.00020890539
000210 67 79 86 3d 51 cd 3a 38 43 b4 22 bd a6 69 fb 3c
       0.065661244 4.453707e-05 -0.039722692 0.030690026
000220 d5 3c 76 3a 80 cf 59 bd 6c 4d 05 bd da 7a 3d 3d
       0.000939322 -0.053176403 -0.03254454 0.04625974
000230 7e 29 3e 39 0a 1b 8b 3d 41 76 88 bb 8c 00 5a bd
       0.00018135269 0.06792267 -0.0041644876 -0.053223178
000240 2a 96 09 39 9e a3 b0 3c 5b e0 82 3a 38 90 e9 bc
       0.00013121279 0.021562394 0.0009985076 -0.028511152
000250 d5 70 c4 bc 30 82 18 bc 04 2b 1b 3b 33 bd f1 b9
       -0.023979584 -0.009308383 0.0023676762 -0.00046108066
000260 3b 5f 0a bc 9e 6f 1e b8 ca f8 e9 37 c2 41 94 3d
       -0.008445556 -3.7774087e-05 2.7891616e-05 0.07239105
000270 0e e6 47 b5 bf 1a 77 3d f9 c5 25 3c 42 33 2e bd
       -7.446805e-07 0.06032824 0.010118001 -0.042529352
000280 7f 7b b2 39 ba bf 9b b8 f1 3c d6 ba 61 5c 9b bb
       0.00034042817 -7.426688e-05 -0.0016345066 -0.004741237
000290 6d 90 9b b9 8c 34 01 3a bc 0d 5b b9 3c 60 b3 39
       -0.0002967151 0.00049287896 -0.00020890584 0.0003421324
0002a0 4e 9b cf bc 74 68 b2 ba 54 4c e4 37 1a ab 43 b8
       -0.02534261 -0.0013611452 2.7215261e-05 -4.6650974e-05
0002b0 1e 81 3d 3d dc c6 70 38 ec 8c 75 b8 69 35 d3 3c
       0.046265714 5.740566e-05 -5.8543796e-05 0.025782304
0002c0 1c 6f 6e 3a 5e 73 98 bc 3c af f2 39 6d e2 62 bc
       0.0009095536 -0.018609699 0.00046288397 -0.013847929
0002d0 3d 2b 9a 3d ad 63 1a 3d 54 29 a1 ba 2a 6a 8c 3d
       0.07527778 0.037692714 -0.0012295642 0.06856187
0002e0 65 b2 5a 39 de b6 05 38 8c 2c 29 3b d2 c2 c0 bb
       0.00020856557 3.187998e-05 0.0025813906 -0.0058825994
0002f0 20 0b ec b6 a1 6d 31 39 5d 9f 4f b9 30 59 f6 39
       -7.034643e-06 0.00016920875 -0.00019800426 0.00046987226
000300 4b c8 08 b8 b6 49 f4 37 c0 7b 40 3b 98 4a d9 b7
       -3.2611464e-05 2.9121391e-05 0.0029370636 -2.5903151e-05
000310 ac 11 59 3c 18 48 74 b8 b8 62 33 3d 08 d8 5b bd
       0.013248842 -5.8241276e-05 0.043795317 -0.05367282
000320 e1 8b 30 38 4d 15 7b bd 42 b0 1b 3d e1 17 98 3d
       4.2091942e-05 -0.06129961 0.03800989 0.074264295
000330 e5 14 4b bb 6a 68 87 bd 19 ce 01 3a e4 82 11 bd
       -0.0030987796 -0.06611712 0.00049516704 -0.035525218
000340 06 7d 31 b9 f0 2e 1d 3b 5e 28 5c b8 25 1a 31 bd
       -0.0001692661 0.0023984276 -5.2489682e-05 -0.043237824
000350 6a 0e eb 3c 18 04 52 b9 30 f8 20 bd b1 96 fe 3a
       0.028693397 -0.00020028686 -0.03929919 0.0019423572
000360 ee 87 5a 39 b7 01 d4 39 54 a4 29 b8 f7 0e 4f 3d
       0.00020840738 0.0004043707 -4.0445782e-05 0.05055138
000370 12 8e 86 ba 4a c1 98 bc c7 68 4e 39 09 8d 1a 3c
       -0.0010265729 -0.018646855 0.00019684724 0.009433039
000380 37 1e 46 3c cb be 5b b9 9e dd 4e b8 17 7f 95 b8
       0.012092165 -0.00020956543 -4.9320624e-05 -7.128546e-05
000390 aa 6c f4 38 8a d9 39 b9 57 4d 4e b7 a1 ef 97 3b
       0.00011655067 -0.00017724014 -1.2296564e-05 0.0046367203
0003a0 28 01 0d 3c d4 cc d7 bb c6 04 57 3c 1b 69 df 3a
       0.008606233 -0.0065856967 0.013123697 0.0017044874
0003b0 58 dc 06 3d 63 4c 89 b6 99 f1 f4 3b 18 f1 21 3d
       0.03292498 -4.0918108e-06 0.0074750897 0.039536566
0003c0 bc 3a 01 39 9e 36 2a bd 7b 74 c8 37 5e b4 da 3b
       0.00012324279 -0.041555993 2.3896098e-05 0.0066743335
0003d0 ed 8a 75 3d b8 fd e4 bb 67 64 8d 3d f0 87 0a 3c
       0.059946943 -0.0069882534 0.06903916 0.008455262
0003e0 09 26 49 3c a3 bf 00 ba 80 ae 17 3c 3f ca 8a b7
       0.012277135 -0.00049113686 0.009257913 -1.654506e-05
0003f0 b7 c5 2b bb 8f 3c a7 38 a3 ac 01 b9 2c c3 35 bc
       -0.0026210377 7.9744605e-05 -0.00012366711 -0.011093896

convs.0.pre_nns.1.0.bias f4 [64]
000000 be e1 20 3d e0 ad 5a bd cd 34 85 bd 19 9d 5a 3d
       0.039277785 -0.053388476 -0.065042116 0.053372476
000010 7c 82 94 3d 95 2d 1a bd 9d 68 9e 3c 1c 47 93 3d
       0.072514504 -0.037641127 0.019336993 0.071912974
000020 37 a7 85 3d 8c 61 92 bd 6d 1b 7c bc 0e 06 fd bc
       0.06526034 -0.07147512 -0.015387398 -0.030886676
000030 fe 0e c2 bc 14 06 dd 3c dc 10 50 3c 7e 24 60 3d
       -0.02368879 0.026980437 0.012699332 0.0547223
000040 c2 5b 7e bc 08 e1 5c bd c1 00 90 bd 05 39 82 bb
       -0.015524806 -0.053925544 -0.07031394 -0.0039740824
000050 7f fb 7b bc bc 67 ad bc 42 c6 a1 3d b3 3c 85 bd
       -0.015379786 -0.021167628 0.07899143 -0.06505718
000060 be d1 25 3a 81 8b b5 3c 3d 95 2d bd f1 75 b1 bc
       0.00063255045 0.022161247 -0.042378653 -0.021662684
000070 90 fa 5e 3d 63 b6 cf ba 6a bf 06 bd 2f ee 32 3d
       0.054438174 -0.0015847202 -0.03289739 0.04368418
000080 bb 68 40 bc d8 e2 99 3d ba 27 82 3d 55 ea ae 3c
       -0.01174372 0.0751397 0.063552335 0.021351973
000090 1d b3 b2 bc 58 58 64 bd 7d 39 a3 3d 7c 28 4e 3d
       -0.021813923 -0.055748314 0.079699494 0.050331578
0000a0 49 a7 39 bc 4a 27 0f 3d 45 76 ca bc 18 2a 30 bd
       -0.011331388 0.03494958 -0.024714598 -0.043008894
0000b0 a8 c6 04 bd 20 f5 19 bd de 97 14 bc bc 5c e1 3c
       -0.032416016 -0.037587285 -0.009069411 0.02751004
0000c0 86 e3 5d bc da df b9 bc 25 75 ae bd eb 56 bb 3c
       -0.013543015 -0.022689749 -0.08518437 0.022868594
0000d0 e4 fe 06 bd f6 1f 87 3d ff 66 9e 3d 8d 17 47 3d
       -0.032957926 0.06597893 0.07734489 0.048606444
0000e0 b5 43 34 bc 47 a3 81 3c 51 29 e7 3c 91 09 21 bd
       -0.011002471 0.015824927 0.028217943 -0.039315764
0000f0 a9 79 8c 3d 43 7f 58 3d e3 d2 82 3c a2 90 f6 bc
       0.06859142 0.05285574 0.0159697 -0.030098263

convs.0.pre_nns.2.0.weight f4 [64, 128]
000000 32 3d 26 bc c4 54 17 b8 d8 31 b1 39 3c 01 cf b7
       -0.010146426 -3.608015e-05 0.00033797207 -2.4676898e-05
000010 9c 97 75 3d d2 3e 6c b8 84 eb 2c bd 6c 75 76 bd
       0.05995904 -5.632529e-05 -0.042216793 -0.060170576
000020 93 82 3e 38 b4 37 94 bd b3 1d 67 3d de 5c b7 bc
       4.5421137e-05 -0.07237187 0.056424808 -0.02238315
000030 a7 1c 81 38 9c f1 8a bd 97 3b 89 bb 8a 14 20 3d
       6.156536e-05 -0.067843646 -0.004188012 0.039082088
000040 dd 95 30 39 03 57 0b 3b c2 76 fe ba ff 4a a3 3d
       0.00016840496 0.002126158 -0.0019414055 0.07973289
000050 b1 2c 2c bd c0 11 e4 34 01 6c c2 3b 28 66 20 36
       -0.04203481 4.2481224e-07 0.005933285 2.390132e-06
000060 7b 55 a3 b7 6a a5 c9 37 6e 8a cd ba 2e 12 8e bd
       -1.947092e-05 2.4038094e-05 -0.0015681514 -0.06937061
000070 43 26 6d b9 21 a8 55 3c 4c e4 98 b9 e5 ef 4f bd
       -0.00022616335 0.013040573 -0.00029161794 -0.05076589
000080 75 33 52 bc ee ae 3b 39 7c 7b 0c 37 3d 82 ab bb
       -0.012829651 0.00017898876 8.373401e-06 -0.0052340315
000090 41 f5 ac b8 c6 fb 70 3c e8 02 ad 36 f8 b0 5d b7
       -8.247281e-05 0.014708465 5.15614e-06 -1.321383e-05
0000a0 e6 33 8d bc d2 ea 5b b9 19 cc fc b9 8d 33 52 b8
       -0.017236661 -0.00020972945 -0.0004821725 -5.0115912e-05
0000b0 71 59 4f 3c d5 2b 55 3b 7b 22 8b b8 6d 87 d7 bc
       0.012655602 0.0032527347 -6.634459e-05 -0.026309693
0000c0 5e bc 50 b8 a7 80 3a bd aa cb 76 3b 5a 47 08 b8
       -4.9766495e-05 -0.04553285 0.0037658014 -3.2491378e-05
0000d0 8b 79 a3 3d 92 fa a9 bc e7 7d 8a 3d 3b 92 95 bc
       0.07982167 -0.020749364 0.06762295 -0.018258205
0000e0 8a a7 f2 37 f2 79 3b bb 61 f2 98 b8 48 fe 0e bc
       2.8926665e-05 -0.002860662 -7.2930714e-05 -0.008727618
0000f0 01 f6 95 b9 6a 48 dd ba d7 ec d6 b7 7d de 13 3c
       -0.00028602782 -0.0016882543 -2.5621075e-05 0.009025213
000100 55 18 aa 36 90 f4 03 b9 ab 8e d7 37 31 5f 33 bb
       5.0692274e-06 -0.0001258424 2.5696432e-05 -0.002736997
000110 98 6b 3a bd 1b d8 6e bc 1f 24 cb bb fa 52 a7 3d
       -0.045512766 -0.014577891 -0.0061993743 0.081701234
000120 ee 0c dc bb 43 43 48 3d c7 9e 15 bd 42 80 e4 3c
       -0.0067154085 0.04889227 -0.036528375 0.02789319
000130 a2 db 36 b8 8b b4 87 bd 04 a9 88 3a fc 57 35 3d
       -4.359673e-05 -0.06626233 0.0010426347 0.04427336
000140 c0 24 ee 36 e2 6a b6 bb b0 06 f2 bb e2 b7 73 bd
       7.097231e-06 -0.0055669406 -0.007386051 -0.059501536
000150 84 11 27 bd 7c c1 f4 3b c2 a4 9e bd 03 ad 08 3b
       -0.04078819 0.007469354 -0.07746269 0.0020855076
000160 5d ab e0 b9 74 ca 89 b8 26 6e 64 b9 57 85 a2 bc
       -0.00042852285 -6.570379e-05 -0.00021784808 -0.019838972
000170 c2 59 a1 39 93 65 32 3d fa 66 a7 39 86 0b a5 3d
       0.00030775188 0.0435539 0.00031929446 0.080588385
000180 ff 7d 5b 39 5b b2 fe 3a e6 43 d7 38 2c 96 23 3c
       0.00020932405 0.0019431816 0.00010264646 0.009984534
000190 3b b1 92 b9 39 c2 77 bb 22 cf 58 3b e8 9a 32 39
       -0.00027979337 -0.0037804975 0.0033082445 0.0001703311
0001a0 ca 17 6c 3d 4e b4 e6 b8 0e 85 98 b7 ba e6 b9 37
       0.057639875 -0.00011000839 -1.818177e-05 2.2161159e-05
0001b0 f5 6e 8a 3d 12 db 67 bb 70 aa 28 39 96 34 11 3d
       0.067594446 -0.0035378379 0.00016085221 0.03545054
0001c0 13 aa 01 bc d6 37 e4 3c b0 d6 00 3a b2 62 66 3b
       -0.007914084 0.027858656 0.00049148034 0.0035154042
0001d0 85 9e 34 3d 00 66 97 3d f0 17 fd bc 6d 1d 86 3d
       0.04409649 0.07392502 -0.030895203 0.06548581
0001e0 31 7f 1c 3c fb 53 bf b7 a4 cb 76 3a 84 dc 03 38
       0.009551809 -2.280808e-05 0.00094145 3.1438205e-05
0001f0 78 ef e3 39 0a bc a3 b9 17 a2 bf 3b 12 a7 07 bc
       0.00043475232 -0.00031229883 0.00584818 -0.008279579
000200 c6 2b b5 ba b4 51 05 3c 93 02 04 b9 97 06 b6 b9
       -0.001382225 0.008137155 -0.0001258946 -0.00034718655
000210 24 bf 03 bd 49 97 ff b9 c6 45 97 3d f8 eb 8a 3d
       -0.032164708 -0.00048750106 0.07386355 0.06783289
000220 0c f6 e8 b6 26 ce 52 3d 9d 24 41 3c 99 4c aa 3c
       -6.9427824e-06 0.05146613 0.011788514 0.020788478
000230 7b 20 01 ba 16 b0 90 bc 4c 7d ab 36 e7 53 78 3c
       -0.00049257994 -0.01766209 5.1107836e-06 0.015156723
000240 b0 7c 11 bc 3d 43 0c 3c e4 98 ae bb 04 6b c2 bc
       -0.0088798255 0.008560953 -0.0053282846 -0.02373267
000250 5c c2 77 3d 2f 79 19 3c 7c f4 5f 3d 2f d6 89 39
       0.06048809 0.009367271 0.054676518 0.00026290255
000260 fd a8 8e 39 2b ba a8 bb 20 63 59 37 7f 35 17 bc
       0.00027210257 -0.005149146 1.2957287e-05 -0.009229063
000270 5f d2 1d bc de 0f a1 3c 79 b0 1e b7 06 9a 9d 3d
       -0.009632676 0.019660886 -9.458622e-06 0.07695393
000280 40 9b f9 36 c3 6c 01 bc 6c c0 e3 b8 40 83 0a 39
       7.4388518e-06 -0.007899466 -0.00010860045 0.000132096
000290 07 a0 86 b6 02 62 3a 3c 0e 25 8e b7 e7 dd 5b b9
       -4.012141e-06 0.011375906 -1.6944974e-05 -0.00020968133
0002a0 b4 32 85 bd 2a ae 5f 3c 10 35 b5 b9 60 65 98 b8
       -0.065038115 0.013652364 -0.00034562545 -7.2668074e-05
0002b0 5d 20 32 bd 62 d7 ba b7 3b 92 6e b8 27 2c 29 3b
       -0.043487895 -2.2273223e-05 -5.687981e-05 0.002581367
0002c0 68 5f 40 3c 8f b2 2c 3c a2 6e 96 b9 83 f3 df 39
       0.011741497 0.010540619 -0.00028692657 0.00042715305
0002d0 24 20 f7 ba 6f f4 37 3d 47 cb 8b ba 23 94 74 bd
       -0.0018854183 0.044910844 -0.001066544 -0.059711587
0002e0 c8 f4 1a bc 33 a2 ff b8 7a b4 eb b8 f7 55 98 38
       -0.009457774 -0.000121895595 -0.000112392896 7.263937e-05
0002f0 c7 61 18 bb 74 48 e6 3b ac e5 ea 3b 1d 87 f7 3b
       -0.002325164 0.00702768 0.0071684923 0.0075539486
000300 3e 8b 10 b9 46 b9 ea 3b 49 7f 52 b9 18 3f 5a b9
       -0.00013784782 0.0071631996 -0.00020074578 -0.00020813604
000310 cb 03 53 bd ed 38 a5 b8 ca 11 8a 3c 48 42 93 bd
       -0.05151729 -7.878416e-05 0.016854186 -0.071903765
000320 ea 19 01 b9 55 fb 35 bd 76 83 6f bd ed 88 a7 3d
       -0.00012312052 -0.044429142 -0.05847498 0.081804134
000330 e0 3d 14 b9 f4 80 d9 bb d6 1a 5a b9 bf 91 94 bd
       -0.0001413743 -0.006637687 -0.00020800097 -0.07254361
000340 7c 05 f8 b7 e9 a5 3d bc 57 9d 40 b9 ff b1 ae 3d
       -2.9566458e-05 -0.011575201 -0.0001836916 0.08530044
000350 7b 79 6f 3d 47 d6 00 ba b7 51 7e bc 67 9f aa b7
       0.058465462 -0.00049147423 -0.015522412 -2.0339807e-05
000360 f0 25 41 39 15 f2 e9 3b 7d e4 4d bc 0c 76 8e bd
       0.00018420047 0.007139454 -0.012566683 -0.069561094
000370 40 5b c5 3b c4 b7 3c bc 59 d4 fb 38 2d 3e ef 3c
       0.0060228407 -0.0115184225 0.000120081655 0.029204452
000380 a0 e3 8b 37 64 16 fb bb 58 da 71 bc 4f fb 36 b9
       1.6676087e-05 -0.0076625813 -0.01476153 -0.00017450492
000390 cc ce 48 39 3b cf f2 38 38 e0 c8 bb 25 52 97 b8
       0.00019150524 0.00011578059 -0.0061302446 -7.215542e-05
0003a0 73 8f 01 3b 47 27 1c 3b a5 91 0d bb e2 1f 81 3b
       0.001976934 0.0023827122 -0.0021601703 0.0039405683
0003b0 9d 37 ec 3b 03 f2 63 bc a2 4a 8e b7 dc 7e 0c bd
       0.007208778 -0.013912681 -1.6962473e-05 -0.03430067
0003c0 6a 01 a4 39 07 90 3e 3d 26 af 38 bc 79 02 76 39
       0.0003128157 0.046524074 -0.011272227 0.0002346131
0003d0 81 86 d4 3c 16 61 2c bb c0 1c 86 bd 2b a0 81 bd
       0.025943043 -0.0026302985 -0.065484524 -0.06329378
0003e0 b3 8b 36 b8 ed 25 01 ba 46 c9 2b 39 92 59 ad b8
       -4.3522286e-05 -0.0004926611 0.00016382811 -8.2659666e-05
0003f0 c6 fe 55 bc e5 97 0f bb d6 8c 55 39 7a 8e 2b b9
       -0.013061231 -0.0021910605 0.00020365728 -0.00016360907

convs.0.pre_nns.2.0.bias f4 [64]
000000 ca 8d 7f 3c 13 72 28 3d a0 27 35 bd fb 4d 52 bd
       0.01559777 0.041124415 -0.044227242 -0.0513439
000010 88 01 05 bd 29 35 90 bd 43 3c 43 3d e5 56 71 bd
       -0.032472163 -0.070413895 0.047664892 -0.05892076
000020 f0 fb a2 bc a5 68 48 3d 17 d3 8c bd a5 9f 35 3c
       -0.019895524 0.04892792 -0.068762 0.0110854255
000030 5d e9 8a bd 98 91 f0 bc c3 25 b2 ba 27 47 5a bd
       -0.06782792 -0.0293663 -0.0013591576 -0.053290512
000040 02 10 68 3d 4d 3e 84 3d 75 ee 10 3d 71 a2 22 3c
       0.05665589 0.064571954 0.03538366 0.009926424
000050 55 db 97 3d 24 55 52 bd 64 6b b7 bd b7 c2 01 bd
       0.07414881 -0.051350728 -0.0895603 -0.031679835
000060 62 f4 3e 3d 6d 19 0b bc ce 4f 61 3d 62 90 c7 bc
       0.04661978 -0.008489949 0.05500775 -0.02436084
000070 aa 24 1d 3d db d1 fe 3b 02 77 a2 3c 86 9f 0e 3c
       0.038365044 0.0077764816 0.019832138 0.008705026
000080 6c 8c 95 bb d4 f1 2d 3d c8 b1 af bb 73 23 73 bc
       -0.0045638587 0.042466953 -0.0053617693 -0.014839995
000090 43 72 08 bd 36 02 45 3d 14 01 c1 bc 28 a3 8a 3d
       -0.033312093 0.04809781 -0.023560084 0.06769401
0000a0 bf 36 c6 3c 30 fe 9c 3c 66 86 9c bd f0 e7 c3 bc
       0.024196027 0.019164175 -0.07642822 -0.023914307
0000b0 dc c0 1b bd 4f c6 ad 3d ef ed 56 3d 64 a2 74 bd
       -0.038025722 0.0848509 0.052473005 -0.05972518
0000c0 f3 fd 97 bd dd 38 51 bd 9d 0c 61 3d 81 15 91 3d
       -0.07421484 -0.05107962 0.05494367 0.0708418
0000d0 a0 69 00 3d ee ea 32 3d 2d be 3d 3d 7c bc eb 3c
       0.03135073 0.043681078 0.046323944 0.0287764
0000e0 6e 02 8b bc 64 44 87 3b 45 59 89 3c ab 05 86 3c
       -0.016968932 0.004128026 0.0167662 0.016360125
0000f0 44 67 3b 3b 2f 54 1a bd 16 27 97 bc 88 14 88 bd
       0.0028595487 -0.03767794 -0.018451255 -0.06644541

convs.0.pre_nns.3.0.weight f4 [64, 128]
000000 52 a2 07 38 e0 5a 9c 38 dc 57 24 3c 12 75 43 3c
       3.233768e-05 7.4555865e-05 0.010030713 0.011929767
000010 f2 c1 31 3d 3f f4 0f bb 07 87 8f 3d 65 b1 33 3d
       0.04339785 -0.002196565 0.07008176 0.04387035
000020 31 17 8e 37 94 7b f7 3c df 16 f6 bc 2c 87 5a bd
       1.6938518e-05 0.030210294 -0.030040203 -0.053351566
000030 74 0c 14 bb ee dc ff bc 94 53 b7 37 61 dc 6d bd
       -0.002259043 -0.031233277 2.1854219e-05 -0.058071498
000040 57 71 2e bc d4 1e 20 bc ca 54 38 39 c9 66 1c 3d
       -0.0106471395 -0.009772975 0.00017579194 0.03818396
000050 61 69 35 bd ac fd 76 b8 70 06 84 bb 02 3b cf b8
       -0.04428995 -5.888722e-05 -0.0040290877 -9.88152e-05
000060 30 5a 4b bc 8b ba e0 39 3b 41 fc 39 aa fa 00 bd
       -0.012411639 0.00042863595 0.00048113786 -0.031489052
000070 95 b3 8e 39 bd 5e 7b 3d af 7e 81 3b a0 44 8a bd
       0.0002721815 0.061369646 0.0039518694 -0.067513704
000080 81 01 86 38 77 ca 01 39 e8 37 9d 37 1a b6 14 b9
       6.389898e-05 0.00012377823 1.8741892e-05 -0.00014182218
000090 d5 f6 7c b9 f2 2e be b7 02 2b 56 39 14 9a f8 b7
       -0.00024124545 -2.2671626e-05 0.00020424652 -2.9635652e-05
0000a0 b7 12 b8 3c b7 22 85 3b 63 b1 23 39 40 60 1e bc
       0.022469861 0.004062976 0.00015610973 -0.0096665025
0000b0 0f 8e 82 bc 6f c4 01 39 02 c4 07 b8 56 94 91 bd
       -0.01593688 0.00012375576 -3.2369055e-05 -0.07108371
0000c0 f9 8e ce 38 f8 1f 37 bd 34 a4 80 38 5f d4 b1 38
       9.849476e-05 -0.044708222 6.134101e-05 8.479575e-05
0000d0 1d f9 2c bc 2e a7 8e 3d 44 1e bf bc 94 6d 81 3d
       -0.01055744 0.06965481 -0.023329861 0.063197285
0000e0 d6 bf 2c bc fe 0f 0b ba 5b 19 59 bc 6a d1 a7 38
       -0.010543784 -0.0005304812 -0.013250674 8.002187e-05
0000f0 a3 20 01 b9 4d 09 28 3c 74 81 3d bb 1a ab 13 3c
       -0.00012314557 0.010256124 -0.0028916271 0.009012962
000100 99 95 85 b7 08 29 a9 b8 36 a3 ce ba ed 93 d0 38
       -1.5924497e-05 -8.066191e-05 -0.0015765193 9.945766e-05
000110 24 45 6a 3d cc de 1d bc 29 39 60 3d e3 35 39 bc
       0.057194844 -0.009635638 0.054742012 -0.0113043515
000120 6d 7d a8 37 d7 6f 21 bd 06 b2 39 3c f2 1c 21 bd
       2.0085567e-05 -0.0394133 0.011333948 -0.039334245
000130 90 75 bb 38 ec e8 78 3d ab a4 e8 3a 34 12 25 bd
       8.9387526e-05 0.060769007 0.001774927 -0.040300563
000140 d0 6e 69 3c 22 3b e1 bc 67 51 b3 b9 78 aa 24 3d
       0.014247611 -0.027494017 -0.0003420219 0.040201634
000150 71 d1 b2 bd 92 0f 4e bc 04 b5 15 bd 27 38 01 3a
       -0.08731354 -0.012576954 -0.036549583 0.0004929327
000160 cd 99 4b 39 30 18 40 3a 11 3b 0d bc f5 6c af bd
       0.00019416884 0.0007327823 -0.00862004 -0.08565704
000170 d0 ad 3d b9 3f 83 90 bd 41 97 a6 b9 4c dc 1b 3b
       -0.00018089195 -0.07056283 -0.0003177468 0.002378243
000180 7a c9 07 38 58 71 fd b9 58 b2 11 b9 be 38 4b ba
       3.2374148e-05 -0.00048340368 -0.00013894716 -0.00077522907
000190 5b 4a c2 b9 5e bd 48 3b b4 fc 69 3a 83 a8 46 3b
       -0.00037057963 0.003063045 0.00089259003 0.0030312843
0001a0 e2 7f 64 bd c2 3c bf b8 02 a0 18 3c 25 79 85 b8
       -0.05578602 -9.118907e-05 0.009315493 -6.364499e-05
0001b0 af ad 8d bd d4 47 cf 39 27 d0 05 b8 ab ed 31 bd
       -0.06917893 0.00039535633 -3.1903528e-05 -0.04343955
0001c0 cc 37 61 38 bf d9 48 bc bf 75 73 b9 eb 3b 95 3b
       5.3696145e-05 -0.012258946 -0.0002321815 0.004554262
0001d0 f1 5b 85 3d ea 8a 17 bd ff a1 0e bd e5 bf 3d 3d
       0.06511677 -0.036997713 -0.03482246 0.046325583
0001e0 2c 91 30 b9 f5 06 3c 3b 16 5d 5c 3c e1 c7 8f bb
       -0.00016838749 0.002869067 0.013449928 -0.004387841
0001f0 12 78 72 b8 e7 f4 fb b9 52 a8 ac b6 4c 73 eb 38
       -5.780912e-05 -0.00048056917 -5.1455945e-06 0.00011227149
000200 54 c0 14 3c e9 c2 1f bb 05 f5 5f bc 2f 8f 07 b8
       0.009079058 -0.002437765 -0.013669257 -3.231986e-05
000210 ca f2 12 3d be 10 68 ba 04 23 a1 bc 6e cf 6a 3d
       0.035876073 -0.00088525924 -0.019670017 0.057326727
000220 ff 6f b6 b9 56 1b 9f 3c e6 a0 81 3d 63 ba a1 3d
       -0.0003479719 0.019422214 0.06329517 0.078968786
000230 a2 9b 25 37 a5 f2 52 3d 2c 29 f4 b7 84 dd 4c 3d
       9.8710025e-06 0.051500935 -2.9106239e-05 0.05001594
000240 43 0a 1a 39 c7 38 04 3b 80 ed e9 b8 cf 77 82 3d
       0.00014690407 0.0020175443 -0.000111545436 0.06370508
000250 ba 74 24 bd f5 a9 4c 39 d5 f3 a7 bd 66 72 cc 3b
       -0.04015038 0.0001951827 -0.08200804 0.0062392233
000260 29 47 62 ba 07 23 c1 3b d7 87 4d bb 8d 23 6c 3d
       -0.00086318195 0.005894068 -0.0031361484 0.05765109
000270 78 9a 2c 36 f5 55 84 bc 7f 0c 4d 3c d4 94 b5 3c
       2.571991e-06 -0.016154269 0.012515186 0.022165693
000280 b6 07 bf b8 22 99 db 36 00 d9 ca 3b 47 6f 44 bc
       -9.109026e-05 6.5445356e-06 0.006190419 -0.011989421
000290 58 c0 77 b8 5d ab 31 bc 8a ef 0c b9 7e ca b7 3a
       -5.9068523e-05 -0.010844079 -0.00013440676 0.0014022139
0002a0 c0 50 2d bd 24 46 6d 3c 35 f9 d4 b9 11 50 f7 b9
       -0.042313337 0.014482055 -0.00040621465 -0.00047171165
0002b0 ff 0a 60 bc b9 de 16 b8 a2 2e 9a 37 12 36 0e bd
       -0.013674497 -3.5970214e-05 1.8379946e-05 -0.034719534
0002c0 30 91 00 3a 31 6a da bc a7 94 8b bb 98 29 29 b8
       0.0004904447 -0.026661964 -0.004259664 -4.0331477e-05
0002d0 f0 3c 04 bd d7 c2 61 3d f1 21 4f 3d 2d 4b 5a 3d
       -0.032284677 0.055117454 0.05056948 0.05329435
0002e0 c7 39 fc b9 d2 de ea 3b 62 3a 86 3b eb 6e ed b9
       -0.00048108233 0.0071676755 0.0040963152 -0.00045286803
0002f0 63 99 a7 3a 58 d3 16 3a 4c 28 8b 3b 50 3a 1e 39
       0.0012786802 0.00057535386 0.004246747 0.00015089777
000300 de 2d 00 b6 e2 66 89 b7 6b 8f 59 39 9c 13 9f 38
       -1.9100185e-06 -1.6379581e-05 0.0002074816 7.585363e-05
000310 7d 2f 6c 3d 88 f4 a0 b8 7f 80 3e bd 0f 5a ce 3b
       0.057662476 -7.674942e-05 -0.046509262 0.006297357
000320 e0 07 3d b8 a5 f9 96 3c 7a ab ca bc c1 a2 39 bd
       -4.5068446e-05 0.018429587 -0.02473997 -0.04532123
000330 fa e2 ca ba 37 97 71 3b 46 99 16 3a e5 75 f1 3c
       -0.0015479021 0.0036863813 0.00057448854 0.029475162
000340 51 6a e8 b9 ec 0a e8 3c d4 eb d5 b9 bd ba a8 3d
       -0.000443297 0.02832552 -0.00040802232 0.082387425
000350 e8 0d a2 3d c8 64 da b5 bd bc 0d 3d 31 66 34 bc
       0.07912809 -1.6271597e-06 0.034603823 -0.011010692
000360 e8 6f f6 3a a2 81 e4 b8 d5 ba 3d b9 30 73 29 bc
       0.0018801661 -0.00010896033 -0.00018094045 -0.010342404
000370 8c ba 9f b8 59 59 8f 3d 80 d7 2f b8 0c 32 61 bd
       -7.616458e-05 0.069994636 -4.192395e-05 -0.05497937
000380 67 99 10 bc 66 d1 eb 38 3c 2c 25 bc b8 cb b8 3a
       -0.0088256365 0.00011244677 -0.010081347 0.0014098799
000390 0e 32 be 38 6a 1e 6f 39 2d dc da 39 75 87 6e 3c
       9.0692294e-05 0.00022804146 0.00041744244 0.014558663
0003a0 50 c1 3c bd 27 f4 a3 b8 d6 48 de b9 61 9c 5f 3c
       -0.046082795 -7.8179226e-05 -0.00042397407 0.0136481235
0003b0 27 c3 a1 bc 70 86 c5 b5 e5 e1 9e 39 e2 62 7d 3d
       -0.019746376 -1.471677e-06 0.00030304413 0.06186188
0003c0 c0 b6 72 3c 35 78 1d bc 1d 68 fb 39 03 58 48 b8
       0.014814079 -0.009611179 0.0004795202 -4.7765683e-05
0003d0 29 15 81 bb 21 6e 51 3c 0b 4e 88 bb 20 84 ce bb
       -0.00393929 0.012782604 -0.004159694 -0.0063023716
0003e0 4a 8c df b9 75 02 01 3a c4 fa 6d 38 ce 84 d7 3b
       -0.00042638398 0.00049213256 5.6738747e-05 0.006577111
0003f0 58 0f f1 3b 28 26 41 bc 2d 80 fb 37 33 de 93 38
       0.0073565654 -0.011788882 2.9981218e-05 7.050894e-05

convs.0.pre_nns.3.0.bias f4 [64]
000000 d9 e9 08 bc 47 33 89 bd be 6b 0f bd 41 65 8f bd
       -0.008356535 -0.066992335 -0.03501486 -0.070017345
000010 09 6c 8a 3d fc 9c 59 3b 72 88 31 3d 8a c5 d7 bc
       0.06758887 0.0033205142 0.043343015 -0.026339311
000020 af 1a 33 bc 78 20 3f 3c e6 97 60 3d d5 e7 4d bb
       -0.010931655 0.011665456 0.05483236 -0.00314187
000030 33 ce 10 bd d5 52 1f 3b 02 71 34 3d 0e ea 28 3d
       -0.035352897 0.0024310846 0.044053085 0.041238837
000040 c4 7d 94 3c 08 d9 20 bd d6 ae 9a bd 3c e2 92 3d
       0.018126376 -0.039269477 -0.075528786 0.07172057
000050 c7 c4 e9 3c 18 0c 92 3d 07 67 48 bd dc f5 60 3d
       0.028536214 0.07131213 -0.04892638 0.05492197
000060 ea e6 90 3d a4 ff 9a bd 92 f9 83 3d 15 f3 30 bd
       0.07075293 -0.07568291 0.06444086 -0.04320057
000070 f1 23 27 3d 39 29 d6 3b b4 b7 fc bc f4 83 91 bd
       0.04080576 0.006535676 -0.030849315 -0.07105246
000080 92 21 b0 3d 16 f1 7a bd 7c 99 8b bd 07 a6 cc bb
       0.08600153 -0.061265074 -0.06816384 -0.006245378
000090 ef 7f aa 3d 09 d8 a2 bd 54 cf 92 3d 38 c8 93 bd
       0.08325183 -0.07951362 0.07168451 -0.07215923
0000a0 e1 e8 50 bd 98 b4 21 3d b1 98 50 3d e8 cc 33 3d
       -0.05100334 0.03947887 0.050926868 0.043896586
0000b0 35 ab 44 3d 4a 27 2f bd 71 70 64 bd 33 81 5d 3d
       0.04801484 -0.04276208 -0.055771295 0.054078292
0000c0 83 01 ad bd 24 80 5c bd e7 35 19 3d 03 17 94 3d
       -0.08447554 -0.053833142 0.03740492 0.07230952
0000d0 a9 e1 9e bb e0 8c 81 3c 86 45 6e 3d c3 f0 00 3c
       -0.004848678 0.015814245 0.05817177 0.007869902
0000e0 ab 93 80 bd 03 4f d1 3b e7 b6 97 3d 25 1d fc 3c
       -0.062781654 0.0063875928 0.07407933 0.030775616
0000f0 ed 75 8f bb 3d 87 e9 3c b4 15 9e 3d bc 64 a3 3d
       -0.0043780715 0.02850687 0.07718983 0.07978198

convs.0.post_nns.0.0.weight f4 [16, 832]
000000 1e 7c 45 b9 34 9b 15 b8 1c a2 2b 39 c7 89 73 b8
       -0.00018833621 -3.5668912e-05 0.00016368221 -5.806403e-05
000010 a6 ae 3e 37 0f 01 a6 b8 b0 57 01 39 39 6d 9c 37
       1.1365546e-05 -7.915694e-05 0.00012335065 1.864751e-05
000020 dd 4a 2f 38 8a 4a c3 35 77 59 22 39 d6 b0 5f 39
       4.1792973e-05 1.4550326e-06 0.00015482852 0.00021332814
000030 3a be 1d 38 38 e7 68 b6 ef 08 44 39 7e f1 48 38
       3.760888e-05 -3.470528e-06 0.00018695345 4.7908623e-05
000040 43 21 44 b9 ca fb ff b8 2e 12 3f b7 15 a3 92 38
       -0.00018704408 -0.00012206247 -1.138872e-05 6.992199e-05
000050 91 b9 ec b8 9b ec 26 b7 91 57 c7 b8 6b dd 25 37
       -0.000112879214 -9.94946e-06 -9.50537e-05 9.886319e-06
000060 94 39 dd b7 82 67 f7 b8 00 7a 20 b9 16 15 a4 b8
       -2.6372065e-05 -0.00011797158 -0.00015304238 -7.824057e-05
000070 2a 2f 77 b8 60 83 37 b8 06 0c 01 39 f6 37 54 b7
       -5.8933314e-05 -4.3752952e-05 0.00012306878 -1.2649214e-05
000080 28 30 90 b7 b4 a6 e4 b8 1b 4b 0d b8 c9 9b 01 b9
       -1.7188562e-05 -0.00010902938 -3.3686967e-05 -0.00012360433
000090 7c c9 b1 b6 56 69 6e 37 ca f4 3a b7 e2 c4 35 37
       -5.298467e-06 1.4210431e-05 -1.1143458e-05 1.0834281e-05
0000a0 19 ad 13 38 14 4a 0d 38 ca 2d 12 39 b1 3f 02 b9
       3.520874e-05 3.368601e-05 0.00013940703 -0.00012421493
0000b0 9c 38 11 b8 42 b8 ed b7 91 5a 4f b8 60 db b8 38
       -3.4623416e-05 -2.8338403e-05 -4.9436992e-05 8.8146655e-05
0000c0 3c 50 3f b9 06 cb e4 36 91 b4 db b6 e7 5b 11 37
       -0.00018245069 6.8185645e-06 -6.5477293e-06 8.664071e-06
0000d0 0a 4a a1 b5 d1 da a9 b6 24 82 f8 b7 ee fc 05 38
       -1.2016983e-06 -5.062066e-06 -2.9624505e-05 3.194523e-05
0000e0 cd 7d e7 35 e0 d9 b8 b7 a8 d6 d5 38 50 9d 33 b7
       1.7247454e-06 -2.2035965e-05 0.00010196614 -1.0705859e-05
0000f0 38 8b 00 37 a3 f3 17 b9 2a b8 4c 38 fd 53 94 b8
       7.661809e-06 -0.00014491244 4.8808906e-05 -7.072834e-05
000100 c2 bd a2 bc 61 3f 96 3c 57 0b ee 3c e1 ad c4 3c
       -0.019865874 0.018340768 0.029058142 0.024008693
000110 9c 90 55 3b 8c a7 57 bc a0 7a a0 3b 54 28 8b bc
       0.0032587415 -0.013162505 0.0048974305 -0.016987003
000120 a4 8e 87 3c eb 8c ae 3c 60 2c c0 bc 5d f7 7a bc
       0.016547509 0.02130743 -0.02345866 -0.015317765
000130 23 00 ca bb c7 a5 79 bc 97 28 75 bc a3 a5 05 3c
       -0.006164567 -0.015237278 -0.014963291 0.008157167
000140 9a 9b 6f ba 58 16 92 3c 71 2c 52 3c 31 bb 8e ba
       -0.0009140313 0.01783292 0.0128279785 -0.0010889528
000150 59 5b d8 bb 73 fb 0b bd 4f 69 2c 3c a9 27 9a ba
       -0.0066026864 -0.034175348 0.010523154 -0.0011761087
000160 7e ef ba bc c6 b0 05 bd 86 af 9d bc bf 11 02 3b
       -0.022819277 -0.032639287 -0.019248735 0.0019847003
000170 3a fc 87 3c 84 d1 d1 ba 4d fc 07 3c c3 03 01 ba
       0.016599763 -0.0016007875 0.008299899 -0.000492152
000180 9f 80 db bc a8 d4 ba 3b e2 e5 a8 bc 70 ed 39 3b
       -0.02679473 0.00570162 -0.02061743 0.0028370284
000190 9b 34 2d 39 10 d0 f6 bc f3 aa 5a bc 60 07 76 3c
       0.00016518163 -0.030128509 -0.0133464215 0.015016407
0001a0 36 7f d5 3c a3 c1 ca 3c 21 10 09 bd 52 de 84 3b
       0.026061635 0.024750536 -0.033462647 0.004054823
0001b0 4b 5b cd 3c fd 93 73 3c 78 64 e7 3b 63 1e 24 bc
       0.025067946 0.014866826 0.0070615374 -0.01001701
0001c0 c1 0d 6c bc 42 a7 90 3c 60 e8 0b 3d f4 26 c3 bc
       -0.014407576 0.01765788 0.034157157 -0.023822285
0001d0 77 22 94 3b 98 27 d4 3b 01 94 48 3b 7e 76 89 3c
       0.00452071 0.0064744465 0.0030605795 0.016780134
0001e0 ec f9 f9 3b 66 62 a6 3b 19 85 ee 3c bb 12 01 3c
       0.00762867 0.005077648 0.0291162 0.007878001
0001f0 5f 9c a4 bc 7d 51 c8 bc ba 69 b4 3c 91 5f e9 bb
       -0.020094095 -0.02445292 0.02202307 -0.007121988
000200 a9 49 bb bb e1 80 ce 3a 4f 8e 8d bc 0b 5e 3f 3c
       -0.005715568 0.0015754962 -0.017279772 0.011680136
000210 bf 1c 6e 3c ed 20 a4 3c 6d 90 37 bc de 01 c9 3a
       0.014533221 0.020035231 -0.011203867 0.001533564
000220 0f 0e 91 3c 3b e6 c5 bb 7e 45 12 3d 9d af fe bb
       0.017706899 -0.0060394085 0.035710804 -0.0077723996
000230 48 82 8b bc 4b 36 09 bd 22 57 ab 3c b0 d9 a7 3c
       -0.017029896 -0.033499043 0.020915572 0.020489544
000240 38 e9 bf bc f2 58 e1 3c b3 1e df 3c 79 1f 30 bc
       -0.023426637 0.027508233 0.027236318 -0.010749691
000250 f2 3f fa 3c 10 2f ec 3c a5 9e b2 bc fd e9 c8 3b
       0.03054807 0.028831035 -0.021804163 0.006131409
000260 bb 65 88 3b 83 2e 52 bc d3 25 b1 3c 4b 21 f5 bb
       0.004162518 -0.012828472 0.021624481 -0.0074807755
000270 22 3e f8 3c 47 1a 90 bc db 3a 01 bd 49 15 28 bc
       0.030303065 -0.017590655 -0.03155027 -0.010258981
000280 82 32 de bc 3b 8a bd bc d9 51 6e bb 29 32 c7 3a
       -0.027123693 -0.023137202 -0.0036364703 0.0015197444
000290 e3 7e 23 bc b9 94 81 3a 34 05 e6 3c 47 51 b7 3c
       -0.009978983 0.0009886242 0.028078653 0.022377623
0002a0 9d ba b3 3c b9 06 84 bc 4e f0 0c bd 38 80 a6 bc
       0.02193957 -0.016116487 -0.03440886 -0.020324811
0002b0 db db ad bc d8 60 a0 3c 9f 38 b5 bb 6f 9a b1 bc
       -0.021223 0.019577429 -0.0055304314 -0.021680085
0002c0 05 7b 1b 3b 17 00 e2 bc 6f a9 a2 3c 30 ba 80 bb
       0.0023724448 -0.027587933 0.019856183 -0.0039284453
0002d0 3e 6e bd bc 3e 8c 8b bc b5 59 cd 3b 34 7d 1f bc
       -0.023123857 -0.017034646 0.0062667974 -0.009734441
0002e0 2a eb 56 bb d4 ea 3b 3c 38 7d 6b 3c 67 73 ec bc
       -0.0032793977 0.011469562 0.014373116 -0.028863622
0002f0 1e 90 0e 3b cc 81 88 3a 6c 84 ec 3c 1d 3f ea 3b
       0.002175338 0.0010414659 0.028871737 0.007148637
000300 1a 54 4c 3a 2f e9 52 3c 78 fc f7 3b 09 2c f7 3c
       0.00077945145 0.012872978 0.0075679384 0.030172365
000310 82 af 9c bb 5f 82 c0 bc bb e6 4f 3c 57 c8 60 3c
       -0.0047816643 -0.023499666 0.012689288 0.01371964
000320 78 74 23 bc 75 0e a8 3a f0 33 f1 3c bc 2b 94 bc
       -0.009976499 0.0012821691 0.029443711 -0.01808726
000330 d1 db c0 bc 36 5e 57 3a 58 2a 05 bc ed 8c d7 3c
       -0.023542317 0.00082156376 -0.008127771 0.026312316
000340 5c 32 f3 bc 7a 06 c7 3c ee 43 71 3c 67 bd cb 3c
       -0.0296871 0.02429508 0.014725668 0.024870588
000350 84 09 00 bc 64 b2 e2 bc c1 2b 1e bc 19 a6 fe 3c
       -0.007814769 -0.027672954 -0.009653986 0.03108506
000360 8f ef 8b bb 9a ef 3b 3c 68 77 77 3c 20 f2 d7 3c
       -0.004270501 0.0114707 0.015104152 0.026360571
000370 96 50 b4 bc 1e 96 94 bc f1 3e 05 3c a9 6d c9 3b
       -0.022011083 -0.018137988 0.008132682 0.0061471057
000380 2a 8f f5 bc c4 81 70 3c 83 3a f3 3c cc 28 fc bb
       -0.029975493 0.014679376 0.029690986 -0.007695293
000390 c2 5f 79 3b 03 74 d6 bc 06 4d 88 bc 84 4e a3 bb
       0.003805146 -0.026178366 -0.01663829 -0.004983725
0003a0 da d6 7a 3c a4 e0 f6 bc c3 94 48 3c 80 03 9b bb
       0.015310014 -0.030136414 0.012242499 -0.004730642
0003b0 5c fb 7e 3c a7 58 da bc 1d 06 87 3c e1 3f eb 3c
       0.015562858 -0.0266536 0.016482407 0.028716983
0003c0 40 69 94 3b fe f7 77 ba b3 ed 21 bb 7a 33 47 bb
       0.0045291483 -0.0009459256 -0.002470833 -0.0030395673
0003d0 5c f8 ff 3b 4d 70 e8 bc e5 8e 97 3c 5d 52 9c 3c
       0.007811589 -0.028373862 0.018500755 0.019082243
0003e0 7a b4 c7 3c 1b 5d 1d 3b 3a f9 74 3c b2 c5 0e 3d
       0.02437805 0.0024011794 0.014951998 0.034856506
0003f0 5f 16 1a 3c 86 43 3e bb f1 30 c4 bb 5c 6a 1f 3b
       0.009404748 -0.0029031946 -0.0059872796 0.002432487

convs.0.post_nns.0.0.bias f4 [16]
000000 26 76 c6 b7 62 f5 9a 38 4b b2 9d b8 2e 17 97 b6
       -2.3658456e-05 7.388998e-05 -7.519553e-05 -4.502849e-06
000010 08 c3 fb b7 b9 3c ae 37 a2 12 33 37 b0 08 14 b9
       -3.001235e-05 2.0770693e-05 1.067357e-05 -0.00014117616
000020 d1 af 97 b7 53 b3 e4 38 64 d4 1a 38 62 6b 11 b7
       -1.8082474e-05 0.00010905289 3.6914265e-05 -8.6676755e-06
000030 f9 08 0b b9 d3 89 4a 38 f7 5a 4a 38 b8 b3 40 b8
       -0.00013259416 4.828891e-05 4.824527e-05 -4.5943743e-05
