checkpoints/pna_baseline/best_pna_baseline_seed2.pt (torch, 766766 bytes, 50 tensors)

input.weight f4 [64, 1]
000000 b1 85 57 3e 9b a7 1f be db 01 85 3e 3f 6b 21 b9
       0.21047093 -0.1559128 0.25977978 -0.00015394109
000010 97 85 d2 3e f3 99 60 3e e1 13 27 bd 66 ac 3c bf
       0.41117546 0.21933727 -0.040790442 -0.7370056
000020 44 0d 16 3e b3 7e 4c bf bb ab 02 3e 44 22 88 3d
       0.14653498 -0.7988083 0.12760822 0.06647161
000030 5b b5 0d be 8d 35 3b 3f d1 1b bf 3b 28 eb a8 3e
       -0.13838713 0.73128587 0.0058321734 0.3299191
000040 af 1d cc 3e e2 10 01 bf e6 92 99 be ca 31 6b 3f
       0.39866397 -0.50416386 -0.29994887 0.9187285
000050 4a 8e 64 bf 94 f7 d2 bb 62 b6 57 bc 46 56 2a 3f
       -0.89279616 -0.006438205 -0.013166042 0.6653789
000060 be 28 c9 bc a4 f5 38 3e cd a9 b5 39 11 d8 f2 be
       -0.02455556 0.18062454 0.00034649522 -0.4743047
000070 eb ca 06 bf d2 17 cd be 6f 63 52 bf ee 20 10 bf
       -0.5265338 -0.40057236 -0.82182974 -0.56300247
000080 d7 0a 1d 3e b1 de 20 3f 15 c5 30 b9 7c 21 bf be
       0.15336166 0.628398 -0.00016858087 -0.37330234
000090 bd 65 d1 3e 01 4a 99 be 2c 50 0f be 4a dc ec be
       0.40897933 -0.29939273 -0.13995427 -0.46261817
0000a0 d4 a7 94 be fe 09 57 bf ce eb cd 3e d0 8e be 3e
       -0.29034293 -0.8399962 0.40218967 0.37218332
0000b0 fb 7c f1 3d 1e cb e9 3e ec 48 c5 3e bc 0d 2c ba
       0.11791416 0.4566278 0.38532197 -0.0006563326
0000c0 5e 0d 08 3d 5c 3f 73 3d 7c 6a e5 3e 79 f6 21 3f
       0.033215873 0.059386596 0.44807804 0.6326671
0000d0 09 ed 29 3f b0 cd 07 3f c5 77 25 be 41 c1 3e bd
       0.6637731 0.5304823 -0.1615897 -0.04657102
0000e0 7c ff 43 be 64 90 0e 3f 8d 9e 19 3d 18 64 5e 3f
       -0.19140428 0.5568907 0.03750472 0.8687148
0000f0 c2 2f fb 3e 3e a7 44 bf d6 47 56 3e 32 dc 67 3f
       0.49059874 -0.7681769 0.2092584 0.90570366

input.bias f4 [64]
000000 b3 2d 57 3f e9 59 6e 38 6d 03 a1 3e 5b f7 59 bf
       0.84054106 5.6827357e-05 0.31447926 -0.8514306
000010 a9 18 9f be 90 58 e7 3e d4 0a 53 bf 15 b4 4c 3f
       -0.31073502 0.45184755 -0.824384 0.79962283
000020 7a 55 12 bf 0e 25 6e 3e ea be 09 bd ed 43 2e 3e
       -0.57161677 0.23256323 -0.033629335 0.17018099
000030 c6 b8 d4 3c b3 24 59 bf 79 aa 08 be f7 d2 0b bf
       0.025967013 -0.84821624 -0.1334628 -0.5461878
000040 9c 26 4e 3f 6a be 42 bd 30 b5 68 bf b7 9f 6c 3e
       0.80527663 -0.047544874 -0.9090147 0.23107801
000050 ae de b2 3e aa ac b9 be da 35 c1 bc 98 01 cd 3e
       0.34935516 -0.36264545 -0.023585249 0.40040278
000060 21 4c 09 bf d4 e0 e2 be 00 0b d2 bc ba b9 1d bf
       -0.5363179 -0.44312155 -0.02564001 -0.6161152
000070 d4 2b 11 3f f9 8a 73 3c 71 33 03 3f cb 4f e6 3e
       0.567075 0.014864677 0.5125037 0.44982752
000080 a4 31 2f bf 82 64 16 bf a4 0f 19 bf 92 5e 73 be
       -0.6843512 -0.5874711 -0.5978949 -0.23766544
000090 5f 5e a9 be 75 bf a8 bd f1 77 61 bf 87 c9 ac 3e
       -0.33079812 -0.082396425 -0.8807364 0.33747503
0000a0 e9 e1 09 3f 97 dc 6e 3e 43 52 1a 3f 59 52 37 3f
       0.53860337 0.23326336 0.6028177 0.7161003
0000b0 1b 86 66 bf a4 2c 11 3e ed 50 5d 3f dd 75 23 bf
       -0.9004838 0.14177185 0.8645161 -0.6385172
0000c0 d5 73 b8 be e3 cc 44 bd 14 44 09 bf ea f6 2b be
       -0.36025873 -0.048046958 -0.53619504 -0.16793409
0000d0 ba 27 10 be 80 50 54 3f 61 3e 83 bb 9a 27 02 3f
       -0.14077654 0.82935333 -0.004005239 0.5084168
0000e0 4d 8b 30 3f c6 05 da 3e fa 7a 48 bf 47 26 33 3f
       0.68962556 0.4258253 -0.7831265 0.6998028
0000f0 84 5c 23 3f 68 74 21 bf c4 75 8b be 56 c5 22 3f
       0.6381304 -0.63068247 -0.27238286 0.6358236

convs.0.pre_nns.0.0.weight f4 [64, 128]
000000 4b c0 8c bd 21 d2 5f b8 d2 34 4f 3d 59 d7 c1 36
       -0.068726145 -5.336304e-05 0.050587483 5.776918e-06
000010 3d 88 89 3d ae 69 b5 3c b0 65 59 3c 2e c9 1c bd
       0.067154385 0.022145119 0.013268873 -0.038277797
000020 20 49 6a 39 f1 ca fe 39 52 c2 21 bd 8d c3 a2 3c
       0.0002234322 0.00048597858 -0.03949196 0.019868637
000030 fa c2 97 b9 aa af 2d 3a f7 b2 3f 3b 0c 0f 41 38
       -0.00028946233 0.0006625602 0.0029250958 4.60288e-05
000040 ee 41 84 bd 8a 25 1a 3b 78 bb e3 39 46 d5 b4 3d
       -0.064578876 0.002352091 0.0004343649 0.08829741
000050 98 ea 63 36 04 99 a4 b6 ba 3d 52 bb d6 78 8c bd
       3.3962187e-06 -4.9053942e-06 -0.003208025 -0.06858985
000060 d0 c6 b6 b9 5a bd 2a bc f0 6f 7c 39 0f 9c e1 b8
       -0.00034861872 -0.0104211215 0.00024074293 -0.00010757904
000070 43 d6 2c 3c c8 1f 8d b9 35 17 8f 39 62 b0 e8 39
       0.010549131 -0.00026917295 0.00027292376 0.00044381904
000080 cf a4 88 3c 29 c8 8e 3c 58 44 35 39 cf 86 80 3c
       0.01668015 0.017429428 0.00017286965 0.015689282
000090 3c 06 5a 3d a8 ff 20 3a 9f aa 19 bc e1 2d 2a 3b
       0.0532286 0.00061416114 -0.009379058 0.0025967287
0000a0 94 eb 99 3d e7 c1 9d b9 2a 2c e2 bc d4 b6 8e bd
       0.07515636 -0.00030089842 -0.02760895 -0.069684654
0000b0 67 a2 1a bc d8 b3 42 bd 44 cd 06 3d 6f e8 67 3b
       -0.009438134 -0.047534794 0.0329106 0.0035386344
0000c0 2c 5b 0a bc 16 12 b3 3c 49 4f 88 39 28 c4 b7 3d
       -0.008444589 0.02185921 0.00025999013 0.08972961
0000d0 b7 b4 af 3d 1a e7 6c bc 70 37 35 3a b5 49 21 3d
       0.085793905 -0.014459396 0.0006912863 0.039376933
0000e0 aa d5 0a 3c f0 e5 51 3d 78 07 11 36 95 08 49 bd
       0.008473793 0.051244676 2.161103e-06 -0.04908045
0000f0 4d c9 36 bd 66 02 c7 3b 80 c0 4e b6 b1 fe 6f 3b
       -0.04462557 0.006073284 -3.0808442e-06 0.0036620314
000100 a9 6a 22 3c 94 97 83 b9 d3 be 0b bd 6f c0 ea ba
       0.009913125 -0.00025099202 -0.03411753 -0.0017910133
000110 dc 0e e6 bc 9e 20 5b bd 21 9b 4c bc 75 12 17 3d
       -0.028083257 -0.053497903 -0.0124881575 0.036882836
000120 87 83 96 bc a7 56 ca 39 73 f6 5f 3d e8 b5 68 bd
       -0.018373264 0.00038593003 0.05467839 -0.056814104
000130 10 b1 31 3c ba f1 0d bc bc f2 88 3c 2c 5e 11 39
       0.010845438 -0.008663589 0.016717307 0.0001386336
000140 31 bf 86 bc a1 61 3a 38 bc c7 32 3a 41 44 a8 3c
       -0.016448589 4.443678e-05 0.0006819924 0.020540358
000150 d2 84 74 b8 26 4e 70 bc 7f f5 34 ba 12 52 b4 3d
       -5.8297832e-05 -0.01466707 -0.0006903037 0.08804716
000160 ba ec 92 38 3d 6c 25 3a 0a fd aa b8 77 99 34 3a
       7.005916e-05 0.0006310379 -8.153364e-05 0.0006889323
000170 49 33 f5 bc 93 70 ec b8 00 88 15 3a 88 73 f7 38
       -0.029931681 -0.000112743255 0.00057041645 0.00011799397
000180 cf dd 46 bc 51 19 f9 bb 65 e7 9c 39 2e f2 39 37
       -0.012137844 -0.007601895 0.0002992704 1.1083246e-05
000190 ba e9 cd bb 79 8b 8f 3c 6e ac 6d b9 8f cf f2 ba
       -0.006283966 0.01752256 -0.00022666316 -0.0018524992
0001a0 ac 81 58 bd 4a 58 a4 b8 da 6b 41 3d e0 f4 7f 3d
       -0.05285804 -7.8365745e-05 0.047221996 0.06248939
0001b0 56 cd d7 bb b7 ef 4f 3d dc 25 72 bd a7 c2 00 3c
       -0.0065857572 0.05076572 -0.059118137 0.007858909
0001c0 3d d5 2b b6 fc 59 83 bb 4c 4d 18 3a 9e 60 82 3d
       -2.5605107e-06 -0.0040085297 0.0005809858 0.063660845
0001d0 76 a2 aa 3d 2b e5 81 bd 0e cf 7f 3c f2 e0 8d bc
       0.08331768 -0.063425384 0.0156133305 -0.017319176
0001e0 d6 a8 46 bd e1 21 d3 3b 22 3b 35 3a 4f 80 bc 3d
       -0.04850086 0.0064432477 0.00069134135 0.092041604
0001f0 42 bc a7 bc 2f 54 e8 b9 a4 3b 90 3b 9c 1f 87 3d
       -0.02047551 -0.0004431321 0.004401641 0.06597826
000200 c1 7e 21 bb 87 ee 5e b8 65 67 0a bc 63 9d c2 ba
       -0.0024642202 -5.315107e-05 -0.008447503 -0.001484793
000210 e7 70 a4 3c a1 93 91 3d 24 01 4d b9 98 f5 f3 3a
       0.020073367 0.07108236 -0.00019550748 0.0018612621
000220 ca af 22 3a f4 28 f6 b8 a7 92 2e 3d cc 63 f5 3b
       0.0006206004 -0.00011737822 0.042620327 0.0074887034
000230 69 c0 5e 39 df 05 c4 38 1e 90 23 39 76 e2 09 b9
       0.00021243248 9.347102e-05 0.00015598579 -0.00013149701
000240 1c a9 38 3d a8 25 8e 3a 94 f2 b9 ba 31 eb aa 3d
       0.04508315 0.0010844963 -0.0014186674 0.083456405
000250 ca 92 ee 38 a8 72 70 b8 13 40 43 b9 dc 12 f8 bc
       0.00011376066 -5.732724e-05 -0.00018620519 -0.03028243
000260 ca 62 83 37 93 05 30 3a ac 0b 07 3b 58 c4 8a 3c
       1.566242e-05 0.0006714698 0.0020606322 0.016939327
000270 7a 6d 4b 3c e2 72 25 bb b5 07 10 3b 6f e3 80 3b
       0.012416238 -0.0025245477 0.002197725 0.003933362
000280 5d 43 38 b9 3c dc 85 bc 2f e7 34 ba 69 fb 2a 3a
       -0.00017572702 -0.016340367 -0.0006900904 0.00065224484
000290 35 2c ef bc 80 c3 cd bb 04 f4 9e bc 4c 1f e9 b7
       -0.029195884 -0.006279409 -0.019403465 -2.7790338e-05
0002a0 8c 9d 89 3c db b5 cd 39 d2 24 d2 bc e3 f7 96 3d
       0.016798757 0.0003923614 -0.025652323 0.073714994
0002b0 69 48 8d bc ad 97 a0 bc 59 ab 16 3d 9b 45 2a b8
       -0.017246442 -0.019603575 0.036784504 -4.0595984e-05
0002c0 2d 37 f8 bb d2 8f 8c 3c 97 b8 0b 3a ee e8 29 3d
       -0.007574937 0.017158423 0.0005329935 0.041481905
0002d0 60 e8 93 3d f7 18 a4 3c 5d 82 1f 39 f5 ca 1a bd
       0.072220564 0.020031435 0.00015211986 -0.03779121
0002e0 bd c9 58 3d 9e e4 b1 3c 9a 02 ba 3a 29 76 d1 bb
       0.052926768 0.021715458 0.0014191449 -0.0063922596
0002f0 97 c8 af 3c ae 38 83 3c 45 7c 97 bc 96 96 9a 3d
       0.021457953 0.016018238 -0.018491874 0.07548253
000300 58 b3 80 bb df 62 12 bb ad 11 36 bd 9d 23 1f 38
       -0.0039276294 -0.0022336764 -0.04445045 3.794172e-05
000310 8d 58 3c 3c 98 5e 27 3d 97 f8 e1 b7 1d 88 93 bc
       0.0114957215 0.040861696 -2.6937849e-05 -0.01800924
000320 ff a9 49 b9 da e8 87 3c d2 c6 07 bd 80 26 56 bd
       -0.00019232182 0.016590524 -0.033148594 -0.05228281
000330 61 ce b6 37 e8 fb d3 3a bf be 93 3c 4d 6f b6 39
       2.1792193e-05 0.0016173096 0.01803529 0.0003479667
000340 70 e8 8a 3d 84 c7 68 bb 5c 8e bf b7 7e 97 90 bd
       0.06782615 -0.0035519311 -2.2835266e-05 -0.07060145
000350 3f cf 77 bb ef 0a f7 38 54 a3 64 ba c6 6a 4a bc
       -0.0037812737 0.00011779914 -0.00087218476 -0.012354558
000360 94 a5 42 b9 95 74 fb 39 8a ef 3c 3c 7a 45 9d 39
       -0.00018562964 0.0004796131 0.01153172 0.00029997138
000370 91 0e b1 bc 0c 7e 81 3c 8b 40 c4 bb 0c 81 24 37
       -0.021613391 0.015807174 -0.0059891394 9.805208e-06
000380 12 90 94 bc 0e 06 1f 3c 07 22 9d b8 2d e2 36 39
       -0.018135104 0.009706033 -7.4926815e-05 0.0001744113
000390 32 24 4c 3b ae 11 16 b9 63 8c 92 39 42 e2 93 3c
       0.0031149504 -0.00014311701 0.00027951886 0.018052224
0003a0 04 cf 39 bd d4 89 50 b8 eb f1 ea 3c de 87 6c bd
       -0.04536344 -4.9719427e-05 0.028679809 -0.05774676
0003b0 95 39 5f 3c 88 1f e2 bc 19 a8 3a 3d 6f ee c6 38
       0.0136245685 -0.027602926 0.045570467 9.4857875e-05
0003c0 43 0a c8 3b af 92 f5 39 93 75 01 3c 9e d3 68 bd
       0.006104739 0.0004683933 0.007901567 -0.05684244
0003d0 ab af 2a 3d ea 86 30 bd 63 b3 09 bb bb d7 8d 3c
       0.041671436 -0.043097414 -0.0021011464 0.017314782
0003e0 9c 08 92 3d d7 56 b3 3c a4 3c ec ba 84 53 2c bd
       0.07130548 0.021891994 -0.0018023443 -0.042071834
0003f0 32 f2 ab bc 1c 55 33 3c b5 32 de b9 fd 8f 84 3d
       -0.020989511 0.010945585 -0.0004238092 0.06472776

convs.0.pre_nns.0.0.bias f4 [64]
000000 ce e9 9d 3d 6c 6e 6f 3d 39 0e 69 bc 6d fc 97 3d
       0.0771061 0.058454916 -0.014224582 0.07421193
000010 80 63 92 3d 4e 71 49 bd c5 c6 5e bb 78 4c 92 3d
       0.07147884 -0.04918032 -0.0033992988 0.071434915
000020 d3 66 28 3c ae af b5 bc de 4c 38 bd 12 d9 a8 bd
       0.010278421 -0.022178497 -0.04499518 -0.08244528
000030 dd f2 e8 bc 60 76 8c 3d 9d bd 4e 3d 97 8a a6 3c
       -0.028436119 0.06858516 0.050473798 0.020329757
000040 c8 7d 02 3d 58 8b 74 3d 97 0b 48 3d e7 d6 ba 3c
       0.031858236 0.0597032 0.048839178 0.022807552
000050 c3 43 60 3d 33 d0 24 bc 19 37 51 3d 01 5a d4 3c
       0.054752123 -0.010059404 0.051077936 0.025921823
000060 a9 19 61 bc 51 a4 0f 3d 87 7f 8e bd fc de 8d 3c
       -0.013739028 0.035068814 -0.06957918 0.017318241
000070 82 be 8f 3d 9a a6 35 bd 9d b6 eb 3c a4 2c 72 3c
       0.07018758 -0.044348337 0.0287736 0.014781151
000080 2b cc 65 bd 1b c9 dc 3c f9 00 5e bc 22 57 a0 bd
       -0.056102913 0.026951363 -0.013550037 -0.07829119
000090 d9 94 68 3d 21 34 9f 3d ab e6 cc 3c b3 14 73 bc
       0.056782577 0.07773615 0.025012335 -0.014836478
0000a0 3b b9 56 bd 4a fa 03 3d 24 eb 08 bc bc 38 a9 bd
       -0.052422743 0.032221116 -0.008356843 -0.08262774
0000b0 e6 5a 96 bd 8b 3f 9c b9 e4 5e c3 3c 68 b0 64 bd
       -0.07341556 -0.00029801982 0.023848958 -0.055832297
0000c0 60 6b 63 bd 09 fa 4c bd 34 b7 f3 bc 51 7a f7 3c
       -0.055522323 -0.05004314 -0.029750444 0.030209692
0000d0 14 54 17 3d 3b e9 8e bd 53 4e 23 bc c8 db 8a bc
       0.036945418 -0.06978079 -0.009967404 -0.016950503
0000e0 2f 6b 8b 3d 02 ef 74 bc f2 e5 21 bd 4e f6 6e bd
       0.06807553 -0.014949562 -0.039525934 -0.058340363
0000f0 48 f9 2a bc 3f da 5c bd da 95 51 bc a6 d8 8f bd
       -0.01043541 -0.053919073 -0.012792075 -0.07023744

convs.0.pre_nns.1.0.weight f4 [64, 128]
000000 22 20 45 3d e2 00 0a bc 02 5d 8a bc ce 58 30 bc
       0.048126347 -0.008423062 -0.016890053 -0.01076336
000010 13 e4 cd bb 8a 10 17 bd e5 f4 90 bb ad 96 89 3b
       -0.006283292 -0.036881007 -0.004423725 0.00419887
000020 e3 e9 55 3c a0 25 0d 39 a3 2b f1 3c a3 97 e5 bb
       0.013056251 0.00013460824 0.029439753 -0.007006602
000030 8d be 31 bb 41 7f 36 3c 47 21 94 b8 8a 07 8c bc
       -0.0027121634 0.011138738 -7.063388e-05 -0.017093439
000040 a2 ea 1f bd 70 e6 97 b8 0e 67 d1 38 7f 1e 94 bd
       -0.039042123 -7.2431634e-05 9.985092e-05 -0.07232379
000050 60 97 55 b6 ec 1d b2 3b 42 f0 98 3c a3 e5 3f bd
       -3.1827585e-06 0.005435696 0.018669251 -0.046849858
000060 99 58 94 bc f5 08 ac bb ef ef 8c bc bc 77 96 3a
       -0.018108653 -0.005250091 -0.017204253 0.0011479775
000070 ec b8 07 3b 34 d4 2e 3a fa 29 3b ba c4 f6 7f 38
       0.0020709587 0.0006669194 -0.0007139739 6.1026556e-05
000080 8c 1a 96 bb 3f 9a 07 3a 2a 31 88 3b 25 74 87 b9
       -0.0045808014 0.0005172826 0.0041562514 -0.0002583574
000090 d8 f0 f1 bb 60 e7 5b 3c a6 6d 69 38 9e 4a 8f b9
       -0.007383447 0.013421863 5.5653647e-05 -0.0002733068
0000a0 10 cd e2 3c 10 fc 4d 39 88 dd 89 bd 97 79 00 3d
       0.027685672 0.00019644224 -0.06731707 0.031365957
0000b0 58 b2 2f 3a 8c 06 91 3b bf 07 22 3c c9 0b be 38
       0.00067022955 0.0044258293 0.009889542 9.062101e-05
0000c0 59 7c 33 bc 91 89 8c b8 fe 4f 11 3c 87 f8 0d 3d
       -0.01095494 -6.701344e-05 0.008869169 0.034660842
0000d0 1e 31 a0 bb 6c bd b0 bc 21 c2 e0 b6 7e fd 8c 3d
       -0.0048886677 -0.021574698 -6.69832e-06 0.06884287
0000e0 17 f1 86 3d 50 ce 87 3d a2 21 5b bc 11 21 41 3d
       0.06588953 0.06631148 -0.013374718 0.047150675
0000f0 76 40 89 bd f5 28 b0 bb 7f f9 04 3c 9a 13 b3 bc
       -0.06701748 -0.005375976 0.008116125 -0.021859933
000100 4b 4c 91 bc bb f2 2b ba 38 3c 95 3d c4 5e 7d bc
       -0.017736575 -0.0006559302 0.072868764 -0.015464488
000110 f7 4f 83 bc a3 41 a5 3d 1c df 71 3b 99 85 8e bc
       -0.016029341 0.0806916 0.0036906665 -0.017397689
000120 4d 6f 6e bc a7 4d 1b b9 d4 af 48 bb 48 0a 7d 3c
       -0.014552903 -0.0001481088 -0.003062238 0.015444346
000130 10 db 85 bc 46 bb 56 b9 92 22 30 ba 4c 73 ac 3b
       -0.016339809 -0.00020478395 -0.00067190186 0.005262768
000140 51 b1 1a 3b 7d 77 70 b8 d4 5c 87 bc b3 a5 1f 3d
       0.0023604224 -5.733174e-05 -0.016523756 0.038976382
000150 d8 ee 70 bc c8 cf 27 ba 4f a2 9d b8 1a 51 49 bd
       -0.014705382 -0.0006401506 -7.516576e-05 -0.04914961
000160 77 79 33 3a d7 3f e2 38 72 ae b7 b9 eb df 98 3c
       0.0006846408 0.00010788411 -0.00035034452 0.01866146
000170 9f 37 15 3c b4 d1 28 ba 21 88 18 3b 65 89 34 ba
       0.009107499 -0.00064399396 0.0023274499 -0.00068869285
000180 49 3d 21 3c 40 1f a1 3c fe 06 ef bb 49 e2 ed 39
       0.009841272 0.019668221 -0.0072945347 0.00045372758
000190 36 ac 12 bd a3 39 53 bb 4a 13 d8 b8 db 5c 21 ba
       -0.035808764 -0.00322304 -0.000103032755 -0.0006155499
0001a0 64 d8 82 3d 79 52 5c bc e3 60 83 3d a1 80 8b bb
       0.063889295 -0.013447397 0.06414964 -0.004257277
0001b0 8f ab 40 b8 56 19 0c ba 09 5c 7e 3d a0 64 ff 39
       -4.5936144e-05 -0.00053443515 0.06209949 0.00048712362
0001c0 f9 16 ae b8 b1 0b c6 39 34 b2 9d 38 29 63 fe 3c
       -8.3012455e-05 0.00037774214 7.519536e-05 0.031053143
0001d0 f3 a1 85 bb 77 79 d2 bc cf 2d 5b bb 86 a8 08 bd
       -0.0040781437 -0.025692685 -0.0033444052 -0.03336384
0001e0 cd 92 7a bc 98 b9 01 bd 92 e1 67 b9 b1 e1 a3 3d
       -0.015293789 -0.031671137 -0.00022113908 0.080020316
0001f0 76 0c a2 3d a2 4f 06 3a f1 5b 93 bc 6b 4b a1 3d
       0.07912533 0.00051235605 -0.017988177 0.07875713
000200 f8 1b ae 3b c4 c8 15 b8 c8 88 5e bd 80 b2 f6 bb
       0.0053133927 -3.5711346e-05 -0.054329664 -0.007528603
000210 43 55 98 3c b5 9e 9b 3d a8 ae 41 b7 a9 a7 bf 3b
       0.018595343 0.0759863 -1.1544362e-05 0.005848844
000220 f2 25 a3 38 c2 85 4e 3b 89 4c 0b bd 80 45 85 3c
       7.7795135e-05 0.0031512831 -0.034008536 0.016268492
000230 fe ae 38 b9 ec c6 15 b9 e2 00 39 39 0f 29 98 b8
       -0.00017612797 -0.00014283851 0.00017643304 -7.2555726e-05
000240 29 c0 bd bc 05 e1 6c 39 21 a2 9d bc 70 2f 15 3c
       -0.023162918 0.0002259054 -0.019242348 0.009105548
000250 e8 ce 81 3b a2 48 30 3a 98 db c7 38 b7 6c 7b 3d
       0.0039614327 0.00067246903 9.529962e-05 0.061382975
000260 e9 77 69 3c e1 02 8a 39 3b aa 1e 3c fa 7e 08 ba
       0.01424978 0.00026323556 0.009684141 -0.0005206909
000270 6d f3 44 39 5a 15 20 b9 84 be e6 38 a5 28 14 ba
       0.000187827 -0.00015266743 0.00011002741 -0.00056518085
000280 62 24 59 3c d1 de 97 3c d5 b3 3a 39 2c 8e 81 bc
       0.013253303 0.018538864 0.00017805335 -0.015814863
000290 dd 36 d5 bc 68 30 62 bb 2e 2a a9 b8 ad 54 73 ba
       -0.026027137 -0.0034513716 -8.0664046e-05 -0.0009282332
0002a0 89 e7 5a bc 7a fc f2 b8 e8 21 5c 3d 56 c7 90 3d
       -0.013360866 -0.00011586487 0.053743273 0.0706927
0002b0 92 46 2f ba af a6 38 bd 71 b3 d8 3c c9 e9 27 39
       -0.0006686236 -0.045080837 0.026452752 0.00016013453
0002c0 f0 1c 90 b9 a8 c5 7d b9 89 df 1f 3a 6a a3 3b bd
       -0.0002748738 -0.00024201593 0.0006098678 -0.04581014
0002d0 e3 b3 7c 3d d1 75 4a 3c 47 fe 0e 3a 94 11 18 bc
       0.06169499 0.012357191 0.00054547604 -0.009281535
0002e0 8f 7a 20 3d c1 1c 1f 3d cc a3 53 3c f0 64 00 3d
       0.03917938 0.03884578 0.01291747 0.03134626
0002f0 7a fa 84 3a 4a f2 4a bc d3 d9 66 3c 2a 68 34 bd
       0.0010145449 -0.012386868 0.014090019 -0.04404465
000300 37 81 98 bd 8c f7 99 38 a6 c3 d6 ba e4 55 8b bc
       -0.07446521 7.341718e-05 -0.0016385212 -0.01700873
000310 88 21 cd bc 83 1d 06 bd a6 64 8d bb e9 03 00 bd
       -0.025040403 -0.03274299 -0.0043149767 -0.03125373
000320 12 37 c6 39 4a 0c d5 3b ed 73 c8 3a ee 80 53 bb
       0.00037806534 0.006501709 0.0015293338 -0.0032272893
000330 5f 49 08 39 21 7e 25 39 86 07 2d 3c 3a db 75 b8
       0.00012997304 0.00015782613 0.010560876 -5.8616723e-05
000340 9a c7 fe bc 4c a7 77 b8 fb 69 6a bc 62 cc 9c bd
       -0.031101037 -5.9045196e-05 -0.014307494 -0.076561704
000350 9b 18 16 38 f4 35 6d 39 d3 68 ab b9 cb 18 bf 3b
       3.5785702e-05 0.0002262218 -0.00032693762 0.005831813
000360 37 34 7a 38 03 4f ac 38 12 b8 e2 bb 52 70 8c b9
       5.9653274e-05 8.216316e-05 -0.0069189155 -0.00026786566
000370 80 1f c1 3c 33 5d 6e bc 92 3b 9e bb 86 97 8d bb
       0.02357459 -0.014548588 -0.0048288787 -0.0043210415
000380 49 7e c7 b9 50 ae a8 bb 83 b1 8c bc 5e de 10 ba
       -0.00038050328 -0.005147733 -0.017174488 -0.00055262994
000390 ce 98 9f bc fc 6a 28 ba 5e fd 9a bb a3 08 ae 38
       -0.019482043 -0.00064246333 -0.0047299108 8.298575e-05
0003a0 45 01 da bb 65 e9 3c 3c 75 d8 fd bc 1a 46 6c bd
       -0.0066529834 0.011530255 -0.030987004 -0.05768404
0003b0 61 ee 1b 3c 0c ce 09 bc 6d cf 52 3d be f6 2b b9
       0.009517283 -0.008410942 0.051467348 -0.0001639975
0003c0 95 25 4a 3c 66 85 7e b9 05 59 96 39 02 35 05 3d
       0.012338062 -0.00024273022 0.00028676554 0.032521255
0003d0 75 f8 70 3d 46 6f 86 bd 4c f4 00 ba 62 24 cd 3c
       0.058830697 -0.065641925 -0.00049192156 0.025041763
0003e0 d5 5e 29 3d ac ac 69 3d a1 e1 20 ba 96 75 26 bd
       0.041350204 0.05704944 -0.0006137137 -0.040639482
0003f0 2a 60 a6 bb c0 80 32 39 b3 62 1b ba 3d 11 00 3c
       -0.0050773816 0.00017023366 -0.0005927488 0.00781661

convs.0.pre_nns.1.0.bias f4 [64]
000000 00 4f 25 bd 14 c4 77 3d a4 82 88 3d e8 cc a2 bd
       -0.040358543 0.06048973 0.06665543 -0.07949239
000010 f3 da 72 bd 84 cd 92 bd 0b 24 8d bd ab 3b 2e bd
       -0.059290837 -0.07168105 -0.0689164 -0.042537373
000020 7f 82 29 39 8b bd 2b bd 14 2e 31 bd e9 ca 0a 3a
       0.0001616571 -0.04192881 -0.043256834 0.0005294518
000030 b9 45 e2 bc fc d0 e4 3c a3 d2 05 3d 48 c6 92 bd
       -0.027621137 0.027931683 0.032671582 -0.071667254
000040 5e f7 5f 3d 99 89 cd 3c 3a 44 ae 3d 67 75 8f 3b
       0.054679267 0.025090026 0.08509107 0.004378009
000050 ac fd 01 bd 6f 2c 86 3c 79 e2 11 bd 08 22 cc bc
       -0.03173606 0.01637861 -0.03561637 -0.024918571
000060 c5 77 da bc 71 1b 21 3d 3d d8 56 bd b5 27 be 3d
       -0.026668439 0.03933281 -0.052452315 0.09284917
000070 f4 7b 0d 3c 34 fe 28 bd 59 c1 31 bc 90 c7 57 bd
       0.00863551 -0.041258052 -0.01084932 -0.052680552
000080 29 46 ce bc 97 e8 62 3d df 01 d7 bc 1f 4f 40 bd
       -0.02517994 0.055397596 -0.02624601 -0.046950456
000090 b9 8f 9b 3d ba d0 37 bc 2c 30 58 bd 6d ef 43 bc
       0.07595772 -0.011219198 -0.052780315 -0.011958939
0000a0 f9 0a d5 b8 97 ff 49 3d d5 f0 b2 3a f4 b0 ae 3c
       -0.00010158675 0.049316015 0.0013652096 0.021324612
0000b0 9f ff 05 3d 7a 2a 02 bd e1 9f 12 bd 6e 09 1f bb
       0.032714482 -0.03177879 -0.035797004 -0.0024267095
0000c0 70 31 50 3d ca d9 96 3d 12 78 9c 3d 9e c6 f9 bc
       0.050828397 0.07365759 0.07640089 -0.030490216
0000d0 3d 9e aa 3b 51 c0 90 bd 31 23 60 bd d0 76 fe bc
       0.0052068518 -0.070679314 -0.05472106 -0.031062514
0000e0 87 93 19 3d 1f 77 93 bd c7 65 a0 3d c2 8b 8a 3d
       0.03749421 -0.07200455 0.078319125 0.06764938
0000f0 80 5c 88 3d e3 13 c8 bc 55 66 3f 3c 2a e9 11 bd
       0.06658268 -0.024423545 0.011682113 -0.035622753

convs.0.pre_nns.2.0.weight f4 [64, 128]
000000 48 96 1f 3d 1d e3 e1 b8 30 1a 02 bd 12 96 15 b7
       0.03896168 -0.00010771139 -0.031763256 -8.916033e-06
000010 dc 9b 13 3d 04 4a 3c 3d f9 f1 e6 39 a1 72 6b bb
       0.03603731 0.045969024 0.00044049302 -0.0035926478
000020 36 81 c7 37 ec 81 9e b9 be a6 dc 3b 5a 94 7a bc
       2.3782817e-05 -0.00030232908 0.0067337444 -0.015294159
000030 12 0c df 38 af b2 9b 39 f6 ec 15 37 a8 8f 17 39
       0.00010635717 0.00029697033 8.936264e-06 0.00014453998
000040 c7 46 4d bd f9 84 41 3b 48 66 55 bc 4c 92 01 3d
       -0.050116327 0.002952872 -0.013024874 0.03163366
000050 f5 8f e4 3b f6 06 07 b8 8a e1 63 bc 6b 47 4b bc
       0.006975169 -3.219299e-05 -0.013908753 -0.012407164
000060 a0 1e 52 b9 fa 5b 31 ba 8d 13 31 b9 18 bb 07 b6
       -0.0002003857 -0.000676572 -0.00016887319 -2.022547e-06
000070 1a 17 a7 bb 41 a2 fb 39 a0 a5 dc 3b ec a7 15 3a
       -0.0050991895 0.0004799534 0.006733611 0.0005708921
000080 94 c5 2d 39 14 b7 ee b9 99 e9 9e 39 69 48 4c bb
       0.00016572169 -0.000455313 0.00030310152 -0.003117109
000090 4b bf 00 3d f8 56 0a bb 97 6f 43 b7 4b 80 1e 3a
       0.03143243 -0.0021108966 -1.1648887e-05 0.0006046339
0000a0 de 12 72 bd cf 09 99 bc a1 b1 16 3d e4 aa a0 3c
       -0.059100024 -0.018681435 0.036790494 0.019612737
0000b0 c2 d2 f4 38 69 ee 9f bd 20 65 c0 bb 3a 9c 66 38
       0.00011674083 -0.07809145 -0.00587143 5.498177e-05
0000c0 ac 50 1f b7 9f 55 0f bc a2 7d 9e 38 01 a2 08 bc
       -9.495921e-06 -0.008748441 7.557428e-05 -0.008339406
0000d0 78 5c 18 3d eb 9e a3 bc 9a 5d 0d 39 e7 22 af 3c
       0.03719756 -0.019973239 0.00013481677 0.021378947
0000e0 3f 08 ec bc 04 03 12 3d 9f 3e d4 b7 93 df 68 bd
       -0.028812526 0.035647407 -2.530153e-05 -0.056853842
0000f0 20 7e 71 3d 4a 2d 2e 38 37 67 34 3a 7c a1 fa 3c
       0.058958173 4.152701e-05 0.0006881835 0.03059458
000100 1a db 44 bc ec fe 06 b9 d0 02 70 bc c2 32 8d b8
       -0.0120151285 -0.00012874202 -0.014649108 -6.732858e-05
000110 ab a6 a3 bc 65 b6 8a 3d a0 bc 9e bc ca 9c 4b 3c
       -0.019976934 0.0677307 -0.019377053 0.012427518
000120 ce a4 52 bb 01 9a ae b8 2e 4b c6 bb 77 28 89 bd
       -0.0032141688 -8.325652e-05 -0.0060514426 -0.06697171
000130 ac b2 cb b8 dc 6e 7b b9 69 fc c4 39 87 f4 af 38
       -9.7130745e-05 -0.00023978524 0.00037572093 8.390197e-05
000140 50 32 aa bd 5f 10 df b7 b3 a8 37 bc 26 7a 10 3c
       -0.083103776 -2.6591295e-05 -0.011209655 0.008818185
000150 3f 95 36 3b 94 45 bd 37 e9 cd 95 3c af 59 65 bd
       0.0027859954 2.2562956e-05 0.018286662 -0.055993732
000160 64 21 64 b7 ce 53 16 3b 5d da 89 bc 2a 35 e4 b9
       -1.3597633e-05 0.0022938135 -0.016827757 -0.0004352716
000170 93 75 cc 3c 2d 87 96 39 7f 29 e7 ba bd ed 65 3c
       0.024958408 0.00028710943 -0.0017636268 0.014033732
000180 43 fc 9e ba fb a3 c9 bc ce 5b a9 39 6c d2 1f 39
       -0.0012129623 -0.024614325 0.00032302592 0.0001524181
000190 48 41 22 3c a3 9c 2c ba ac fd 16 38 18 c1 52 3c
       0.00990326 -0.000658462 3.5999037e-05 0.01286342
0001a0 ea a0 15 3c 9b 64 88 bc c4 b2 cd bc a8 6d 74 bd
       0.009132603 -0.016649535 -0.025109656 -0.05967489
0001b0 8b 8f 60 3c 32 ea 3b bc 8a a2 6f bd 3b 80 17 3c
       0.013706098 -0.011469411 -0.05850462 0.009246881
0001c0 9d eb 36 3c 60 0a 31 bc 19 a6 f7 b7 e0 93 fd 3c
       0.011164573 -0.010805696 -2.952204e-05 0.030954301
0001d0 36 c5 47 3d 54 a3 cb bc d1 71 39 b9 76 70 04 bd
       0.04877206 -0.024858154 -0.00017685375 -0.032333814
0001e0 9d c6 72 bd 54 06 4c bd cf 3a 35 3a 02 43 ec bc
       -0.059271444 -0.049810722 0.0006913365 -0.028840546
0001f0 bb b2 1b bd 90 87 50 39 8a c8 2f 3b e3 60 7d bd
       -0.038012248 0.00019886927 0.0026822411 -0.061859977
000200 e7 f7 a8 bc 5d c1 02 38 5d 35 0d 3d 44 63 14 b9
       -0.020626022 3.11745e-05 0.03447472 -0.00014151359
000210 c5 c6 73 b7 28 3d ce 3b df 4e 19 ba ab 9d f2 bb
       -1.4530208e-05 0.0062939115 -0.00058482395 -0.0074040494
000220 0e 5f cd b7 75 57 92 38 a8 20 23 3d dc 8c 89 bc
       -2.4482168e-05 6.978113e-05 0.039826065 -0.0167908
000230 30 25 52 3c 24 7d 32 b9 fa c1 62 3c 8f 4a 97 38
       0.012826249 -0.00017022021 0.013840193 7.214129e-05
000240 50 b5 05 3d 80 3e 8a 38 dc a6 3a 39 ee 7c 89 3d
       0.032643616 6.591994e-05 0.00017800502 0.067132816
000250 52 17 f4 39 a3 3d 8e bc 63 da 46 3c d0 f3 a6 bc
       0.00046556682 -0.017363375 0.012137028 -0.02037993
000260 bf 5c d6 b8 4a 21 15 bc 5f 05 7b 39 54 36 9c 39
       -0.000102215905 -0.009102175 0.00023939226 0.00029795116
000270 30 3a 4e 3c 6c 49 9d 39 62 80 9a bc d4 52 2e 3a
       0.012587115 0.00030000077 -0.018860046 0.00066499156
000280 30 bf 32 bb 14 48 ea 3c 99 99 55 39 07 9e 0f 3a
       -0.00272746 0.028598823 0.00020370483 0.0005478565
000290 8b 2f 02 3d 7c 64 9a b9 b3 23 01 b9 f4 cb 97 b9
       0.03178362 -0.00029448036 -0.00012315698 -0.0002895292
0002a0 31 b8 8b bc 82 21 08 b8 05 c6 a6 bd 42 18 32 bd
       -0.017055603 -3.2456133e-05 -0.08143238 -0.043480165
0002b0 4a fd 7d 3c ba b5 1a 3d 12 e4 25 3d 0b d4 12 3a
       0.015502283 0.037770964 0.040500708 0.0005601055
0002c0 0c 55 93 39 f6 81 85 b9 78 9d 2d ba 4e ae 89 bd
       0.0002810139 -0.00025464565 -0.0006622891 -0.06722699
0002d0 dc f4 36 3d 49 b4 9f 3c 9e 24 1b ba ac 5b ae 3c
       0.04466711 0.019495146 -0.0005918237 0.021283947
0002e0 6c 75 42 bd 80 bb 36 bd 8c 7f 9e b9 ce 9c e9 3a
       -0.047475263 -0.044612408 -0.00030231138 0.0017823221
0002f0 f0 f6 54 bd 68 0e 4a bc 76 e6 d4 38 44 3e 8d 3c
       -0.05199331 -0.012332536 0.000101518744 0.017241605
000300 47 a4 8c 3d cc af 32 3c 3b bc 77 3d d8 0c 7a b8
       0.06867271 0.010906171 0.060482245 -5.9616606e-05
000310 64 94 05 3b 47 f6 f3 bc 50 16 9c 3a dd 26 d7 3c
       0.0020382637 -0.02978052 0.0011908505 0.026263649
000320 0a e9 98 b9 bc 31 97 b9 a0 3c 46 bd 16 9d a0 3c
       -0.00029165327 -0.0002883802 -0.04839766 0.019606154
000330 83 bd 22 3a 03 07 ed ba 7f 8d df 3b ea a3 0c bc
       0.0006208049 -0.0018083755 0.0068222876 -0.008584002
000340 4f 23 47 3d b2 aa fe 37 fe c4 6a b8 c0 0e 34 3d
       0.048617657 3.0358646e-05 -5.597341e-05 0.04395938
000350 04 44 33 3a 3c ab a1 37 76 a0 02 b9 32 81 26 3d
       0.0006838443 1.9272433e-05 -0.00012457542 0.040650554
000360 08 c5 30 38 2a c5 9d 39 b6 21 58 bb 30 b8 da bb
       4.214517e-05 0.00030092272 -0.0032979078 -0.006674789
000370 83 71 f8 3c 9d 5f 93 38 ae 70 1b bc eb 3c 72 3c
       0.030327564 7.0273156e-05 -0.009487314 0.014785032
000380 cf be d0 39 9c 76 a6 3b 11 af 0d b7 04 01 34 ba
       0.00039815015 0.0050800573 -8.445016e-06 -0.00068666064
000390 5c 6d 08 3d de 31 2b 39 57 48 15 38 55 30 35 3a
       0.03330742 0.00016326408 3.559174e-05 0.0006911804
0003a0 08 4d 4a bd bf cc 9d 39 e1 4e 35 3c 30 76 48 bd
       -0.04938987 0.0003009792 0.0110661695 -0.048940837
0003b0 cd f2 74 bc af 56 07 3d 57 6b 8c bd 1b 79 41 38
       -0.014950466 0.033041652 -0.06856411 4.6127574e-05
0003c0 7a da de b9 a0 01 23 3b 8a f6 13 3a 81 c1 fd 3b
       -0.00042505917 0.0024872795 0.0005644342 0.0077440147
0003d0 5b 4b 51 3c 2a 17 83 bb 9e 03 c6 b9 5c bd f7 3c
       0.012774314 -0.004000564 -0.00037768198 0.03024166
0003e0 c0 8f 0d bd b0 01 ae bd af 7a 5f 3c c4 16 93 bd
       -0.03456092 -0.084964156 0.01364009 -0.071820766
0003f0 07 0c 26 3c 40 ee 98 39 fc 92 96 b9 db c4 2d 3d
       0.0101347035 0.0002916921 -0.0002871974 0.042424064

convs.0.pre_nns.2.0.bias f4 [64]
000000 28 e2 ff bc 36 07 86 3d 77 0a d8 3c 2c 9b a1 bc
       -0.03123577 0.06544344 0.026372178 -0.019727312
000010 3a 50 28 bd 77 e0 df bc 19 35 91 3c 02 9d c0 3a
       -0.041092135 -0.027328713 0.017725514 0.001469523
000020 dd 3b 82 3c 2a 26 6c bd 49 c2 83 bd 6b 3b 94 3d
       0.015897686 -0.057653584 -0.06433541 0.072378956
000030 d5 f1 9b bd e6 ea c9 3b 58 6f a9 3c bd 21 2f bc
       -0.07614485 0.0061620353 0.020682976 -0.010689196
000040 5d 32 0a 3d 4a 4b 26 3d 81 96 f6 bc aa 43 f9 b9
       0.033739436 0.040599145 -0.030101063 -0.00047543395
000050 87 97 91 3c 4a c9 3b 3b e9 46 92 3d d2 55 5e 3d
       0.01777245 0.0028653913 0.07142431 0.054281063
000060 34 e3 43 3d 03 96 39 3d db 07 6b bc c8 d0 1d bd
       0.0478241 0.045309078 -0.014345135 -0.038529187
000070 cb 50 98 bd 77 4d 74 bd b5 0d 8d bd 3b c6 46 3d
       -0.07437285 -0.05964419 -0.0688738 0.04852889
000080 ec d0 9a bc a0 e3 0c bc b8 eb 36 bd b5 4b fa bb
       -0.01889845 -0.008599192 -0.044658393 -0.0076384195
000090 2c 26 1f bd cb 8c 7a bd 28 80 62 3d 53 cb 20 3c
       -0.038854763 -0.061169427 0.055298 0.009814101
0000a0 a1 ad 02 3d 42 c4 7e bc ee 31 64 3d e0 2d 4c 3d
       0.031903867 -0.015549721 0.05571168 0.049848437
0000b0 bd 7b 84 3d 4e 0c 95 3d bf 8c 6c 3d 8e 80 68 3d
       0.06468914 0.072777376 0.057751413 0.056763224
0000c0 49 fc 61 3d b7 bc 96 3a 00 94 b7 3c 90 cb 22 bd
       0.05517224 0.0011500333 0.02240944 -0.039744914
0000d0 78 fd 62 3d d6 65 08 3c f7 31 08 3c da 9a 65 bd
       0.055417508 0.008325061 0.008312694 -0.05605588
0000e0 3c 82 d3 3c 0f da 55 3d f1 62 82 bd 11 d3 78 3d
       0.025818937 0.05220991 -0.06366528 0.060748164
0000f0 df 6c 07 bd 82 55 90 bd 4f d3 d2 3c 49 44 3f 3d
       -0.033062812 -0.07047559 0.025735525 0.04669598

convs.0.pre_nns.3.0.weight f4 [64, 128]
000000 05 33 09 3c 3d b8 3a 39 e8 a5 77 3d 51 1d 6e bc
       0.00837398 0.00017806976 0.060460955 -0.014533357
000010 68 29 1b bb e0 24 98 bd f6 3a fb b7 b3 67 8f 3c
       -0.0023675803 -0.07428908 -2.9948988e-05 0.017505502
000020 58 41 ea b8 d9 3f 29 3c a3 65 be 3c c4 10 fd ba
       -0.00011170161 0.010330164 0.023241824 -0.0019307365
000030 90 2a a7 3b fa 18 1a b9 4e 8f 1c ba c3 ef d0 b8
       0.0051015094 -0.00014695889 -0.0005972282 -9.962872e-05
000040 0d 1c ca 3b 56 d4 85 3c bb 92 08 38 17 76 24 bd
       0.0061678947 0.016336601 3.256158e-05 -0.04015168
000050 0b 35 0a b9 7c 95 88 38 ab 5d 99 b6 c2 ae 58 bd
       -0.00013180466 6.512829e-05 -4.5706597e-06 -0.052901037
000060 f4 86 d3 b7 a5 f3 e7 38 f0 4e 22 39 2e c4 14 3c
       -2.5216003e-05 0.00011060321 0.0001547893 0.009079976
000070 76 0f 9c 3b fd 1b 0d 3b a1 6d 16 3a ad a2 d5 b8
       0.0047625853 0.0021531575 0.0005738382 -0.00010186932
000080 03 05 97 bb 8d f8 66 ba a4 bc f1 38 2f a7 ca 39
       -0.0046087517 -0.00088108407 0.000115269126 0.00038653004
000090 8a 3c 42 bc ea a0 21 3b 36 3b 24 bb 94 ee 23 bc
       -0.011855254 0.0024662563 -0.0025059707 -0.010005612
0000a0 45 a6 0b 3d 68 21 31 b9 d7 31 9c bc ff 2d cd 3b
       0.034094114 -0.0001689248 -0.019066734 0.0062615867
0000b0 1e 85 f5 38 8c 23 95 bc c5 e8 1b 3d 60 3c 04 b6
       0.000117073054 -0.018205427 0.038063783 -1.9704676e-06
0000c0 f7 1d 2c 3c 4f 57 03 ba a6 c4 4e 3a ef 63 93 3d
       0.010505191 -0.00050102634 0.0007887579 0.07196795
0000d0 57 23 3d bd 01 92 27 bd 46 c2 03 3c 6f 6e 20 bc
       -0.04617628 -0.040910725 0.008041924 -0.009791954
0000e0 2b 44 ae bc 22 c2 99 3d a6 b8 51 38 dd e0 55 3b
       -0.02127274 0.07507731 5.000145e-05 0.003263525
0000f0 eb 49 32 bd e4 0c 53 3b 85 d4 65 38 3a e5 f9 bc
       -0.043527525 0.0032203728 5.479578e-05 -0.030504812
000100 0a c8 1d 3d 3d a6 91 bc ba e3 0a bd 65 a2 d2 bb
       0.03852085 -0.017779464 -0.033908583 -0.0064280503
000110 0c 9d 45 bc fa 69 7f bd 5e b7 41 b9 7c 95 fc bb
       -0.012061369 -0.062356927 -0.00018474224 -0.0077082496
000120 0f 38 c7 bb 1a f9 99 b8 58 4c 72 bc 4f 82 4c bd
       -0.0060796808 -7.342007e-05 -0.01478871 -0.04992896
000130 15 85 34 39 82 2d 06 39 5a 97 d9 38 aa a8 29 ba
       0.00017215715 0.00012796189 0.00010375558 -0.0006471971
000140 62 4a f4 3c 3d 47 ba 3a a1 48 31 ba c5 3e 8b 3d
       0.029820625 0.0014211904 -0.0006762837 0.06799082
000150 de 27 9b b8 ea 46 88 b9 37 9b 81 39 bf 41 1c bd
       -7.398402e-05 -0.00025992777 0.0002472044 -0.038148638
000160 68 51 1f 3c ec e3 b0 38 b5 23 3a b9 58 56 83 bb
       0.009723999 8.434788e-05 -0.00017751644 -0.0040080957
000170 65 16 be bc 50 70 3a b9 16 52 22 ba 53 41 35 3a
       -0.023204038 -0.00017780182 -0.00061920413 0.0006914336
000180 e0 18 6e b9 46 97 9e ba 64 8d e4 b5 fd aa 8e 39
       -0.00022706715 -0.0012099526 -1.7028474e-06 0.00027211747
000190 36 a6 0d 3c 8d e2 40 3c 07 77 a7 3b 9f 9c 33 39
       0.008645585 0.011772764 0.0051106247 0.00017129116
0001a0 a3 dd 9d bb 67 af 33 3a ed 2a 93 bd 5d 6f 3d 3d
       -0.004817681 0.0006854445 -0.07185922 0.046248782
0001b0 78 f4 8b 3c 83 0e 06 bd 72 ee 22 bd 5e 85 b1 bb
       0.017084345 -0.032728683 -0.03977818 -0.00541751
0001c0 cc 85 2e 36 38 5e b5 b9 42 09 6d 3c 59 24 18 3d
       2.60059e-06 -0.0003459321 0.014467539 0.03714404
0001d0 f6 5d 9d 3d 2a 0e ab 3d 62 81 68 bc 45 39 3c 3d
       0.07683937 0.08352311 -0.0141910035 0.045953054
0001e0 ef 9c a8 3c 87 17 6d bd 79 58 f3 b9 eb 08 2f bd
       0.020582644 -0.057883766 -0.0004641449 -0.042733114
0001f0 72 8b 09 3d 39 50 51 bc 94 93 10 b8 30 dd 2d bb
       0.03358025 -0.012775474 -3.446972e-05 -0.0026529543
000200 4c b5 20 bd c7 8a 43 3a 0e e8 96 bd 4d c9 7b b8
       -0.0392354 0.0007459339 -0.0736848 -6.003054e-05
000210 56 ac 4e bd 09 87 75 bd a8 b4 f6 35 9a 1b 2b 3a
       -0.05045732 -0.059943233 1.8381006e-06 0.0006527245
000220 3d 61 5a b9 26 df 34 3a b7 74 a6 bc 78 91 c6 bb
       -0.00020826324 0.0006899707 -0.020319326 -0.0060598217
000230 0f a4 0b b9 8a 88 6d bc 73 4e 32 ba c4 93 8c 39
       -0.0001331719 -0.0144978855 -0.0006801851 0.00026812975
000240 cf d3 7a bd 0c 74 0a b9 78 2a 10 3a 17 8d ed bc
       -0.061237153 -0.00013203936 0.00054994924 -0.028997941
000250 25 b7 6e 3c 75 cb 9d b9 f9 79 9c 39 9a 39 8e 3d
       0.014570032 -0.0003009696 0.00029845515 0.069445804
000260 6b a5 84 3c 79 92 32 3a ab 97 3d bb 6f fc 84 39
       0.016192159 0.0006811987 -0.0028929512 0.0002536508
000270 db d7 c0 bc 84 84 64 39 65 b2 0d 3c f9 e4 88 b8
       -0.023540428 0.0002179314 0.00864849 -6.527635e-05
000280 fd 9e 62 bc c9 94 d8 3c 56 c8 dd b7 a7 e0 14 bb
       -0.013831851 0.026438134 -2.6438542e-05 -0.002271691
000290 bf d4 28 3d 39 43 ea 36 d2 a1 a0 38 04 d6 67 3c
       0.041218515 6.981569e-06 7.659536e-05 0.014150146
0002a0 0e 53 5a bc a6 dd b8 bb 5e 84 7a 3d 7d 5f 92 bd
       -0.013325466 -0.005641657 0.06116139 -0.07147119
0002b0 f0 d5 bf 3a fc ce da 3c ee 0e 87 3d 50 fc 9a 39
       0.0014635902 0.026710026 0.065946445 0.00029561156
0002c0 1e b1 04 3c a0 08 dd 37 db e5 17 bb f3 e4 09 3d
       0.008098869 2.634927e-05 -0.0023177776 0.03366561
0002d0 10 ec a4 3c fc 09 ca 3c eb d1 d2 38 e8 5d a7 3c
       0.020132095 0.024662964 0.000100526806 0.02043052
0002e0 bf 1b 7e 3d 2b fb 55 3d 16 1c fe 39 fd 45 8d bd
       0.06203818 0.052241486 0.0004846758 -0.06898115
0002f0 e5 b9 00 3d 2a 10 91 bc 22 b3 26 ba 0c ac a6 bd
       0.031427283 -0.017707903 -0.00063590903 -0.08138284
000300 8c a1 72 bd db a8 bf b7 7b 08 8d bd 6c f0 19 38
       -0.059236094 -2.2847604e-05 -0.06886383 3.6701953e-05
000310 2f 8d c4 bc 21 07 4d bd 70 fa b7 38 fd 31 de 3c
       -0.023993103 -0.050055627 8.7727676e-05 0.027123446
000320 16 61 5b b9 da 6c 80 bb d8 16 d1 3b 2c 53 09 bd
       -0.00020921635 -0.003919226 0.006380897 -0.033526585
000330 86 63 9b 39 9c 84 91 39 00 3a 94 34 7b 51 f5 b8
       0.00029638055 0.00027755357 2.760935e-07 -0.00011697687
000340 bb 2c 9a bc cc 11 19 ba 97 6d 45 ba d8 cd a7 bd
       -0.018820157 -0.0005839139 -0.0007531284 -0.081935585
000350 13 86 d2 bb d2 2a 64 bc 90 b6 22 ba 13 48 e0 bc
       -0.0064246743 -0.013926225 -0.00062070135 -0.027378118
000360 84 13 53 b9 d4 f1 e4 b9 50 45 3b bc 00 4b 83 b8
       -0.00020129798 -0.00043667725 -0.0114301 -6.2605366e-05
000370 0f 3d 09 3d 84 ea 90 3c 3d 4a 07 ba 8a 5d 8b b9
       0.033505496 0.01768995 -0.00051609037 -0.00026581838
000380 8a 1d 8d b9 46 6b a8 3c cd cf 3d bc 9a ae d8 b9
       -0.00026915624 0.020558964 -0.011585188 -0.0004132882
000390 9a cf 84 3c 34 e6 ef 38 c0 c4 ae b8 c9 6f ae b9
       0.016212273 0.00011439287 -8.333614e-05 -0.00033271153
0003a0 6f 8b 5b 3c 0f 32 35 ba f4 4e 6d bd bb 8f 63 3d
       0.013399943 -0.00069120614 -0.057936624 0.055556994
0003b0 6c 1e 4e b6 ce da 2b 3d 1a 77 67 3d f3 ae 31 ba
       -3.07141e-06 0.041956715 0.05651007 -0.00067780836
0003c0 78 44 35 bb 0f 48 2e 39 42 50 a9 b9 5b 21 02 bc
       -0.0027659219 0.00016620777 -0.0003229399 -0.007942523
0003d0 00 27 14 bd de 03 62 3d 61 25 8f ba 86 fd 80 3a
       -0.036170006 0.05517947 -0.0010921174 0.0009841181
0003e0 8e a8 54 3d 2f 96 ff 3c ea df 67 bb bc 6f 93 3d
       0.05191856 0.031199543 -0.0035381266 0.07199046
0003f0 b9 48 7d 3a b2 c2 47 39 8d d8 7c 3c d7 ac 22 bb
       0.00096620206 0.00019050649 0.015432489 -0.002482226

convs.0.pre_nns.3.0.bias f4 [64]
000000 24 42 33 bd 6b a9 70 3d a8 2b 4d bd 5b 26 16 bd
       -0.04376425 0.05875532 -0.050090462 -0.036657672
000010 5a 4c 03 bc 5a f6 88 bd 2a d8 b5 3a fd ec 04 bc
       -0.008013809 -0.06687613 0.0013873626 -0.008113143
000020 f1 16 80 3d df 28 da 3c 86 ce 69 3c 5f 99 93 bc
       0.06254376 0.026630817 0.01427043 -0.018017469
000030 2f bc 4c 3c 8b 0a cd bc f7 1a c2 bc 7f ef 41 3d
       0.012496038 -0.025029441 -0.023694498 0.047347542
000040 cb fb 51 bd db 73 89 3d 1f d2 a3 bd 67 42 86 3d
       -0.05126552 0.06711551 -0.07999062 0.06555634
000050 60 c8 9f bd f3 e3 10 bb 2e 37 98 3c cf 18 70 3d
       -0.078018904 -0.0022108525 0.018581 0.05861741
000060 cb 6a ae 3d a9 6b 78 bd d1 5a b6 bd 89 06 76 bd
       0.08516463 -0.060649548 -0.089040406 -0.060064826
000070 40 aa 01 bd a8 fb 8f bc ed 00 a5 3c 99 7b fe 3c
       -0.031656504 -0.017576054 0.020142043 0.031064795
000080 c5 ef ff 38 b9 3a 75 3d 63 09 ae bd c4 ca e1 bb
       0.00012204008 0.059870455 -0.08497884 -0.0068906266
000090 b4 68 84 bd 7e 03 13 3d 2c 76 0b bd 4e 76 92 3d
       -0.06465283 0.035892002 -0.034048244 0.07151471
0000a0 8e 7b 83 3d 07 8a 8f bc 0b 5d 9a bb 6d 7f 6f bd
       0.064200506 -0.017521871 -0.0047107986 -0.058471132
0000b0 72 bd ce ba 0f dc d6 bc 97 57 7c 3d 49 01 56 3d
       -0.0015773012 -0.026227979 0.06160697 0.05224732
0000c0 be 0e 45 3b c8 55 a7 3d 3b 06 92 3d 1d f2 32 bd
       0.0030068601 0.08170658 0.071300946 -0.04368793
0000d0 14 32 99 3d a6 60 57 bd 08 a8 b9 bc bd fb 6d 3d
       0.07480255 -0.052582406 -0.022663131 0.058101404
0000e0 a9 44 5c 3d 47 24 c5 3c 41 61 a1 3d 00 95 8a 3d
       0.053776417 0.02406515 0.07879878 0.06766701
0000f0 8f e4 e3 3c 9e 44 8f 3d 8a 76 9e 3b 04 ea e0 3c
       0.027818946 0.069955096 0.0048359083 0.027455337

convs.0.post_nns.0.0.weight f4 [16, 832]
000000 9c 9b 23 b7 fe 66 e3 38 e0 58 12 36 36 25 52 39
       -9.751788e-06 0.00010843387 2.1807427e-06 0.00020041023
000010 a0 bd 27 36 6b 97 a1 b7 98 90 94 b9 a1 02 82 b7
       2.4995315e-06 -1.9263205e-05 -0.0002833649 -1.5498432e-05
000020 6e 3d ed b7 6b 46 a6 b8 04 f2 f6 37 29 9c ca 38
       -2.8281207e-05 -7.928613e-05 2.9438183e-05 9.661198e-05
000030 73 a1 c8 37 ea ef 12 b8 31 69 f6 38 38 64 1e 39
       2.3917039e-05 -3.503255e-05 0.000117497875 0.00015105389
000040 de e4 01 b8 46 14 39 38 3c 96 6c 36 a2 db 91 b9
       -3.0969146e-05 4.412632e-05 3.5254188e-06 -0.00027820194
000050 65 ef 3a b9 6e 89 22 37 c7 07 f7 38 eb 87 45 b9
       -0.00017827524 9.68795e-06 0.000117793265 -0.00018838017
000060 d0 11 83 b8 09 ea ac 38 ae bf 48 38 f3 36 93 b8
       -6.2498846e-05 8.2451916e-05 4.786223e-05 -7.019741e-05
000070 eb 2a 8e b7 8a f3 99 b9 2c 12 be b7 1c f6 a0 b6
       -1.6947704e-05 -0.00029363885 -2.2658227e-05 -4.7970225e-06
000080 4e 64 41 b9 40 6c 1f 38 49 e8 86 38 bd 1b 40 b8
       -0.0001844328 3.800937e-05 6.4328844e-05 -4.58022e-05
000090 2a fb 40 b8 1a 7a a9 b8 b5 7a 39 39 d0 15 ed 38
       -4.6010282e-05 -8.081291e-05 0.00017688687 0.000113051035
0000a0 9f 3d df b7 e3 a7 9d b9 cd 0a 04 39 be 2e 8c 38
       -2.6612366e-05 -0.0003007046 0.00012592525 6.6844266e-05
0000b0 cc eb 5f b6 bd f0 12 b9 67 10 cb 37 1f 3e 92 39
       -3.3366841e-06 -0.00014013327 2.4207124e-05 0.00027893574
0000c0 70 35 67 37 85 57 bd 38 d9 dd 15 39 3b 0f af 37
       1.3781115e-05 9.028524e-05 0.00014292392 2.0868718e-05
0000d0 18 82 37 b9 f7 f2 a4 38 77 f1 bc 38 22 97 01 b9
       -0.00017500704 7.865385e-05 9.009515e-05 -0.000123587
0000e0 97 db 5e 38 30 07 52 b8 41 f9 1f b8 6c 5e a8 b9
       5.3133434e-05 -5.0074595e-05 -3.814069e-05 -0.00032113807
0000f0 3e 1a 91 39 38 bb 95 b7 2e d3 53 37 04 ad aa b8
       0.00027676107 -1.7849365e-05 1.2625749e-05 -8.138458e-05
000100 87 ae ba 3c 37 17 6e 3c 18 f6 3f bc 30 85 91 3c
       0.0227883 0.014531902 -0.011716388 0.017763704
000110 15 4e 1a 3c f9 30 9f 3c 10 7a 98 bc eb 02 37 3c
       0.00941803 0.019432532 -0.018612891 0.011170129
000120 20 31 6d bc 78 52 8f bc a2 33 af 3c 11 04 34 bc
       -0.014477044 -0.017495379 0.021386925 -0.010987298
000130 c1 cb d9 bc 4c 57 85 3a 8d 3d eb 3c 5e 7d da bb
       -0.026586415 0.0010173111 0.028715873 -0.006667777
000140 e2 53 82 3c 50 19 6c 3c b5 b5 b3 3c 46 bc 4e bc
       0.015909139 0.014410332 0.02193723 -0.01261813
000150 2f 82 8c 3c c4 36 14 3d 56 e8 90 39 d5 3c 04 3c
       0.01715192 0.03618504 0.00027638924 0.008071144
000160 72 91 f9 3c 24 29 c7 3c 12 50 99 3b 9f 47 f8 bb
       0.030464862 0.02431161 0.0046787346 -0.0075768973
000170 3c aa b8 3c 8f 71 ce bc 2c 56 c9 3b 5d cf 96 3b
       0.022542112 -0.025200633 0.0061443057 0.0046023563
000180 4f 70 41 3c 81 55 21 3c 97 fe a2 3b e8 6c 99 bc
       0.011806562 0.009847046 0.004974197 -0.018728688
000190 02 05 79 3a c7 86 12 3c 31 31 36 bc be 66 f4 3c
       0.00094993424 0.008943266 -0.011120127 0.029834148
0001a0 42 0b f1 bc 98 0f a2 bb 09 37 20 3c 44 2a a9 39
       -0.029424313 -0.0049457066 0.009778746 0.00032265682
0001b0 8a 51 dc 3c 6a 44 46 bc 0e 04 d6 bc ea f5 59 bc
       0.02689435 -0.012101272 -0.02612498 -0.013303259
0001c0 f6 08 82 3c 8d ca 87 3c c2 97 06 bd d3 88 4a 3c
       0.015873414 0.016576076 -0.03285957 0.012361723
0001d0 cc b8 52 ba 8e 87 02 3a 05 82 e1 bb 37 7c 0e 3c
       -0.0008038401 0.00049793057 -0.0068819546 0.008696607
0001e0 b8 1f d4 ba 4b bd 0a bd 8d 3e 01 3d 6f c4 d8 3c
       -0.0016183769 -0.03387193 0.031553794 0.026460854
0001f0 01 47 8f bb 60 54 88 3c e2 b8 d3 bc 5a 1e d7 3c
       -0.004372478 0.016641796 -0.025844995 0.02625959
000200 6f 4f 64 3b 26 bd 72 bc c9 5c 97 3c e0 73 9f 3c
       0.0034837385 -0.014815604 0.01847686 0.019464433
000210 26 ab 78 3a b8 6d 96 3c 47 ca ca 3c a9 0c b8 3c
       0.00094859523 0.018362865 0.024754656 0.022466974
000220 37 44 59 bb 55 6a a2 3c 0f 7f 95 3c ed fc b4 3c
       -0.0033152231 0.019826094 0.018249063 0.02209326
000230 be 44 83 bc a0 07 a4 bc 44 ef cc bc 63 7b b8 3c
       -0.01602399 -0.020023167 -0.025016434 0.022519773
000240 0d af ab bc 93 14 36 bc 3a 0c df 3c 14 53 3d bc
       -0.020957494 -0.011113304 0.02722751 -0.011555452
000250 0a 12 f0 3b 40 d4 b2 bb 39 56 6a bc 4b 27 fa bb
       0.007326369 -0.005457431 -0.014302784 -0.0076340786
000260 7b 94 e6 bc 14 9b 34 3b ae b2 c6 3c 9b 3a 42 3b
       -0.028146973 0.0027558254 0.024255123 0.0029636982
000270 7f 50 2c 3c ea ac 60 bc 70 5a f1 3c e3 d0 ad bc
       0.010517239 -0.013713101 0.02946207 -0.021217769
000280 b1 35 c2 39 ef 2d de bc f4 93 f2 3c 78 28 8e bc
       0.00037042567 -0.027121512 0.029611565 -0.017353281
000290 f3 9e 96 3c 81 28 5a bc 0b ff e5 3c 82 8b 6c 3c
       0.01838634 -0.013315321 0.028075716 0.014437558
0002a0 22 0e 23 3c a9 03 87 3c 63 cb f8 3c 56 e4 bd 3c
       0.0099521 0.016481237 0.03037042 0.023180168
0002b0 f1 53 b1 3c 74 85 e1 3c ae dd eb bc cb ce cc 3c
       0.021646472 0.027529456 -0.028792229 0.02500095
0002c0 e3 1d 92 3c 1b c9 09 bd 09 68 c1 3c 01 86 c7 3c
       0.017836517 -0.033639055 0.023609178 0.02435589
0002d0 30 18 9d 3c 1a 74 b2 3c 84 a1 1c 3c 62 1c 3c bc
       0.019176573 0.021783877 0.009559993 -0.011481376
0002e0 5c be 79 3c ef 37 6d 3b de 70 c0 bc ce 6f 23 3c
       0.015243139 0.003619667 -0.02349132 0.009975387
0002f0 3d a3 c5 3c e4 2e 93 bc c2 22 b5 bc b7 1e 3b bc
       0.02412569 -0.017966695 -0.0221113 -0.011420897
000300 82 95 9b 3c 82 85 0b bc b5 e3 7c bc 28 08 85 bc
       0.01899219 -0.008515717 -0.015435149 -0.01623924
000310 5c 06 d3 bc 31 13 08 3d c8 49 4a 3c 20 2c bd bc
       -0.025759868 0.033221427 0.012346692 -0.02309233
000320 b8 cc c5 3c 3a 28 60 3c 2e 3e 13 bc 3a 01 23 bc
       0.02414547 0.013681466 -0.008986993 -0.009949023
000330 ee 7f c6 3c cc a6 f2 bc af 83 b9 bc 03 21 b4 3c
       0.024230924 -0.02962055 -0.0226458 0.021988397
000340 14 dd ee 3a ec df b8 bc a1 0e 06 bd a0 31 92 3c
       0.0018223845 -0.022567712 -0.032728795 0.017845929
000350 48 d2 af 3c 5e 3f d7 3b 26 ef db bb 13 12 7b bc
       0.021462575 0.0065688333 -0.0067118583 -0.015324133
000360 a6 7d d5 bb b0 34 c5 3c da fb 2a 3b f3 18 ea bc
       -0.0065152226 0.024072975 0.0026090057 -0.02857635
000370 e9 e6 46 bc 83 4a 85 bb ed 26 43 3c fc 34 c9 bc
       -0.012140014 -0.0040677204 0.011911136 -0.024561398
000380 be c9 ea 3b 69 12 95 bb 03 75 91 bc da 36 09 3d
       0.007165163 -0.004549314 -0.01775599 0.033499576
000390 f0 b4 30 39 76 a4 c0 3c fa 51 c1 3c 67 05 db bc
       0.00016852072 0.023515921 0.02359866 -0.026735974
0003a0 be 99 73 bc c9 4f c3 bc 39 05 0c bc 06 e7 ed 3c
       -0.014868198 -0.023841755 -0.008546167 0.029040825
0003b0 cb b6 dc 3b cc 38 e6 bc b2 2a ab bb f2 b2 f1 bc
       0.006735658 -0.028103255 -0.0052235955 -0.029504273
0003c0 7e 34 d6 3c 5c c8 9b 39 62 ab a3 3c a3 d9 29 3a
       0.026148077 0.00029713183 0.019979183 0.0006479269
0003d0 5a 74 cd 3c 78 cc 01 3d 54 98 8a 3b 0a 38 77 3c
       0.025079895 0.031689137 0.0042295847 0.015089044
0003e0 74 00 b7 3c cb f9 98 bb 58 cb 1c bc c4 fd 62 3c
       0.022339083 -0.0046684495 -0.009569965 0.013854448
0003f0 a7 29 c2 bc 76 f8 0e 3d c7 19 4b bc dd 16 a7 bc
       -0.023701502 0.03490492 -0.0123962825 -0.020396644

convs.0.post_nns.0.0.bias f4 [16]
000000 00 59 32 39 b6 f6 c3 37 a0 f6 f5 b7 14 08 e1 36
       0.00017008558 2.3360695e-05 -2.932112e-05 6.706463e-06
000010 d4 e7 26 b9 52 10 43 39 c8 57 21 38 86 7f b6 38
       -0.00015917356 0.00018602729 3.8467144e-05 8.7021894e-05
000020 7c c9 d3 b8 a8 c6 2d 38 66 06 b7 38 5a 27 ed 37
       -0.000100987934 4.1431427e-05 8.727312e-05 2.8270926e-05
000030 a4 56 20 38 50 4a e1 35 84 7a 87 39 7e a8 30 39
       3.8227663e-05 1.6785434e-06 0.00025840488 0.00016847436
