checkpoints/pna_baseline/best_pna_baseline_seed0.pt (torch, 766766 bytes, 50 tensors)

input.weight f4 [64, 1]
0.0050716004 0.51223487 -0.72899085 -0.64212453 -0.36467144 0.27047232 0.00013080979 0.7845994
-0.08739974 0.26074398 -0.30134657 -0.20067321 -0.8610164 -0.56872183 -0.32025117 -0.0001317634
0.30354837 0.5884261 -0.6294997 -0.3432613 0.34752822 0.81860435 -0.118464075 0.7242241
-0.15360786 0.028830023 0.88687503 -0.8333895 -0.60976094 -0.2439238 -0.29807752 0.8410158
-0.5546748 -0.36791286 -0.6049475 -0.84226334 -0.5503877 0.8220232 0.4251822 0.45305294
-2.4720805e-05 -0.41987666 0.08404117 -0.83940274 -0.6287938 -0.42270446 0.6105235 0.57501096
-0.35121998 -0.036409233 0.62956744 0.9657708 0.38159615 0.12593347 0.6445837 -0.49556148
0.17693691 -0.6813755 -0.5994124 -0.42375118 0.3601193 0.3102969 -0.49909443 0.21174918
00000000: ab2f a63b d321 033f 259f 3abf 4662 24bf
00000010: 37b6 babe 597b 8a3e fc29 0939 82db 483f
00000020: a3fe b2bd 3c80 853e 194a 9abe 477d 4dbe
00000030: 926b 5cbf c197 11bf f6f7 a3be f829 0ab9
00000040: b16a 9b3e 18a3 163f e426 21bf f2bf afbe
00000050: 38ef b13e 0e90 513f 4b9d f2bd c066 393f
00000060: 614b 1dbe f12c ec3c 3e0a 633f 0459 55bf
00000070: 4b19 1cbf 29c7 79be 9e9d 98be d04c 573f
00000080: 2bff 0dbf 135f bcbe d7dd 1abf 929e 57bf
00000090: 35e6 0cbf 1d70 523f 7bb1 d93e 8ef6 e73e
000000a0: 865f cfb7 13fa d6be c71d ac3d 19e3 56bf
000000b0: a1f8 20bf b86c d8be 454b 1c3f eb33 133f
000000c0: 1bd3 b3be d921 15bd 552b 213f c13c 773f
000000d0: 9260 c33e b4f4 003e 7003 253f 3cba fdbe
000000e0: f32e 353e a06e 2ebf 1773 19bf eaf5 d8be
000000f0: 8f61 b83e 3cdf 9e3e 4e89 ffbe c7d4 583e

input.bias f4 [64]
0.535141 -0.11342393 -0.00021894128 0.14328054 0.6019708 0.9526027 -0.67670697 -0.353242
0.3730968 0.8064422 0.8322484 0.863466 0.112016365 -0.77542067 0.018561253 -0.53219515
-0.837665 0.86816114 0.7136308 -0.9031232 0.17736873 -0.15938188 -0.079774104 -0.43080354
0.36981937 -0.4990458 0.35498196 0.4129478 0.7063063 0.37564483 -0.8953436 -0.6223274
0.4065987 0.121800534 -0.68614084 -0.48264477 0.88963926 0.64312536 -0.42262855 -0.24866255
-0.8582714 5.5473498e-05 -0.65919244 -0.677438 -0.00040263723 0.066632405 -0.3815297 0.58200216
-0.5152047 0.85811496 0.6742658 -0.80970436 -0.2472172 0.038102057 0.14080533 0.14855413
0.37727544 0.0015793929 -0.39529368 0.3806657 -0.8649099 -0.49944726 -0.16127698 -0.3944845
00000000: 00ff 083f ce4a e8bd 9a93 65b9 22b8 123e
00000010: c21a 1a3f c5dd 733f ab3c 2dbf 23dc b4be
00000020: 8b06 bf3e ff72 4e3f 3b0e 553f 1c0c 5d3f
00000030: d668 e53d f881 46bf c50d 983c f13d 08bf
00000040: 3771 56bf cf3f 5e3f 82b0 363f 1533 67bf
00000050: 26a0 353e 0135 23be 9b60 a3bd 4892 dcbe
00000060: f758 bd3e ee82 ffbe 32c0 b53e e56d d33e
00000070: 7dd0 343f 8554 c03e 3d35 65bf d950 1fbf
00000080: b42d d03e 8f72 f93d eda6 2fbf 371d f7be
00000090: 66bf 633f dda3 243f c562 d8be 65a1 7ebe
000000a0: adb7 5bbf 37ac 6838 d6c0 28bf 946c 2dbf
000000b0: 0e19 d3b9 9276 883d dc57 c3be 18fe 143f
000000c0: 75e4 03bf 6cad 5b3f af9c 2c3f c948 4fbf
000000d0: 8126 7dbe e710 1c3d 462f 103e 931e 183e
000000e0: 3f2a c13e a203 cf3a ef63 cabe 9de6 c23e
000000f0: bc6a 5dbf 8db7 ffbe cb25 25be dff9 c9be

convs.0.pre_nns.0.0.weight f4 [64, 128]
-0.0106172925 -0.015520031 0.004044692 0.00039538523 -0.0036407558 -0.00351846 6.194558e-05 0.038450174
-0.054156687 0.004676631 0.05113948 0.0735354 8.3415645e-05 -5.0565366e-05 -0.0005396064 2.8563532e-05
-1.3833165e-05 0.014854611 -0.031757798 0.0011956538 0.040171295 0.017079612 0.0010819401 0.0052906983
-0.037568003 0.011563101 -0.08401989 -0.0011738683 0.0070561757 0.04462516 -0.000124269 -0.033238683
0.0065667564 -1.9690713e-05 -0.005193495 0.00017585735 -0.06887255 0.024620093 0.0008682495 -0.058649354
-0.00050787476 -0.015156902 1.8781695e-05 -3.5780293e-05 -0.0003374967 3.8586084e-05 0.03463799 -0.054762952
8.972583e-05 0.052125134 0.06410912 -0.03122427 0.022572543 -0.05450755 0.009871924 0.009245766
0.07107681 4.7690013e-05 -0.00022793983 9.0484646e-05 0.0115269 -0.00026773705 -0.0039748317 -0.0005286086
-0.067868 0.00043296607 -0.004097123 -0.00038813075 0.049076132 0.015611538 -9.528642e-05 0.054465003
0.014536223 0.019226167 -0.055432513 -0.035985854 -0.00054023496 2.08348e-06 0.009034904 -0.007817841
0.014105406 -0.044255562 0.039400153 0.00021170334 0.054554783 0.07039837 -1.9888926e-06 -0.057535764
-0.059265573 -1.2607358e-05 0.025605133 0.0021378624 -0.02191831 -0.025985338 5.0846742e-05 -0.061490275
-0.00012658125 -0.010366067 6.9479895e-05 -8.708182e-05 -0.058013454 0.0219896 -0.0120200915 0.020861804
-0.0005320502 -5.3370215e-05 -0.0083818305 -0.013166746 -0.01582924 -0.0005374243 -0.007516941 -0.036255322
1.527839e-05 -0.07437052 -0.06133158 0.03497432 -0.053703625 0.0042745788 0.059864987 -0.00020827165
0.012254205 -0.015762927 0.0083239665 0.00011731783 -0.0005355316 -0.0118916975 -0.00044074378 8.392604e-05
-0.06430196 -0.029311925 1.2302401e-05 -0.004897077 -0.020318473 0.049859803 -6.9916845e-05 0.02379162
0.056605652 -0.054930724 0.024939287 0.027545003 5.3290503e-05 2.4227022e-05 0.00053480477 -0.00010572189
0.0025237773 0.041729 0.02684064 0.004562518 0.030521965 -0.014236078 -0.007293431 -0.027120803
0.06308954 -2.2382965e-05 -0.009883855 -3.5928424e-05 -0.025058808 0.051266164 0.00045778116 -0.030909603
-5.80304e-06 0.001311208 0.00018929772 -3.6538386e-05 0.028991126 -0.07386353 -0.00015686978 0.06392976
0.004423906 0.004735427 -0.010661392 -0.00022808662 -0.0005339328 0.00054069754 0.024645936 0.02898279
0.0005266419 0.012856024 -0.059206795 -0.0104788225 -0.022086913 0.03730132 -0.060652778 -1.8843115e-05
-0.0803327 0.0108748125 -4.6574383e-05 -7.6824086e-05 -0.0003428287 -0.0013571847 0.00010703146 -0.0005400528
0.006616238 0.068335414 -8.298931e-05 0.0059914794 -0.007756968 0.06161404 -0.0050687706 0.008903445
-0.065336764 -0.037526276 -0.06386545 -0.048261456 0.000238413 0.009622295 -0.006295784 -0.00018063762
0.00042691472 -0.0004022237 0.019298712 -3.1426289e-06 0.017225713 0.029737806 0.0004337927 -0.005799881
-0.033587128 0.011281343 -0.00973868 0.010122942 0.041547228 0.035835642 0.015775068 0.021447824
-9.461164e-06 -1.47753835e-05 2.3001214e-05 0.0034413063 -0.031467684 0.001787444 -0.0003105054 -0.0051290654
0.005101312 0.003927147 0.005390987 2.8011254e-05 0.00050838 0.00028557723 -0.00995648 -0.0462215
-0.0009999486 -0.043602694 -0.086003944 0.043039955 0.048256896 0.0009113128 0.0016905682 3.854681e-05
0.008203359 -0.00043049373 0.00020658885 -0.010153763 1.217456e-05 4.8866263e-05 0.013256887 0.0004981147
00000000: 27f4 2dbc ba47 7ebc 5689 843b b54b cf39
00000010: bf99 6ebb f795 66bb c8e8 8138 ee7d 1d3d
00000020: 67d3 5dbd 6d3e 993b a277 513d ba99 963d
00000030: 6fef ae38 2616 54b8 5f74 0dba b89b ef37
00000040: fe14 68b7 c160 733c 7714 02bd 7cb7 9c3a
00000050: a88a 243d 8bea 8b3c e3cf 8d3a 985d ad3b
00000060: e8e0 19bd 2973 3d3c 9f12 acbd 7cdc 99ba
00000070: 7e37 e73b dfc8 363d 354e 02b9 4925 08bd
00000080: f22d d73b 7c2d a5b7 322e aabb 5966 3839
00000090: 0d0d 8dbd 14b0 c93c 3d9b 633a 4e3a 70bd
000000a0: e622 05ba a854 78bc 628d 9d37 cc12 16b8
000000b0: 0af2 b0b9 7ed7 2138 91e0 0d3d 1e4f 60bd
000000c0: 302b bc38 2a81 553d a44b 833d 0aca ffbc
000000d0: 0eea b83c 4f43 5fbd dabd 213c 8e7b 173c
000000e0: b890 913d c306 4838 2203 6fb9 93c2 bd38
000000f0: 53db 3c3c 0f5f 8cb9 4e3f 82bb 5392 0aba
00000100: 61fe 8abd b9ff e239 2941 86bb 077e cbb9
00000110: 0e04 493d 89c7 7f3c 82d4 c7b8 b216 5f3d
00000120: 5729 6e3c 3280 9d3c 340d 63bd e765 13bd
00000130: 8e9e 0dba ead1 0b36 2207 143c 6716 00bc
00000140: 5c1a 673c 5245 35bd 0e62 213d affc 5d39
00000150: d674 5f3d 052d 903d ea78 05b6 9faa 6bbd
00000160: 75c0 72bd 3184 53b7 dbc1 d13c 611b 0c3b
00000170: 078e b3bc 34df d4bc 4644 5538 3add 7bbd
00000180: e5ba 04b9 70d6 29bc bcb5 9138 b29f b6b8
00000190: 849f 6dbd 8923 b43c ebef 44bc 60e6 aa3c
000001a0: 4979 0bba d5d9 5fb8 f253 09bc 56b9 57bc
000001b0: 53ac 81bc efe1 0cba ac50 f6bb 7680 14bd
000001c0: 182a 8037 924f 98bd d336 7bbd 3c41 0f3d
000001d0: 55f8 5bbd c411 8c3b fd34 753d 7f63 5ab9
000001e0: dcc5 483c 4121 81bc 3f61 083c 8808 f638
000001f0: eb62 0cba 65d5 42bc a113 e7b9 7301 b038
00000200: bfb0 83bd 901f f0bc 6966 4e37 a977 a0bb
00000210: ed72 a6bc cb39 4c3d 52a0 92b8 a5e6 c23c
00000220: 54db 673d 0aff 60bd 7a4d cc3c 0fa6 e13c
00000230: 3e84 5f38 223b cb37 2432 0c3a 02b7 ddb8
00000240: f565 253b 07ec 2a3d e7e0 db3c 2d81 953b
00000250: 3309 fa3c 703e 69bc bcfd eebb 722c debc
00000260: 1735 813d 0dc3 bbb7 e4ef 21bc dab1 16b8
00000270: 2148 cdbc 78fc 513d 5902 f039 2336 fdbc
00000280: bcb7 c2b6 d7dc ab3a 387e 4639 cb40 19b8
00000290: cc7e ed3c c345 97bd 697d 24b9 9bed 823d
000002a0: 6af6 903b a42b 9b3b 1ead 2ebc 892a 6fb9
000002b0: a0f7 0bba 99bd 0d3a 46e6 c93c 516d ed3c
000002c0: 570e 0a3a 13a2 523c d382 72bd 5eaf 2bbc
000002d0: 9def b4bc 45c9 183d 0c6f 78bd 4811 9eb7
000002e0: 7885 a4bd 452c 323c dd58 43b8 9e1c a1b8
000002f0: b0bd b3b9 90e3 b1ba 1476 e038 5492 0dba
00000300: 07cd d83b 70f3 8b3d 8c0a aeb8 2c54 c43b
00000310: 2a2e febb 015f 7c3d ee17 a6bb c1df 113c
00000320: 48cf 85bd 27b5 19bd e4cb 82bd cead 45bd
00000330: 81fe 7939 d5a6 1d3c dd4c cebb 8b69 3db9
00000340: 86d3 df39 8de1 d2b9 5518 9e3c f4e5 52b6
00000350: f01c 8d3c b39c f33c ac6e e339 ee0c bebb
00000360: a892 09bd 62d5 383c fc8e 1fbc b2da 253c
00000370: 6d2d 2a3d 65c8 123d b73a 813c 59b3 af3c
00000380: 64bb 1eb7 cae3 77b7 bbf2 c037 8a87 613b
00000390: 42e4 00bd ab48 ea3a 54cb a2b9 b811 a8bb
000003a0: e828 a73b 4caf 803b e0a6 b03b b6f9 ea37
000003b0: ce44 053a 87b9 9539 8120 23bc c152 3dbd
000003c0: b510 83ba bd98 32bd d622 b0bd aa4a 303d
000003d0: 06a9 453d 2be5 6e3a 0e96 dd3a 52ad 2138
000003e0: 6267 063c e4b3 e1b9 c69f 5839 f85b 26bc
000003f0: 5641 4c37 c0f5 4c38 6a33 593c e993 023a

convs.0.pre_nns.0.0.bias f4 [64]
0.054872274 -0.04389558 0.034218077 0.042481788 0.012754065 -0.06821382 0.0018764779 0.058654852
-0.0468101 -0.0124321 0.020786114 -0.08308215 -0.08819898 -0.027765576 -0.017522773 0.04535077
0.070711635 -0.057708435 -0.06802125 -0.086387716 -0.009286043 -0.05496763 -0.04471349 -0.043833274
-0.07054179 -0.08644106 -0.013304726 -0.006943905 -0.05414737 -0.01827442 0.0077723116 0.066596664
0.06765392 -0.007802464 0.028267637 0.07373881 -0.0782955 0.053591717 -0.041409396 0.029158426
0.064904265 -0.051162828 0.037650842 0.05957319 0.014601637 -0.062337324 -0.05715696 -0.044249594
0.07194146 0.056258786 0.016490985 0.06675214 0.08445168 -0.008127437 0.011414363 0.03108622
0.009502294 0.020277556 -0.019740336 0.04023146 0.03882064 0.018808046 -0.0047692657 -0.046875216
00000000: c0c1 603d dacb 33bd 4128 0c3d 6201 2e3d
00000010: 6df6 503c b0b3 8bbd 26f4 f53a 1240 703d
00000020: f3bb 3fbd 02b0 4bbc a447 aa3c f926 aabd
00000030: aba1 b4bd a274 e3bc eb8b 8fbc bbc1 393d
00000040: 43d1 903d ae5f 6cbd ba4e 8bbd 0bec b0bd
00000050: 7d24 18bc bd25 61bd 7e25 37bd 858a 33bd
00000060: 3778 90bd 0308 b1bd 11fc 59bc b289 e3bb
00000070: a2c9 5dbd 3db4 95bc e0ae fe3b d563 883d
00000080: 238e 8a3d d0ab ffbb 8891 e73c 6004 973d
00000090: 6459 a0bd fd82 5b3d e69c 29bd a7dd ee3c
000000a0: 87ec 843d 1d90 51bd c537 1a3d 0403 743d
000000b0: b43b 6f3c 6c55 7fbd 6b1d 6abd 103f 35bd
000000c0: 0b56 933d 9d6f 663d 1a18 873c 59b5 883d
000000d0: 01f5 ac3d f128 05bc 4f03 3b3c 87a8 fe3c
000000e0: 82af 1b3c 1e1d a63c 7cb6 a1bc bec9 243d
000000f0: 6402 1f3d 5513 9a3c 8047 9cbb 3a00 40bd

convs.0.pre_nns.1.0.weight f4 [64, 128]
0.00757526 -0.013626166 -0.00020667913 -1.26334e-06 -0.07670929 -0.045221567 -0.0007591011 -0.090503804
-0.08707507 -0.02594768 -0.010434028 0.022514526 0.013707595 -0.00021243501 -7.947133e-05 -0.0005267684
0.014922788 -0.003749859 0.02014092 -0.00047973404 0.031171944 0.011938104 -0.003279165 -0.03962929
0.05233635 -0.000113922 0.06645416 -0.0001529225 -0.058257814 -0.06154645 5.9915437e-05 -0.05093065
2.187783e-05 -0.0002851279 -0.011698571 -0.0070339916 -0.00048945326 0.07351645 0.01691759 -0.016371366
6.3498637e-06 0.0035935414 -0.004357941 -0.00053792325 -0.000115105635 0.015185935 -0.023015209 -0.07552988
0.00013678035 0.0667255 0.009693521 -0.035862725 0.053260986 0.035348214 0.02073507 0.0073551675
0.071683854 -0.00022550217 0.00053247454 5.7912457e-06 -0.0108823385 -0.00031230375 0.001645493 0.00046303464
-0.025171353 0.058577497 0.00031565665 0.0002974703 -0.07006098 0.02346381 -6.744181e-06 -0.07956796
-0.04642597 -0.004464926 0.03338252 -0.07044635 -0.0026226055 0.0003406033 7.815107e-05 -0.00875914
3.025571e-05 0.049038783 -0.018690407 -0.0069690295 0.043180924 0.0313431 0.00040654826 0.041199565
0.020145075 -0.012997846 -0.014240194 0.00020540613 0.0013807461 0.020194834 -4.6309313e-05 -0.037579164
1.4512759e-05 0.0033166439 0.003110668 0.008995386 -0.002590394 -0.017890977 0.012414241 -0.07678754
3.2064618e-05 0.00022478482 0.00031969114 0.011947617 -0.00015240723 0.005623108 0.040917322 0.009478822
7.757941e-05 -0.065300554 -0.08608989 -0.0049124532 0.043783754 0.011410678 0.043111317 0.00013747075
0.0013384817 0.0005243396 -6.009513e-05 -0.00045732502 -2.9683808e-05 -0.0001360207 -0.0012691426 -3.220444e-06
-0.07909356 -0.044757266 -0.00047375757 -0.015857136 -0.060040113 -0.069052204 -0.00030667882 -0.040441997
-0.027579535 0.029151272 0.067370884 0.03994687 -0.015597584 0.0001212613 -0.00051951094 -3.8080357e-06
-0.0003633277 0.005974651 -0.02744692 0.008339564 0.018487908 -0.021251192 -0.00031822352 0.034808427
-0.012524836 0.00053306523 -0.0446176 0.015419204 -0.008367168 0.020408146 -0.015405455 0.055494197
5.7008024e-06 3.770092e-07 0.00014740886 -0.0015244011 -0.07953505 -0.08145634 -8.357405e-05 0.0036896872
0.00024346294 0.0021400636 -0.000939292 0.00039574056 -0.007346388 1.4673982e-05 -0.0066438513 -0.0288886
0.0002319375 0.0048811017 -0.0462832 -0.025274891 0.0034103398 0.025765441 -0.0015151213 -7.315252e-05
0.03473184 -0.0004815716 0.0012906757 0.0026821229 -9.1746e-05 -1.14828135e-05 -5.235883e-06 6.8991976e-05
0.017253185 0.024461856 -1.366285e-06 0.00083847146 -0.058714043 -0.010938658 0.00014873613 0.024096765
0.033241134 -0.07826481 -0.06537804 0.0005961308 -1.1090669e-05 -0.0059887413 -0.00023195538 -0.0029288817
0.00048053387 -0.043153536 -0.028223908 -0.0001484004 -0.034743786 0.032999188 -0.00041542348 0.046493113
-0.05653482 -3.9120896e-05 -0.062354796 -2.119298e-05 -0.019604685 -0.04016198 -0.012459472 -0.06376475
0.004889236 -0.0008366505 4.8230228e-05 -3.7728132e-05 0.00799387 -0.060164914 -0.0038283202 -0.028361108
0.00014967633 9.0094516e-05 -7.1094364e-05 7.9593156e-05 0.005019327 -0.008280341 0.029671516 -0.030516978
0.0002164586 0.05814462 -0.04463714 -0.03400115 -0.04410903 0.00058414356 -0.049994852 0.011107408
-0.054918196 -0.00017562424 -0.014563103 -0.00024210892 -0.014893466 0.00013805865 0.0052323355 -9.183407e-06
00000000: e339 f83b 4840 5fbc 02b8 58b9 0890 a9b5
00000010: c319 9dbd 403a 39bd 6afe 46ba 0f5a b9bd
00000020: 6a54 b2bd 3b90 d4bc 7cf3 2abc 6270 b83c
00000030: d295 603c 17c1 5eb9 d8a9 a6b8 d416 0aba
00000040: b67e 743c 32c0 75bb 92fe a43c d084 fbb9
00000050: 4e5c ff3c 0a98 433c 42e7 56bb 5352 22bd
00000060: a45e 563d 68e9 eeb8 1e19 883d d259 20b9
00000070: bf9f 6ebd 2118 7cbd b64d 7b38 a89c 50bd
00000080: 4886 b737 387d 95b9 5dab 3fbc 667d e6bb
00000090: a74e 00ba cb8f 963d c296 8a3c 3e1d 86bc
000000a0: ea10 d536 9f81 6b3b 0fcd 8ebb 6b03 0dba
000000b0: de64 f1b8 6ece 783c 648a bcbc 69af 9abd
000000c0: b26c 0f39 61a7 883d 93d1 1e3c cbe4 12bd
000000d0: 3128 5a3d 4ac9 103d 98dc a93c 9e03 f13b
000000e0: fcce 923d c774 6cb9 c395 0b3a 6c52 c236
000000f0: d64b 32bc b3bc a3b9 95ad d73a 75c3 f239
00000100: 2734 cebc f5ee 6f3d b87e a539 caf5 9b39
00000110: 227c 8fbd 2d37 c03c 134c e2b6 87f4 a2bd
00000120: 2829 3ebd 844e 92bb 1cbc 083d 2d46 90bd
00000130: 05e0 2bbb 0093 b239 09e5 a338 7f82 0fbc
00000140: a4cd fd37 e4dc 483d a01c 99bc 755c e4bb
00000150: 7bde 303d 9f61 003d fc25 d539 e0c0 283d
00000160: 4907 a53c ebf4 54bc b44f 69bc 4a62 5739
00000170: 27fa b43a a36f a53c 3f3c 42b8 9cec 19bd
00000180: d37b 7337 0d5c 593b 59dc 4b3b 6261 133c
00000190: 9ac3 29bb 1990 92bc 1a65 4b3c c942 9dbd
000001a0: 1f7d 0638 37b4 6b39 389c a739 f0bf 433c
000001b0: 81cf 1fb9 0c42 b83b ec98 273d 104d 1b3c
000001c0: 21b2 a238 4cbc 85bd e54f b0bd a5f8 a0bb
000001d0: 9856 333d daf3 3a3c 7e95 303d 0626 1039
000001e0: fe6f af3a d673 093a a80e 7cb8 20c5 efb9
000001f0: 7e01 f9b7 c7a0 0eb9 5c59 a6ba ce1e 58b6
00000200: cefb a1bd 6553 37bd aa62 f8b9 d3e6 81bc
00000210: 9fec 75bd 3e6b 8dbd bcc9 a0b9 82a6 25bd
00000220: 7aee e1bc a6ce ee3c bff9 893d 549f 233d
00000230: 028d 7fbc aa4d fe38 ca2f 08ba 8e8d 7fb6
00000240: 057d beb9 01c7 c33b 5dd8 e0bc aba2 083c
00000250: f473 973c fb16 aebc 3dd7 a6b9 4893 0e3d
00000260: f834 4dbc 67bd 0b3a f2c0 36bd d4a0 7c3c
00000270: 7216 09bc fc2e a73c 2967 7cbc e24d 633d
00000280: 8549 bf36 c067 ca34 c491 1a39 6ace c7ba
00000290: 46e3 a2bd 95d2 a6bd 7a44 afb8 aece 713b
000002a0: 164a 7f39 4f40 0c3b d23a 76ba 667b cf39
000002b0: f8b9 f0bb 4630 7637 aab4 d9bb c9a7 ecbc
000002c0: 4034 7339 a6f1 9f3b 7493 3dbd 4a0d cfbc
000002d0: 0280 5f3b 0c12 d33c 0997 c6ba 7669 99b8
000002e0: f942 0e3d 727b fcb9 e42b a93a 8ec6 2f3b
000002f0: c267 c0b8 4fa6 40b7 e4af afb6 c9af 9038
00000300: 8d56 8d3c 3b64 c83c 3261 b7b5 decc 5b3a
00000310: 237e 70bd 0f38 33bc 0df6 1b39 9466 c53c
00000320: db27 083d 4d49 a0bd ece4 85bd a945 1c3a
00000330: 1012 3ab7 343d c4bb 0c39 73b9 7bf2 3fbb
00000340: 2af0 fb39 c3c1 30bd d335 e7bc ee9b 1bb9
00000350: 804f 0ebd 282a 073d 32cd d9b9 906f 3e3d
00000360: 0e91 67bd be15 24b8 be67 7fbd 94c7 b1b7
00000370: 019a a0bc e380 24bd d022 4cbc 1897 82bd
00000380: e235 a03b aa52 5bba d04a 4a38 463e 1eb8
00000390: b9f8 023c 7c6f 76bd 8ee4 7abb 8e55 e8bc
000003a0: 6ff2 1c39 20f1 bc38 7f18 95b8 40eb a638
000003b0: 2b79 a43b 44aa 07bc ae11 f33c befe f9bc
000003c0: 2af9 6239 0e29 6e3d 6fd5 36bd ca44 0bbd
000003d0: acab 34bd 3621 193a 67c7 4cbd d9fb 353c
000003e0: e7f1 60bd c627 38b9 159a 6ebc 9ede 7db9
000003f0: b903 74bc d6c3 1039 0374 ab3b 6f12 1ab7

convs.0.pre_nns.1.0.bias f4 [64]
-0.013783036 0.023189977 -0.035499386 -0.06319924 -0.07689427 0.0021897275 0.0790495 0.026768314
-0.08132264 -0.048333876 0.02466418 0.08366967 -0.07075134 -0.06477111 -0.026598815 0.0634967
-0.0004869683 -0.07264643 -0.016129121 0.06784036 0.035183717 0.018993078 0.037155777 -0.003955026
-0.021724897 0.013799786 0.09055732 0.06378755 0.0448207 0.020328017 -0.02848955 -0.050886616
0.017985836 0.06201331 0.0139566455 -0.07949401 0.050019696 0.011130824 -0.0026744504 -0.00081923243
-0.035081167 0.0035531453 0.047633633 -0.008655433 -0.013703367 0.064321086 0.07842354 -0.034182392
-0.0020028085 0.012616751 -0.0851883 -0.047635436 0.072067164 0.07063744 -0.04570825 -0.011746246
-0.014738045 0.046040308 -0.05554023 -0.03756623 0.014628396 0.079025365 -0.030973256 -0.045269232
00000000: 3ed2 61bc e8f8 bd3c ce67 11bd 9a6e 81bd
00000010: be7a 9dbd 8881 0f3b b4e4 a13d 3949 db3c
00000020: 7c8c a6bd bef9 45bd 890c ca3c 015b ab3d
00000030: 14e6 90bd b7a6 84bd c2e5 d9bc 8f0a 823d
00000040: c74f ffb9 a7c7 94bd 3821 84bc e3ef 8a3d
00000050: cd1c 103d 5f97 9b3c a830 183d 2a99 81bb
00000060: 69f8 b1bc 7f18 623c 1e76 b93d 0ca3 823d
00000070: e995 373d f186 a63c eb62 e9bc 7c6e 50bd
00000080: 0857 933c ab01 7e3d 6aaa 643c c1cd a2bd
00000090: 74e1 4c3d 0f5e 363c d545 2fbb c2c1 56ba
000000a0: 45b1 0fbd e3db 683b 7c1b 433d 84cf 0dbc
000000b0: 1684 60bc c6ba 833d 859c a03d d602 0cbd
000000c0: 8d41 03bb 7db6 4e3c 3477 aebd 601d 43bd
000000d0: f397 933d 5daa 903d 9338 3bbd 5473 40bc
000000e0: d777 71bc c394 3c3d 277e 63bd 0cdf 19bd
000000f0: f1ab 6f3c 0dd8 a13d a0bb fdbc 3b6c 39bd

convs.0.pre_nns.2.0.weight f4 [64, 128]
0.025561541 -0.024365762 -5.5706594e-05 0.00030329253 -0.024811134 0.076842055 -0.00045399688 -0.084789716
0.014569464 -0.055472177 -0.07771317 0.070511125 -0.00044176241 -0.00016345583 0.010665292 -0.00033189417
-0.00012672131 -0.00012256725 -0.05248158 -0.0023405524 0.012624023 0.06569264 -0.009643969 -0.051731184
0.016985686 3.099013e-05 0.014587846 0.00048805424 -0.033484492 0.008743648 0.008364012 0.0050700908
4.2603642e-05 0.00017983578 -4.334424e-05 -0.00023210954 0.07147789 0.07376179 0.0011147596 0.006920977
-8.142122e-06 1.4668485e-06 -0.00015417341 -0.005267768 -0.00011774319 -4.9359314e-05 0.009008105 0.053324055
-0.00039636082 -0.020148207 -0.06862915 0.028504075 -0.0065079858 0.06097216 0.058275357 0.009117293
0.069751315 0.00016168856 -0.006895212 0.0022458716 0.015452386 -6.656686e-05 0.00019098949 -0.0007114089
-0.047725193 0.05507531 -0.00016257308 0.0005035555 0.030545263 -0.024845254 7.746942e-05 -0.035861313
-0.0050137956 -0.0054223584 0.06854576 0.025522249 -0.0020816135 0.00015265982 0.00013619785 6.3056905e-07
3.53242e-05 -0.06544691 -0.052965175 -0.0004515169 0.003783156 0.03783978 0.00020383317 0.0059447284
0.0059632515 0.00020845866 -0.0803262 -2.188053e-05 0.03389286 0.007804489 -0.010210121 0.023348555
0.00021016508 -0.00015145316 -0.0013214822 0.00058523164 0.04164974 -0.08849186 0.0061907377 -0.0645366
3.9686623e-05 0.00052071543 -0.0063839196 -0.00023318443 0.013400215 -0.00028778648 -0.039143607 -0.027346041
0.0003822147 0.03111038 0.057755724 0.058665555 -0.029285742 0.07247487 0.04959067 -0.00022162676
-0.041495804 -0.009773894 -0.0008801137 -0.00023174884 -4.966674e-06 -1.8162767e-05 -0.00036504227 -0.011644959
-0.05408036 -0.07161946 0.000566901 -0.0095620155 0.048129465 0.09136076 0.0028281808 -0.05952157
-0.06757721 0.0225501 0.05943942 -0.07872785 0.00015668382 0.0002920695 0.013552737 -0.011049605
-5.588668e-05 -0.033275455 0.058156904 2.3157249e-05 -0.04008273 0.07108835 -0.002104655 -0.060107928
0.0755587 -5.151791e-06 0.031496085 2.3624276e-05 -0.046378586 0.04003673 -4.2751108e-05 0.0742486
-1.6130913e-05 -0.00019892828 0.00011865792 0.000401115 0.034697603 0.051669784 -0.017535713 0.08068736
-0.0024710707 -0.008447653 -0.00022624331 -0.00046230818 -0.0004592522 -0.00020251812 0.054236602 0.011548849
1.0168847e-05 -0.027079627 0.031291034 0.058402758 0.037560716 0.045357537 0.05939042 -2.011404e-06
-0.07474577 -0.00051819126 -0.009623575 0.00020977543 0.0001503528 0.011516284 3.5076315e-05 0.00016449559
-0.003247455 -0.054687858 -3.4738987e-05 1.6314554e-05 0.040679615 0.018383587 0.00044558826 0.04452741
0.0017813978 -0.060098153 0.007636434 -0.059111014 -0.008992846 -0.010713633 -0.010076498 0.00051670277
-0.00653034 0.0011143177 0.04248158 0.00023201897 0.08640847 0.048712734 -0.0005253675 0.0044856127
0.072769575 -0.0002232279 0.020727156 0.0150910625 0.034357693 0.068005964 2.002943e-05 -8.3350955e-05
0.00083896075 -2.8878309e-05 0.00021375612 0.00033148236 0.08412316 -0.051454842 -7.804044e-05 -0.020195186
-0.0004608499 0.009192554 0.00061282015 0.00054023264 -0.004592519 -0.015415985 0.065609016 0.05864577
4.5865127e-05 0.03239472 0.004773681 0.02030247 -0.008274097 -0.041758943 0.05860841 -0.014303017
0.06921889 -0.00047766368 -7.03683e-05 0.0023284398 -0.0049864454 0.01304627 -0.005425035 -8.068305e-07
00000000: 7066 d13c b59a c7bc 80a6 69b8 3c03 9f39
00000010: b840 cbbc 5e5f 9d3d 6e06 eeb9 3ba6 adbd
00000020: c3b4 6e3c cb36 63bd 1528 9fbd 2368 903d
00000030: 599c e7b9 5765 2bb9 7abd 2e3c 1502 aeb9
00000040: 7ee0 04b9 6585 00b9 edf6 56bd f463 19bb
00000050: fdd4 4e3c dd89 863d bd01 1ebc 14e4 53bd
00000060: 9125 8b3c 66fb 0138 dc01 6f3c 88e1 ff39
00000070: 0927 09bd 8541 0f3c 3609 093c 0123 a63b
00000080: 50b1 3238 4d92 3c39 86cc 35b8 6e62 73b9
00000090: 0063 923d 6c10 973d 201d 923a 5dc9 e23b
000000a0: 269a 08b7 88e0 c435 9ca9 21b9 3e9d acbb
000000b0: e5ec f6b8 2907 4fb8 bb96 133c 536a 5a3d
000000c0: a6ce cfb9 da0d a5bc 718d 8cbd 6181 e93c
000000d0: f140 d5bb f2bd 793d 24b2 6e3d b360 153c
000000e0: c7d9 8e3d f18a 2939 3bf1 e1bb 792f 133b
000000f0: 012c 7d3c d099 8bb8 5a44 4839 d87d 3aba
00000100: 7e7b 43bd a696 613d 6178 2ab9 0a01 043a
00000110: 0f3a fa3c 4688 cbbc 1477 a238 50e3 12bd
00000120: c44a a4bb 0aae b1bb b861 8c3d 0914 d13c
00000130: ae6b 08bb 4f13 2039 55d0 0e39 6044 2935
00000140: 1229 1438 0809 86bd 03f2 58bd 93b9 ecb9
00000150: d3ee 773b e3fd 1a3d 0dbc 5539 ffcb c23b
00000160: 6167 c33b b295 5a39 1082 a4bd 158c b7b7
00000170: 3dd3 0a3d cdbc ff3b 5a48 27bc 7845 bf3c
00000180: c25f 5c39 66cf 1eb9 9635 adba 3b6a 193a
00000190: eb98 2a3d 383b b5bd acdb ca3b c42b 84bd
000001a0: 3075 2638 9f80 083a 3330 d1bb f882 74b9
000001b0: 938c 5b3c 0ce2 96b9 0c55 20bd ce04 e0bc
000001c0: fd63 c839 32db fe3c 4491 6c3d 4b4b 703d
000001d0: a7e8 efbc b46d 943d 961f 4b3d 7b64 68b9
000001e0: 81f7 29bd af22 20bc 6eb7 66ba 9b01 73b9
000001f0: 68a7 a6b6 3f5c 98b7 2563 bfb9 80ca 3ebc
00000200: 5e83 5dbd 39ad 92bd 159c 143a 00aa 1cbc
00000210: 6723 453d 5a1b bb3d 0059 393b e4cc 73bd
00000220: ec65 8abd fdba b83c c076 733d 113c a1bd
00000230: 7e4b 2439 e820 9939 4d0c 5e3c 6709 35bc
00000240: de67 6ab8 d84b 08bd ef35 6e3d d041 c237
00000250: ca2d 24bd c596 913d 40ee 09bb bb33 76bd
00000260: 85be 9a3d 8cdd acb6 0a02 013d bf2c c637
00000270: 79f7 3dbd 8efd 233d a74f 33b8 a60f 983d
00000280: df50 87b7 6797 50b9 fcd7 f838 be4c d239
00000290: 131f 0e3d b2a3 533d 0ea7 8fbc 6a3f a53d
000002a0: b0f1 21bb 0668 0abc ba3b 6db9 f461 f2b9
000002b0: c9c7 f0b9 0b5b 54b9 3327 5e3d 6237 3d3c
000002c0: de9a 2a37 18d6 ddbc 072b 003d bb37 6f3d
000002d0: 44d9 193d d3c8 393d 5e43 733d a8fb 06b6
000002e0: 4f14 99bd 3ad7 07ba 33ac 1dbc 2af7 5b39
000002f0: 06a8 1d39 ccae 3c3c e81e 1338 737c 2c39
00000300: 41d3 54bb 6000 60bd b4b4 11b8 3ddb 8837
00000310: ab9f 263d 2d99 963c d89d e939 6062 363d
00000320: cb7d e93a 7b29 76bd 0d3b fa3b 641e 72bd
00000330: bb56 13bc 3c88 2fbc e517 25bc 5673 073a
00000340: 76fc d5bb 4c0e 923a 2a01 2e3d 1e4a 7339
00000350: edf6 b03d 0187 473d d1b8 09ba 0cfc 923b
00000360: 3708 953d 4812 6ab9 ffcb a93c 8140 773c
00000370: a7ba 0c3d b646 8b3d e004 a837 b4cc aeb8
00000380: b4ed 5b3a b23f f2b7 b923 6039 cfca ad39
00000390: c348 ac3d 50c2 52bd a4a9 a3b8 6070 a5bc
000003a0: 3a9e f1b9 5e9c 163c aaa5 203a 669e 0d3a
000003b0: d77c 96bb 5493 7cbc 055e 863d 8c36 703d
000003c0: 4e5f 4038 53b0 043d 8a6c 9c3b 5e51 a63c
000003d0: 1490 07bc 6d0b 2bbd 5f0f 703d 3457 6abc
000003e0: a2c2 8d3d ef6e fab9 b292 93b8 bd98 183b
000003f0: 5665 a3bb 06c0 553c 7ec4 b1bb f894 58b5

convs.0.pre_nns.2.0.bias f4 [64]
-0.040985607 0.027483031 0.0723543 0.067631446 -0.0055590123 0.062995665 0.061116423 0.029479355
0.01592415 0.068161756 0.030381693 0.016835092 0.07592062 0.08105954 -0.04612032 -0.074208744
-0.05529644 0.037802987 0.0003718307 -0.02580292 -0.04964022 0.013997068 -0.04150857 -0.075226106
-0.04552494 -0.08270882 -0.07730681 -0.05131639 -0.073683545 -0.05512589 0.030972661 0.057666544
0.009452025 -0.08299194 -0.05246796 0.009429618 0.062225774 0.06464907 -0.08086342 0.04657115
-0.050556365 -0.0720963 -0.08764246 0.024483021 -0.0044051767 0.02849217 -0.040370107 -0.043775808
0.0702091 0.070433244 -0.04343873 -0.058933046 -0.020099014 0.038443077 -0.0589171 0.044033445
-0.012863949 -0.06756288 -0.0030796179 -0.023553796 -0.025254086 -0.067001715 0.07114598 0.0032780694
00000000: 86e0 27bd 1824 e13c 7e2e 943d 5b82 8a3d
00000010: 6028 b6bb df03 813d 3755 7a3d b07e f13c
00000020: 5d73 823c 6498 8b3d 07e3 f83c bfe9 893c
00000030: 457c 9b3d 8b02 a63d a9e8 3cbd c1fa 97bd
00000040: 857e 62bd 4ed7 1a3d 46f2 c239 a560 d3bc
00000050: 8b53 4bbd f553 653c e404 2abd 2510 9abd
00000060: 5c78 3abd 3e63 a9bd 0853 9ebd 2331 52bd
00000070: 66e7 96bd afcb 61bd 61ba fd3c c133 6c3d
00000080: abdc 1a3c aef7 a9bd a5e8 56bd af7e 1a3c
00000090: 74e0 7e3d bb66 843d b99b a5bd 64c1 3e3d
000000a0: 3114 4fbd 3aa7 93bd e47d b3bd 9e90 c83c
000000b0: 4d59 90bb 6968 e93c 205b 25bd 434e 33bd
000000c0: cac9 8f3d 4e3f 903d cfec 31bd c763 71bd
000000d0: b0a6 a4bc 7d76 1d3d 0f53 71bd 6a5c 343d
000000e0: 50c3 52bc 685e 8abd 6ad3 49bb e4f3 c0bc
000000f0: a8e1 cebc 3238 89bd fcb4 913d e1d4 563b

convs.0.pre_nns.3.0.weight f4 [64, 128]
0.018458199 0.006442813 0.0013223717 -0.00021427924 0.026055157 -0.04514952 -0.00012891865 -0.05209507
0.0009152502 -0.02185824 0.025694348 0.018040167 2.6956464e-05 -0.008206599 0.00025702544 0.0004764976
-6.228359e-05 0.085324995 0.012816496 -0.00013569398 -0.015781159 0.045247864 -2.5518668e-05 0.05901203
0.030637838 -0.0008790062 -0.06919636 -0.012026523 -0.00018711462 -0.017579867 0.0005407294 -0.048880212
-0.0027306033 -0.01073792 -3.5651952e-05 0.00044383598 0.050439537 -0.05283741 0.012002588 -0.0028094877
-0.00039484107 -0.014608861 2.410261e-07 -0.0005407641 0.00023181105 -0.00046963067 0.061078362 -0.041426864
3.1485855e-05 -0.03978719 -0.031978633 -0.020787193 0.023288382 0.043520674 -0.03358647 0.0005132148
-0.040509105 5.679127e-06 -5.7035886e-05 6.3412605e-05 -0.0040153507 0.013951074 -1.3538531e-05 0.012321646
0.016189521 -0.011148526 -1.5813202e-06 0.00013949111 -0.042585395 0.049569126 -6.5508793e-06 -0.0143203605
0.024207233 -0.05705702 0.035996895 0.002320708 0.006107666 0.0041878913 0.00038127304 -0.00015973327
5.530277e-05 0.019654734 -0.017127207 -0.00052252656 -0.023987232 -0.015015515 -0.009941515 0.008286951
0.046583526 6.469628e-05 0.003223184 -9.109041e-06 0.013047363 0.029560564 0.0023291113 0.006190038
7.763064e-05 0.00015966313 -0.00011995859 0.0001648255 -0.040956505 0.06689101 0.0004844666 -0.020900518
-0.0033689523 -0.00019771526 0.015419956 -0.0017226696 2.1974281e-05 0.00040298913 0.047286518 0.08635819
-0.002177778 0.03516063 -0.016377589 0.027676692 -0.001225992 0.043490816 -0.051147554 0.0013761696
0.00410301 -0.013895377 -0.00022052226 0.00017432873 -0.0114038475 -0.00012787245 2.8955814e-05 -0.00010519439
-0.03783518 -0.05893334 4.2896045e-05 0.00053308625 0.012257305 0.057413336 0.0047417465 -0.013372061
-0.061297487 0.088302135 -0.07647377 0.0084465835 0.0002921673 -4.9086568e-05 -4.5162637e-05 -4.0190098e-05
-0.01181847 0.07679487 0.053321153 1.1035627e-07 -0.0427112 0.064675294 -0.0019935858 -0.009282595
0.07958597 0.011128937 0.060237866 -4.79741e-05 0.0126806125 -0.031355307 0.0155045 0.02636425
0.00020746693 -0.00037648788 -0.00022630095 4.0874962e-05 -0.041326027 0.04436804 0.02339252 0.05393987
0.002362199 -0.004254655 0.0021978586 0.0003172356 0.00053342467 -3.3630138e-06 -0.013011408 -0.01284919
1.5222541e-05 -0.07203846 0.07324975 -0.03555705 0.05802276 0.0054429467 -0.069331795 -0.0003769067
-0.037587274 0.012696431 0.0002621666 0.007076614 0.00020586904 -0.00322631 0.0066561005 -0.0005271682
-0.0759531 0.05446883 -0.00023133805 -3.151333e-05 -0.063915394 -0.048289977 -4.5410798e-07 -0.063734144
0.042855512 -0.07815403 0.07390015 0.0030507215 -0.0002866765 -8.931024e-06 0.0005056986 -0.013756739
1.2082368e-05 -0.021600025 -0.030973703 2.4316054e-05 0.08567379 0.028779844 0.0153639605 0.022104977
0.028127644 -0.00011219413 0.05669436 0.00028961082 0.011788152 0.024212258 -0.00048209867 -0.002810361
-2.1766482e-06 -0.00023213825 -7.699619e-05 -0.001363522 -0.0626659 -0.030248707 0.0016018933 0.049804952
-0.005050442 0.010579483 3.5168941e-06 -0.003443258 -0.0026314429 -0.0005408408 -0.0429616 -0.025072766
0.0060239956 0.0050143213 -0.074427776 0.0156309 -0.052890595 -0.071740724 0.011827293 -0.00013601746
0.02909218 -0.001029519 0.0077372305 0.010258135 -0.0059959725 -0.0022016643 -8.4466565e-06 -0.010792078
00000000: a635 973c 3c1e d33b 6e53 ad3a 25b0 60b9
00000010: a071 d53c b4ee 38bd 562e 07b9 a461 55bd
00000020: 67ed 6f3a 0d10 b3bc f47c d23c f9c8 933c
00000030: 9120 e237 f974 06bc 5fc1 8639 6dd2 f939
00000040: 3f9e 82b8 dfbe ae3d 48fc 513c 1349 0eb9
00000050: 7d47 81bc d355 393d ec10 d6b7 99b6 713d
00000060: 34fc fa3c 1c6d 66ba d2b6 8dbd e50a 45bc
00000070: 3334 44b9 a703 90bc bcbf 0d3a 9e36 48bd
00000080: ecf3 32bb 1aee 2fbc fe88 15b8 a8b2 e839
00000090: b099 4e3d 0a6c 58bd 81a6 443c 621f 38bb
000000a0: ac02 cfb9 015a 6fbc 6066 8134 10c2 0dba
000000b0: 4e12 7339 c338 f6b9 4e2d 7a3d 37af 29bd
000000c0: ae0f 0438 e4f7 22bd 07fc 02bd e749 aabc
000000d0: 47c7 be3c bc42 323d f791 09bd 4389 063a
000000e0: e0ec 25bd 548f be36 d139 6fb8 62fc 8438
000000f0: 3493 83bb 0c93 643c 8c23 63b7 bbe0 493c
00000100: e39f 843c 4fa8 36bc c03d d4b5 5c44 1239
00000110: 066e 2ebd ff08 4b3d a0cf dbb6 f29f 6abc
00000120: 3f4e c63c 9fb4 69bd 7b71 133d 0517 183b
00000130: d122 c83b 943a 893b 9ae5 c739 137e 27b9
00000140: e6f4 6738 f702 a13c 5b4e 8cbc 2afa 08ba
00000150: df80 c4bc a203 76bc bce1 22bc fec5 073c
00000160: 5ece 3e3d 8dad 8738 0e3c 533b 08d3 18b7
00000170: 9bc4 553c ff28 f23c 01a4 183b cdd5 ca3b
00000180: a2cd a238 3f6b 2739 4792 fbb8 02d5 2c39
00000190: 02c2 27bd 27fe 883d 0200 fe39 9037 abbc
000001a0: a4c9 5cbb c951 4fb9 fca3 7c3c 33cb e1ba
000001b0: 6955 b837 4948 d339 82af 413d 90dc b03d
000001c0: 0db9 0ebb 9804 103d 4b2a 86bc 3bba e23c
000001d0: 77b1 a0ba 6d23 323d 1980 51bd 9760 b43a
000001e0: 8b72 863b 6fa9 63bc fe3b 67b9 03cc 3639
000001f0: 34d7 3abc 8015 06b9 23e6 f237 cf9b dcb8
00000200: 10f9 1abd 1664 71bd 47eb 3338 d0be 0b3a
00000210: ddd2 483c 3f2a 6b3d a760 9b3b 7d16 5bbc
00000220: 1313 7bbd c0d7 b43d 489e 9cbd 8a63 0a3c
00000230: 082e 9939 4de2 4db8 036d 3db8 ca91 28b8
00000240: 42a2 41bc a146 9d3d 4867 5a3d 00fd ec33
00000250: f0f1 2ebd 7b74 843d d2a6 02bb 0616 18bc
00000260: f8fd a23d 2556 363c fbbb 763d cc37 49b8
00000270: 58c2 4f3c 6c6e 00bd 9606 7e3c d7f9 d73c
00000280: 7b8b 5939 5963 c5b9 334b 6db9 2871 2b38
00000290: 7b45 29bd 43bb 353d aca1 bf3c 0ef0 5c3d
000002a0: 1fcf 1a3b a26a 8bbb f309 103b a452 a639
000002b0: 86d5 0b3a 23b0 61b6 cd2d 55bc 6985 52bc
000002c0: 5164 7f37 e688 93bd f703 963d 45a4 11bd
000002d0: 46a9 6d3d bf5a b23b d4fd 8dbd 909b c5b9
000002e0: 1df5 19bd b104 503c 6873 8939 f1e2 e73b
000002f0: 8dde 5739 8070 53bb 6b1b da3b a931 0aba
00000300: 4d8d 9bbd b51a 5f3d 5693 72b9 2e2d 04b8
00000310: 13e6 82bd b6cb 45bd 20cc f3b4 0c87 82bd
00000320: 4389 2f3d 380f a0bd f658 973d 9dee 473b
00000330: 124d 96b9 75d6 15b7 dc90 043a f263 61bc
00000340: 60b5 4a37 89f2 b0bc 90bc fdbc 54fa cb37
00000350: bd75 af3d b5c3 eb3c 1fb9 7b3c 7f15 b53c
00000360: f26b e63c c449 ebb8 5838 683d e8d6 9739
00000370: 1823 413c c958 c63c 30c2 fcb9 092e 38bb
00000380: 8812 12b6 236a 73b9 0479 a1b8 35b8 b2ba
00000390: fb56 80bd 23cc f7bc 9ff6 d13a 4700 4c3d
000003a0: 2e7e a5bb 9155 2d3c c803 6c36 49a8 61bb
000003b0: 4974 2cbb 36c7 0dba 81f8 2fbd 6765 cdbc
000003c0: f064 c53b 2d4f a43b 976d 98bd 600c 803c
000003d0: cfa3 58bd cdec 92bd 43c7 413c e99f 0eb9
000003e0: b952 ee3c edf0 86ba 9888 fd3b bd11 283c
000003f0: dd79 c4bb cc49 10bb 1db6 0db7 42d1 30bc

convs.0.pre_nns.3.0.bias f4 [64]
0.009679189 0.0039034728 0.02814524 0.07606071 0.05681001 -0.04737388 0.0043084254 0.037867747
0.015077376 -0.009369756 0.074890345 -0.053061258 0.01053873 0.08338813 -0.056639377 0.018905628
-0.010629875 0.07129719 0.026978156 0.082176626 0.026981138 -0.020128017 -0.026445031 -0.021960795
-0.025408644 0.035335124 0.044332996 0.03653512 0.053732138 -0.08098093 0.0022268207 -0.050784923
-0.04779816 0.047698043 -0.0032196625 -0.058241747 -0.006821449 0.007863532 0.0036582109 -0.06417189
-0.06875297 -0.03933575 0.06216684 0.07595902 0.031502005 0.008725974 -0.017153738 -0.0859806
-0.015884534 -0.071882315 -0.05332461 -0.053879097 -0.007679013 -0.0034978818 0.06672109 0.0074642063
0.041351978 -0.00020491127 0.05253515 0.03721763 0.02705934 0.056359377 0.016112944 0.041349806
00000000: 7695 1e3c 68d1 7f3b d990 e63c b8c5 9b3d
00000010: 9db1 683d 1d0b 42bd b12d 8d3b 361b 1b3d
00000020: 1907 773c 9b83 19bc 1c60 993d c356 59bd
00000030: a3aa 2c3c 65c7 aa3d b1fe 67bd fadf 9a3c
00000040: ed28 2ebc 4304 923d 4b01 dd3c 384c a83d
00000050: 8c07 dd3c 83e3 a4bc 40a3 d8bc 20e7 b3bc
00000060: ca25 d0bc 90bb 103d 8496 353d daa5 153d
00000070: 3b16 5c3d 54d9 a5bd daef 113b da03 50bd
00000080: 01c8 43bd 065f 433d f900 53bb e68e 6ebd
00000090: 7686 dfbb 0bd6 003c 98be 6f3b 8d6c 83bd
000000a0: 5bce 8cbd 861e 21bd a8a2 7e3d 6790 9b3d
000000b0: 3f08 013d 63f7 0e3c ff85 8cbc 9916 b0bd
000000c0: 4820 82bc 0937 93bd e86a 5abd 54b0 5cbd
000000d0: 3ba0 fbbb b83c 65bb 11a5 883d 4d96 f43b
000000e0: b160 293d 73dd 56b9 192f 573d 8371 183d
000000f0: 8dab dd3c 17d9 663d 4bff 833c 6a5e 293d

convs.0.post_nns.0.0.weight f4 [16, 832]
3.945649e-05 -0.00021281828 4.6302875e-07 0.00022402275 -0.00011623891 4.2675354e-05 2.6189598e-05 -6.6747234e-05
9.670816e-05 7.188145e-05 -0.00012287585 3.453208e-05 -4.4548865e-06 -0.00022162234 0.00016246403 -0.00022260594
2.7913571e-05 -0.0001926487 6.3888736e-05 0.00013676172 1.1719398e-05 3.6462257e-05 0.00022828605 -0.0001617708
3.5751465e-05 -1.7066013e-05 -1.0709123e-05 -4.1448875e-05 -5.5794255e-05 -0.00011306345 -0.00012655898 -4.8698284e-06
-3.3028773e-05 -2.2975028e-06 -2.9019018e-05 -1.9413157e-05 -8.975524e-06 0.00021927193 2.137564e-05 9.2593305e-05
-1.7768216e-05 8.308844e-06 -8.9722926e-05 2.0884194e-05 -4.411484e-05 1.5911324e-05 -4.421425e-05 -0.00017522683
7.321182e-05 0.000110367284 8.471578e-05 1.1061646e-05 0.00021786953 -1.3988445e-05 2.5022668e-05 1.2005713e-05
0.0001261568 0.00021697988 0.00022254336 7.7861e-05 -5.9545608e-05 -6.066832e-05 4.7363006e-05 9.1263915e-05
0.03579022 0.008197131 0.012212205 0.03817795 -0.01058554 -0.0026873879 -0.023768421 0.011120767
0.0010324008 -0.002458449 -0.0047113625 -0.007931576 0.023034496 -0.0015899286 0.022573093 0.023682583
-0.0049652024 -0.013963936 -0.010315444 -0.012923436 0.0064983508 -0.008801323 0.0069882893 0.004143561
0.03522724 -0.032547284 -0.02647189 0.019226657 -0.011227866 -0.009595998 -0.015311218 -0.014788951
-0.022566777 -0.002059692 0.032137387 0.03881112 0.008377528 0.010664767 -0.018185673 0.019831318
-0.007247323 0.021399794 0.017373739 0.01701513 0.009155939 0.01721376 -0.034502804 -0.008922594
0.024869895 0.024677346 -0.016871203 -0.013533924 -0.009461446 0.026564008 0.024165522 0.0022955772
-0.02606257 -0.028095579 -0.028586902 0.009967069 -0.0064106993 0.01699065 -0.02581569 0.0003388757
0.013233306 -0.024257882 0.028236018 -0.023290316 -0.0028764084 -0.012454171 0.02998308 -0.029424654
-0.012589605 0.0022387567 -0.012613702 -0.02114147 0.028576773 -0.00081096654 -0.0368141 0.03128667
-0.011868643 0.011706201 0.011271672 -0.0070237024 -0.00063421257 -0.012077167 0.009680615 0.019717008
0.016784027 -0.032686677 -0.0123211425 -0.015324068 -0.024511762 -0.013805324 0.020187983 0.0161799
0.014334227 0.023806738 0.023556098 0.00782503 0.01215241 0.010705969 0.0167455 -0.008607097
0.018585872 -0.004576856 0.0027261316 -0.019047298 0.026918799 0.021726998 -0.03828385 0.021446949
0.006779043 -0.035035133 -0.016553538 0.021661218 -0.002645982 -0.010064253 0.022433802 0.032909337
0.0086121615 -0.0017938585 -0.035132326 -9.664738e-05 -0.021253154 0.01766314 -0.01758983 -0.017669613
-0.007185512 -0.017438084 -0.023096975 0.009205611 0.02873249 0.0042045247 -0.0061435667 0.0015956331
-0.006336374 0.019982012 -0.008228926 -0.0028283747 -0.014729952 -0.023531806 0.019672569 -0.0034262962
-0.033877485 -0.0040766145 -0.016848618 0.002186242 0.009412771 -0.0046089487 -0.036579765 0.0050152163
0.038035557 0.016761012 -0.02793742 0.0011971311 0.028771922 -5.5684355e-05 0.023384867 -0.020538887
-0.008216078 0.033526964 0.005865808 0.038032696 -0.017074145 0.0009837203 0.0022476842 -0.0013602026
0.01290803 -0.009778056 0.018918663 -0.009373991 0.011168444 -0.015142984 -0.01634814 -0.030983536
0.021078847 0.016128734 -0.010821941 0.010049876 0.026447952 0.039052725 -0.038614545 0.0054972144
0.012414828 0.0028757695 0.009205766 -0.034438267 -0.014444748 -0.024772447 0.019004628 0.027723657
00000000: 157e 2538 f927 5fb9 3096 f834 a6e7 6a39
00000010: 4ac5 f3b8 50fe 3238 bcb1 db37 a6fa 8bb8
00000020: cccf ca38 0fbf 9638 3cd8 00b9 8ad6 1038
00000030: 2f7b 95b6 4b63 68b9 1b5b 2a39 546b 69b9
00000040: f027 ea37 be01 4ab9 01fc 8538 b267 0f39
00000050: 6e9e 4437 0def 1838 1260 6f39 05a1 29b9
00000060: d8f3 1538 fc28 8fb7 55ab 33b7 64d9 2db8
00000070: a004 6ab8 7a1c edb8 ebb4 04b9 8267 a3b6
00000080: 6088 0ab8 cc2e 1ab6 de6d f3b7 70d9 a2b7
00000090: 9595 16b7 5cec 6539 d64f b337 a72e c238
000000a0: f40c 95b7 3766 0b37 a129 bcb8 7730 af37
000000b0: f307 39b8 4f79 8537 b072 39b8 18bd 37b9
000000c0: 4c89 9938 fc74 e738 70a9 b138 6895 3937
000000d0: e873 6439 eaaf 6ab7 c5e7 d137 256c 4937
000000e0: f548 0439 1885 6339 875a 6939 4e49 a338
000000f0: 9cc0 79b8 1d76 7eb8 a4a7 4638 f164 bf38
00000100: c498 123d 424d 063c b315 483c 7b60 1c3d
00000110: f96e 2dbc e31e 30bb feb5 c2bc e133 363c
00000120: 9f51 873a ee1d 21bb c661 9abb 71f3 01bc
00000130: d7b2 bc3c 2765 d0ba 35eb b83c fa01 c23c
00000140: 23b3 a2bb fec8 64bc 1c02 29bc d2bc 53bc
00000150: 1ef0 d43b 6d33 10bc 05fe e43b b5c6 873b
00000160: 704a 103d 4d50 05bd 94db d8bc 3981 9d3c
00000170: 15f5 37bc 8838 1dbc e7db 7abc 5b4d 72bc
00000180: f6dd b8bc e6fb 06bb 7ea2 033d 69f8 1e3d
00000190: e641 093c 46bb 2e3c 1ffa 94bc 4a75 a23c
000001a0: f47a edbb 9f4e af3c 5f53 8e3c 5063 8b3c
000001b0: cb02 163c df03 8d3c d052 0dbd 1230 12bc
000001c0: f3bb cb3c 2528 ca3c 7a35 8abc 64bd 5dbc
000001d0: 2e04 1bbc c39c d93c c6f6 c53c 6571 163b
000001e0: 2c81 d5bc b328 e6bc 142f eabc eb4c 233c
000001f0: d810 d2bb fa2f 8b3c 6d7b d3bc 20ab b139
00000200: 82d0 583c 77b8 c6bc 394f e73c 55cb bebc
00000210: 2082 3cbb 940c 4cbc 149f f53c f90b f1bc
00000220: a144 4ebc 1bb8 123b b3a9 4ebc e030 adbc
00000230: d619 ea3c 0b97 54ba 62ca 16bd 7426 003d
00000240: b274 42bc 5ecb 3f3c d2ac 383c 1627 e6bb
00000250: 4941 26ba 4fdf 45bc 719b 1e3c 9085 a13c
00000260: a87e 893c 77e2 05bd 9ede 49bc cd11 7bbc
00000270: e4cc c8bc ba2f 62bc 4561 a53c b68b 843c
00000280: 1bda 6a3c 5906 c33c b8f8 c03c 8e34 003c
00000290: e71a 473c 1768 2f3c dc2d 893c c804 0dbc
000002a0: 6641 983c 73f9 95bb e6a8 323b 1409 9cbc
000002b0: d084 dc3c d1fc b13c 87cf 1cbd 83b1 af3c
000002c0: bc22 de3b 0081 0fbd 499b 87bc de72 b13c
000002d0: 3668 2dbb 89e4 24bc 18c7 b73c f1cb 063d
000002e0: 061a 0d3c e71f ebba eae6 0fbd 2baf cab8
000002f0: 181b aebc 4ab2 903c 8c18 90bc ddbf 90bc
00000300: 7274 ebbb 50da 8ebc de35 bdbc 22d3 163c
00000310: 6660 eb3c 1cc6 893b f94f c9bb 9024 d13a
00000320: 5ca1 cfbb 51b1 a33c 9ed2 06bc 415c 39bb
00000330: e655 71bc c6c5 c0bc 5e28 a13c b68b 60bb
00000340: 1ec3 0abd 1f95 85bb 1d06 8abc 0e47 0f3b
00000350: 0638 1a3c aa06 97bb aad4 15bd af56 a43b
00000360: 2ccb 1b3d 644e 893c 04dd e4bc 0ee9 9c3a
00000370: 18b3 eb3c 9f8e 69b8 9f91 bf3c 2b41 a8bc
00000380: bb9c 06bc 9253 093d f735 c03b 2cc8 1b3d
00000390: 14df 8bbc 2df0 803a e24d 133b d348 b2ba
000003a0: 347c 533c 2434 20bc 50fb 9a3c 5e95 19bc
000003b0: d9fb 363c 471a 78bc 89ec 85bc 2fd1 fdbc
000003c0: 8cad ac3c 6820 843c 834e 31bc 3ca8 243c
000003d0: 60a9 d83c c0f5 1f3d 492a 1ebd fa21 b43b
000003e0: 9067 4b3c 6877 3c3b c8d3 163c 240f 0dbd
000003f0: aaa9 6cbc 96ef cabc 98af 9b3c b91c e33c

convs.0.post_nns.0.0.bias f4 [16]
-0.00014312136 -0.0001343035 1.8517037e-05 -1.8717667e-05 -0.00016454927 -5.1990564e-06 -0.00012509932 4.748942e-05
-2.0944346e-05 2.0626789e-05 -0.00010577756 5.7737043e-06 2.0613737e-05 5.6106226e-05 7.580653e-06 0.00013302732
00000000: d912 16b9 d2d3 0cb9 0955 9b37 e203 9db7
00000010: dc8a 2cb9 8e73 aeb6 182d 03b9 602f 4738
00000020: a4b1 afb7 b107 ad37 e5d4 ddb8 bebb c136
00000030: aaeb ac37 9a53 6b38 505d fe36 407d 0b39

convs.0.post_nns.1.0.weight f4 [16, 832]
-1.6002647e-05 5.351444e-06 -1.8141627e-05 0.00014277834 -6.574187e-05 -5.311534e-05 -9.930629e-06 -4.6847126e-05
-3.200022e-05 2.2975755e-05 -0.00023171351 0.00018037131 -0.00020345818 6.129132e-05 -0.00011368146 -4.5519148e-05
-3.2757598e-06 -0.00014902883 6.6331835e-05 0.00012677193 -8.042545e-05 -1.88079e-05 -2.2819353e-05 -2.0560103e-05
-1.093688e-05 -8.360634e-05 1.0780093e-05 4.5965346e-05 -0.00023043274 -3.915985e-05 8.586436e-05 6.6267e-05
-0.00021048175 -1.3622699e-05 6.495106e-05 -2.1497646e-05 -2.7080918e-05 -8.066429e-06 5.5012682e-05 -0.00020317266
0.00012743374 -5.880756e-05 -0.00018330765 0.00010033164 0.00014671558 -4.731117e-05 -1.888369e-05 -6.597274e-05
0.00023198589 -5.5334636e-05 -0.0002287472 -0.00021535461 -4.9396782e-05 -1.5702997e-05 -0.00011772008 -1.1327824e-05
-9.500002e-05 -6.503524e-05 0.00012914973 -4.4969827e-05 9.130378e-05 1.8487926e-05 -9.758974e-05 1.03288185e-05
-0.0010075241 -0.02309788 0.002929643 -0.03464429 -0.013581477 0.0020427285 -0.023353564 -0.033959568
0.005429838 0.014704188 0.035133984 0.008528488 0.015768558 -0.014179372 0.010805323 0.017330697
0.017791705 0.016960867 0.016948307 -0.02127682 0.005227491 0.021670923 -0.024844646 -0.020758534
-0.0070225387 -0.0039077965 0.0077738133 -0.036991827 -0.0002987457 0.010241516 -0.018741198 0.004497399
-0.00041121375 0.030240458 -0.012011571 0.009647627 0.026955832 0.00561703 -0.015715599 0.019919675
0.01783747 0.0050893677 0.010947142 -0.028970249 -0.012169387 -0.027066803 -0.030263867 -0.015802002
-0.01961756 0.0080625 -0.03244702 -0.01898532 0.020790542 -0.026770117 0.02482523 -0.0026425882
-0.0155556705 -0.0047492 -0.0042076665 0.013709764 4.9388582e-05 -0.033761375 -0.022896009 -0.02852702
-0.020026712 -0.019304762 -0.028252829 0.025439745 -0.023141759 -0.016093628 -0.0071707144 0.0044663297
0.024762718 -0.0067876233 0.00977422 0.015331427 0.027452385 0.02637057 -0.016395725 -0.026542896
-0.0054857684 -0.03449911 -0.023155516 0.0067837164 -0.024361875 0.0150819225 -0.037951883 -0.010911364
0.034681976 0.010403979 -0.0020996996 -0.028034424 -0.016219677 0.0002747069 0.0021670305 0.008693123
-0.02534511 0.010113457 -0.022660814 -0.014478376 0.002800539 -0.04041748 -0.00022453247 -0.007815776
-0.011443642 0.018817024 0.024101876 -0.016629515 -0.026759764 -0.00502816 0.0067928 0.021863703
0.018743686 -0.029541608 -0.0027398248 -0.0025918444 0.028559227 -0.022909796 0.02621772 -0.020089017
-0.038965873 -0.0059665875 0.0027679068 0.005042952 -0.021863557 -0.020252287 -0.023603737 0.007651352
0.014885682 -0.03501277 -0.034148544 -0.019442279 -0.033489384 -0.0043474655 -0.0290255 -0.015324093
0.026409905 -0.035912894 0.018501554 -0.016440155 0.030972755 0.020396302 0.017088896 0.011478045
-0.008010972 0.025249304 0.020902738 0.009847511 0.02748132 0.02002962 -0.037596114 -0.0059479866
0.020639513 -0.020722687 -0.0080376305 -0.009653177 -0.013143532 0.025365945 -0.022577884 -0.011376846
-0.0101193525 -0.01625966 -0.014618883 0.025564184 -0.02655724 -0.029332044 0.013380297 0.0016954427
0.024220861 -3.378057e-05 0.006953423 0.024429245 0.009528515 -0.012605903 -0.0023883411 -0.017551813
0.015892258 0.0159702 -0.03713543 -0.00787689 0.01391584 -0.009090954 -0.0037122054 -0.012511792
0.013681051 -0.007922889 -0.0009850665 -0.015652057 0.009312912 -0.021704476 -0.015532265 -7.764649e-06
00000000: 6c3d 86b7 8e90 b336 d92e 98b7 c5b6 1539
00000010: e6de 89b8 29c8 5eb8 ba9b 26b7 b87d 44b8
00000020: f937 06b8 0fbc c037 1ff8 72b9 0e22 3d39
00000030: 6457 55b9 8789 8038 4568 eeb8 d0eb 3eb8
00000040: 20d5 5bb6 9f44 1cb9 a21b 8b38 15ee 0439
00000050: 16aa a8b8 a8c5 9db7 306c bfb7 7c78 acb7
00000060: 8b7d 37b7 d055 afb8 26dc 3437 eaca 4038
00000070: 51a0 71b9 923f 24b8 1412 b438 d3f8 8a38
00000080: c4b4 5cb9 0c8d 64b7 5636 8838 d855 b4b7
00000090: d42b e3b7 0c55 07b7 6bbd 6638 bf0a 55b9
000000a0: bc9f 0539 23a8 76b8 4636 40b9 2469 d238
000000b0: aad7 1939 fb6f 46b8 6a68 9eb7 d85a 8ab8
000000c0: 3d41 7339 1d17 68b8 dcdb 6fb9 d0d0 61b9
000000d0: 642f 4fb8 eeb9 83b7 7de0 f6b8 a20c 3eb7
000000e0: bf3a c7b8 8763 88b8 5e6c 0739 fc9d 3cb8
000000f0: 587a bf38 8516 9b37 18a9 ccb8 f049 2d37
00000100: e60e 84ba c437 bdbc 41ff 3f3b 2ce7 0dbd
00000110: d884 5ebc 4cdf 053b f94f bfbc 3019 0bbd
00000120: c8ec b13b d6e9 703c a7e8 0f3d 12bb 0b3c
00000130: 102d 813c 9950 68bc cf08 313c 1bf9 8d3c
00000140: e9bf 913c 84f1 8a3c 2dd7 8a3c ba4c aebc
00000150: 5f4b ab3b 3887 b13c 0087 cbbc cd0d aabc
00000160: 531d e6bb f90c 80bb 79bb fe3b be84 17bd
00000170: f8a0 9cb9 08cc 273c 2487 99bc eb5e 933b
00000180: 2d98 d7b9 d6ba f73c 2ecc 44bc 1511 1e3c
00000190: 7ad2 dc3c 100f b83b 00be 80bc 962e a33c
000001a0: e31f 923c b6c4 a63b a45b 333c 0453 edbc
000001b0: 1c62 47bc 33bb ddbc eeeb f7bc 3373 81bc
000001c0: 01b5 a0bc 9318 043c 2be7 04bd 1a87 9bbc
000001d0: ed50 aa3c 014d dbbc 485e cb3c 462f 2dbb
000001e0: 36dd 7ebc 2d9f 9bbb 77e0 89bb eb9e 603c
000001f0: 9626 4f38 5e49 0abd 6990 bbbc 7fb1 e9bc
00000200: 0f0f a4bc 0525 9ebc 7a72 e7bc 0367 d03c
00000210: c993 bdbc c9d6 83bc 50f8 eabb 4a5a 923b
00000220: 2fdb ca3c b66a debb 0d24 203c aa30 7b3c
00000230: d3e3 e03c 1807 d83c 5450 86bc 7d70 d9bc
00000240: f6c1 b3bb f04e 0dbd a3b0 bdbc f049 de3b
00000250: 8e92 c7bc 2b1a 773c 6f73 1bbd 94c5 32bc
00000260: b00e 0e3d 7375 2a3c 1d9b 09bb 73a8 e5bc
00000270: 21df 84bc 8906 9039 bd04 0e3b 9a6d 0e3c
00000280: 8ca0 cfbc eab2 253c 2ca3 b9bc b636 6dbc
00000290: 3f89 373b cd8c 25bd 7a70 6bb9 be0d 00bc
000002a0: 1d7e 3bbc 2926 9a3c 4c71 c53c 9f3a 88bc
000002b0: 4b37 dbbc 43c3 a4bb 2396 de3b 821b b33c
000002c0: 5c8c 993c 3e01 f2bc a28e 33bb efdb 29bb
000002d0: 0af5 e93c 53ad bbbc 8bc6 d63c b991 a4bc
000002e0: ae9a 1fbd 5d83 c3bb c565 353b 593f a53b
000002f0: 341b b3bc 20e8 a5bc a05c c1bc 31b8 fa3b
00000300: 13e3 733c 8d69 0fbd 58df 0bbd 6a45 9fbc
00000310: 2a2c 09bd 2f75 8ebb e3c6 edbc e811 7bbc
00000320: 9659 d83c 6619 13bd 9290 973c 81ad 86bc
00000330: 93ba fd3c 2516 a73c 03fe 8b3c 690e 3c3c
00000340: 7440 03bc a1d7 ce3c 383c ab3c 7457 213c
00000350: 8120 e13c 2815 a43c 62fe 19bd 54e7 c2bb
00000360: 3214 a93c a0c2 a9bc 44b0 03bc 5c28 1ebc
00000370: f857 57bc 3ecc cf3c 41f5 b8bc f365 3abc
00000380: a4cb 25bc fa32 85bc 0a84 6fbc fb6b d13c
00000390: 928e d9bc c149 f0bc 0939 5b3c 9e39 de3a
000003a0: d46a c63c 9caf 0db8 8ad9 e33b d71f c83c
000003b0: 7d1d 1c3c fd88 4ebc b785 1cbb d2c8 8fbc
000003c0: 7b30 823c f0d3 823c 521b 18bd 120e 01bc
000003d0: 43ff 633c 3af2 14bc 7948 73bb 42fe 4cbc
000003e0: 7d26 603c 01cf 01bc 591d 81ba be38 80bc
000003f0: 2f95 183c 96cd b1bc 0b7b 7ebc ea44 02b7

convs.0.post_nns.1.0.bias f4 [16]
-3.537374e-05 -8.772527e-05 -3.019377e-05 -0.00013660442 0.0001591664 4.1783132e-05 7.0776885e-05 1.6079093e-05
-2.6991343e-05 -5.7592446e-05 -0.00022774992 -0.00014293875 2.5257219e-05 0.0002069007 0.00013520918 0.00018626133
00000000: 445e 14b8 25f9 b7b8 a148 fdb7 783d 0fb9
00000010: e8e5 2639 4c40 2f38 0d6e 9438 97e1 8637
00000020: 786b e2b7 6b8f 71b8 27d0 6eb9 d4e1 15b9
00000030: 77df d337 7cf3 5839 f0c6 0d39 254f 4339
