checkpoints/pna_baseline/best_pna_baseline_seed4.pt (torch, 766766 bytes, 50 tensors)

input.weight f4 [64, 1]
0.112625144 0.10460604 -0.7220958 -0.48586786 -0.8902665 -0.82684934 0.94818056 0.73121285
0.14772728 0.87549937 -0.26992375 -0.5537697 0.8267178 -0.040775288 0.1026351 0.49697977
0.50392836 -0.52617437 -0.36159718 -0.8276649 -0.0005074408 -0.2663159 0.20995952 0.038299557
0.8153978 0.014213731 0.44224563 0.29464307 0.85075015 -0.40317202 0.75084805 0.68778664
-0.30639526 0.6051306 0.88066596 -0.47137532 -0.2974352 0.6490082 0.78120905 0.25964275
0.21576692 0.6811734 0.78125024 -0.5380788 -0.31847557 0.76512057 0.51865995 -0.3758059
-0.24740085 0.931302 -0.531975 0.6170874 0.5541385 -0.8637506 -0.90287596 0.30586502
0.4608429 0.8351579 0.11423521 0.66009533 -0.6160054 0.5783299 -0.86804324 0.6346205
00000000: 03a8 e63d b13b d63d 45db 38bf acc3 f8be
00000010: 81e8 63bf 66ac 53bf f6bb 723f c430 3b3f
00000020: d245 173e ba20 603f 7233 8abe dac3 0dbf
00000030: c7a3 533f fd03 27bd 5a32 d23d 2274 fe3e
00000040: 7301 013f 5db3 06bf 4423 b9be d9e1 53bf
00000050: c705 05ba 8f5a 88be a1ff 563e ffdf 1c3d
00000060: e9bd 503f b5e0 683c 056e e23e 75db 963e
00000070: c3ca 593f 906c cebe 9437 403f c912 303f
00000080: d7df 9cbe d7e9 1a3f 5373 613f 1b58 f1be
00000090: 6d49 98be 6725 263f 51fd 473f e5ef 843e
000000a0: 01f2 5c3e 6161 2e3f 0400 483f 88bf 09bf
000000b0: 3b0f a3be f1de 433f e6c6 043f a269 c0be
000000c0: a656 7dbe cf69 6e3f 832f 08bf 71f9 1d3f
000000d0: 05dc 0d3f c21e 5dbf e122 67bf 579a 9c3e
000000e0: 9af3 eb3e e8cc 553f 26f4 e93d 02fc 283f
000000f0: 88b2 1dbf 6e0d 143f 1538 5ebf 7d76 223f

input.bias f4 [64]
0.10248169 0.5687064 0.30233747 -0.59719706 -4.004413e-05 0.045200706 0.1327517 -0.7804264
-0.41143456 -0.42316204 -0.4496299 0.8152535 0.54980797 0.3820721 -0.20861714 -0.716386
0.19949104 0.8575654 0.409474 -0.71238416 -0.015871644 -0.00035559598 0.6137855 0.36800733
-0.66740125 -0.8477924 0.25471887 0.45436156 0.550083 0.6469179 0.7985582 -0.40578166
-0.8773556 0.48473734 0.9190853 -0.63365096 -0.40974277 0.81403685 0.7564977 -0.085792534
-0.4767039 0.15916671 -0.8841055 -0.3023136 -0.047698457 -0.1985019 0.39492404 -0.00013043529
-0.6929708 -0.08563671 0.01877052 0.59948003 0.049692318 -0.25664443 0.2968589 0.42834488
0.17565273 -0.50476 0.24060641 0.13422199 0.46732146 -0.27196681 -0.0031204214 0.5090464
00000000: ece1 d13d be96 113f facb 9a3e e8e1 18bf
00000010: 0ff5 27b8 6024 393d 10f0 073e 06ca 47bf
00000020: 8da7 d2be b2a8 d8be e435 e6be 74b4 503f
00000030: 37c0 0c3f f49e c33e bb9f 55be 1365 37bf
00000040: 6147 4c3e 6889 5b3f 93a6 d13e cf5e 36bf
00000050: 4005 82bc 496f bab9 0c21 1d3f 756b bc3e
00000060: cfda 2abf ec08 59bf 836a 823e 14a2 e83e
00000070: 3dd2 0c3f 699c 253f 4f6e 4c3f 9dc2 cfbe
00000080: 609a 60bf 7e2f f83e 2d49 6b3f f336 22bf
00000090: cec9 d1be b864 503f d5a9 413f ffb3 afbd
000000a0: 8912 f4be 99fc 223e bd54 62bf d9c8 9abe
000000b0: 755f 43bd 1544 4bbe 7c33 ca3e 75c5 08b9
000000c0: 8966 31bf 4d62 afbd a2c4 993c 8677 193f
000000d0: 2c8a 4b3d e666 83be e4fd 973e 0550 db3e
000000e0: 4fde 333e f437 01bf 8761 763e 7d71 093e
000000f0: c244 ef3e 3c3f 8bbe fc7f 4cbb dd50 023f

convs.0.pre_nns.0.0.weight f4 [64, 128]
-0.015722973 0.034749165 -2.7821734e-06 -0.000121073615 -0.0063506216 -0.015572714 0.04703198 -4.0480216e-05
0.0078039235 0.0051326733 -0.00021794827 -0.019115 -0.05934455 0.04492874 8.576858e-06 5.4840453e-05
0.03381358 0.010949928 0.0006537879 -0.008635827 0.00016846691 0.00022420114 -0.02065303 0.05400365
-0.01153032 -0.00013046684 0.017907556 -0.0073376927 0.06255188 0.018499319 0.053675894 0.02703837
-3.9099006e-05 -0.05357391 0.056357007 -7.9644335e-05 -0.0003352531 0.035141632 -0.0630028 0.0090797115
5.7262736e-05 -0.035536535 -0.0066985157 0.00029719152 -4.6122645e-05 0.007703695 0.072325125 -8.559222e-05
-0.00035895116 0.02515853 0.00031855347 0.056556314 0.06006825 0.0004268526 0.00082899194 -0.0017759801
-0.025468081 -0.055512212 0.06475529 -0.06514513 0.00021087249 0.005932994 0.00012518413 0.07139096
0.014320192 0.049431257 -0.00038286415 0.00013802102 0.0032771577 0.00016019463 0.011314814 0.014204954
-0.0102514755 -0.03373933 -0.000118645614 -0.0022196018 -0.041190393 0.06513055 0.00010905252 1.1087958e-05
-0.03193355 -0.052915476 0.0012179029 -0.0002898161 5.8308993e-05 0.00038224115 -0.05501619 0.0027562648
0.017386101 -0.00010375975 -0.00071184954 0.056083202 0.04521315 0.020981899 -0.029481895 0.023018468
0.0020972674 -0.01137346 0.006524521 0.0022529785 0.012162593 -0.057225022 0.02811025 -0.029581703
-5.555501e-06 -0.033427507 0.00020484977 -0.00012806444 0.001248351 0.032518838 0.033924498 -0.0048835045
-0.011646441 0.0059311036 0.00028313266 -0.008590165 0.0017180024 -0.004272519 -8.567111e-05 0.032793883
0.011151885 0.052168347 -0.016923767 0.029868519 0.00045753538 -0.043312218 2.3279352e-05 -0.060646333
-0.006775107 0.05328836 0.0005174374 0.00086899794 2.5066465e-06 0.0008119973 -0.004976812 -0.0007832858
-2.613706e-07 -0.007903087 0.000112395726 0.038752526 0.07532826 -0.07648393 -0.00027261613 -8.209587e-06
-0.05326675 -0.048380513 0.009834381 -2.7990794e-05 -0.0016385505 -0.0055892267 -0.021028837 -0.0085473405
-0.058386475 -0.0008385108 0.03009666 -0.020888299 0.068112575 -0.0028543316 -0.020437984 -0.06251437
-0.0029379083 0.05141059 -0.07044984 -8.537755e-05 -1.9642554e-05 0.063162036 0.065322526 0.021475833
0.0134456195 -0.04833821 -5.205554e-05 -0.00074487564 -0.0017975839 0.0337651 -0.042539034 -0.0017785148
-0.014833172 -0.08005384 1.989631e-05 -0.08941322 0.06427991 0.00019738032 -0.0048924177 -0.064468026
0.056982182 0.02338909 0.0028963955 0.008860912 2.9410812e-05 -0.049975913 -0.001590632 -0.07663677
-0.019359266 0.012118629 -8.606857e-06 -2.5100315e-05 0.009942158 1.1449954e-05 0.069837764 -0.012131745
-0.00018898367 0.040944133 -2.1213156e-05 -0.027067611 -0.066263564 0.040337507 -0.015423468 1.2329747e-06
-0.0045722895 0.00059080264 -0.038571898 -0.0005228671 -0.00012123535 0.00012855671 0.026946167 -0.03610684
-0.03682271 0.014771553 0.06239049 0.033207867 -0.039979145 -0.010660764 -0.081020065 0.0029089446
7.8222234e-05 -0.02628256 -0.053231627 -0.00046025676 2.8647792e-06 -0.015900766 0.036944725 -0.007326652
-0.010416113 0.042083744 0.00037640057 9.860132e-07 -0.0053673997 -0.021070585 -0.06172504 -4.423086e-05
-0.015103481 -0.0663703 -2.7964907e-05 -0.014295242 0.012877318 -0.00020181548 0.00013234215 0.030598229
0.062090013 0.032965805 0.010487509 0.039884232 0.00022756388 0.02625716 -0.006315772 -0.055197246
00000000: 77cd 80bc 2455 0e3d 60b5 3ab6 e7e8 fdb8
00000010: e018 d0bb b224 7fbc 9ba4 403d 4dc9 29b8
00000020: 0eb8 ff3b fc2f a83b 0b89 64b9 0f97 9cbc
00000030: 4513 73bd 3307 383d 53e5 0f37 7d04 6638
00000040: 1c80 0a3d 5467 333c f762 2b3a 497d 0dbc
00000050: 7ea6 3039 8917 6b39 8b30 a9bc ee32 5d3d
00000060: abe9 3cbc edcd 08b9 deb2 923c 0771 f0bb
00000070: 331b 803d e28b 973c 41db 5b3d 927f dd3c
00000080: 3dfe 23b8 5170 5bbd 9bd6 663d ba06 a7b8
00000090: e9c4 afb9 acf0 0f3d 9d07 81bd 12c3 143c
000000a0: 652d 7038 c28e 11bd 397f dbbb 5fd0 9b39
000000b0: d073 41b8 476f fc3b 321f 943d f97f b3b8
000000c0: 9c31 bcb9 4319 ce3c 8603 a739 98a7 673d
000000d0: 200a 763d 30cb df39 b550 593a 01c8 e8ba
000000e0: 70a2 d0bc c660 63bd 6c9e 843d cf6a 85bd
000000f0: a71d 5d39 9069 c23b dc43 0339 6c35 923d
00000100: 3d9f 6a3c 6e78 4a3d 28bb c8b9 bcb9 1039
00000110: 95c5 563b ebf9 2739 c561 393c e5bb 683c
00000120: cef5 27bc 4032 0abd 61d1 f8b8 bd76 11bb
00000130: 42b7 28bd 2a63 853d 20b3 e438 6b06 3a37
00000140: c1cc 02bd e6bd 58bd 0aa2 9f3a 75f2 97b9
00000150: ce90 7438 8a67 c839 a858 61bd 73a2 343b
00000160: 4c6d 8e3c 9799 d9b8 6a9b 3aba 80b7 653d
00000170: 6d31 393d 3be2 ab3c 0484 f1bc 3a91 bc3c
00000180: 4f72 093b c057 3abc a6cb d53b b5a6 133b
00000190: 9d45 473c c964 6abd 7847 e63c 5455 f2bc
000001a0: 6469 bab6 48eb 08bd f1cc 5639 0949 06b9
000001b0: b59f a33a 7932 053d 6af4 0a3d ce05 a0bb
000001c0: b7d0 3ebc b459 c23b 6c71 9439 c3bd 0cbc
000001d0: 982e e13a 7d00 8cbb 54aa b3b8 e152 063d
000001e0: 65b6 363c 7aae 553d b6a3 8abc d3ae f43c
000001f0: 5ce1 ef39 2768 31bd 0748 c337 4a68 78bd
00000200: b701 debb e544 5a3d a3a4 073a 77cd 633a
00000210: dc37 2836 37dc 543a 8614 a3bb 6c55 4dba
00000220: 8052 8cb4 f37b 01bc ffb5 eb38 f8ba 1e3d
00000230: b445 9a3d 9ba3 9cbd ebed 8eb9 e8bb 09b7
00000240: 3c2e 5abd a52a 46bd 6220 213c c6cd eab7
00000250: a2c4 d6ba d525 b7bb ab44 acbc 250a 0cbc
00000260: a826 6fbd 82cf 5bba 458d f63c f01d abbc
00000270: 9b7e 8b3d bd0f 3bbb 8f6d a7bc 8907 80bd
00000280: ec89 40bb e993 523d 0148 90bd b90c b3b8
00000290: 10c6 a4b7 195b 813d d1c7 853d 16ee af3c
000002a0: 044b 5c3c 49fe 45bd 3656 5ab8 c243 43ba
000002b0: e89c ebba 464d 0a3d 693d 2ebd 0e1d e9ba
000002c0: d506 73bc 45f3 a3bd 00e7 a637 471e b7bd
000002d0: 2fa5 833d e0f7 4e39 9350 a0bb d007 84bd
000002e0: 2666 693d 7a9a bf3c 74d1 3d3b 5c2d 113c
000002f0: 3db7 f637 8bb3 4cbd c17c d0ba bdf3 9cbd
00000300: 5397 9ebc 378d 463c 2b66 10b7 848e d2b7
00000310: 6fe4 223c 2e19 4037 1a07 8f3d 3ac4 46bc
00000320: eb29 46b9 09b5 273d e8f2 b1b7 e5bc ddbc
00000330: 31b5 87bd f138 253d b7b2 7cbc b07c a535
00000340: 25d3 95bb 18e0 1a3a 91fd 1dbd 0411 09ba
00000350: bc3f feb8 2ecd 0639 35be dc3c c4e4 13bd
00000360: 69d3 16bd 6204 723c 2c8d 7f3d f904 083d
00000370: 2cc1 23bd 7caa 2ebc d9ed a5bd fea3 3e3b
00000380: 3e0b a438 864e d7bc 6809 5abd 9e4e f1b9
00000390: 8840 4036 5342 82bc 5a53 173d 6914 f0bb
000003a0: 58a8 2abc 0160 2c3d a157 c539 2857 8435
000003b0: 03e1 afbb 389c acbc 65d3 7cbd 8684 39b8
000003c0: 9774 77bc 27ed 87bd 2e96 eab7 9736 6abc
000003d0: 63fb 523c 6e9e 53b9 53c5 0a39 23a9 fa3c
000003e0: 1952 7e3d 2707 073d cdd3 2b3c a65d 233d
000003f0: 379e 6e39 4119 d73c 89f4 cebb 8216 62bd

convs.0.pre_nns.0.0.bias f4 [64]
0.014736787 -0.053022698 -0.06511203 -0.07806981 -0.058616575 -0.041657563 0.009709486 -0.064834215
-0.08130196 -0.061725363 0.051927146 -0.074573174 -2.1445783e-05 0.051333766 0.08084012 0.0020983217
0.04156442 0.061726887 -0.02228252 -0.05398084 -0.023022588 0.03297958 0.058797076 0.06364788
-0.04946843 -0.033401377 0.010120013 -0.0510271 -0.026315032 0.085640945 -0.042794697 0.011845193
-0.06884049 0.054415636 0.06696365 -0.009905858 -0.064059176 -0.0021480515 -0.027273327 0.07596615
0.06427021 -0.053554002 -0.02776788 0.0658652 -0.03742511 -0.00012257138 -0.010655199 0.03318655
0.031725343 -0.0440976 -0.015354004 0.065302305 -0.00079803495 0.081655 -0.016474005 -0.04636328
-0.0052150926 -0.002960295 -0.004352189 0.06655169 -0.07574857 0.05652664 0.018141232 -0.0013920262
00000000: 9172 713c 542e 59bd 7559 85bd 11e3 9fbd
00000010: ef17 70bd 1fa1 2abd 8914 1f3c cdc7 84bd
00000020: a481 a6bd bcd3 7cbd 8fb1 543d d2b9 98bd
00000030: 78e6 b3b7 5b43 523d 818f a53d ff83 093b
00000040: 743f 2a3d 55d5 7c3d d589 b6bc 031b 5dbd
00000050: de99 bcbc 9915 073d 34d5 703d d259 823d
00000060: 699f 4abd e2cf 08bd 69ce 253c cb01 51bd
00000070: 9f92 d7bc 8564 af3d 7e49 2fbd 5712 423c
00000080: 3efc 8cbd eee2 5e3d 3d24 893d 2e4c 22bc
00000090: 7531 83bd 53c6 0cbb 506c dfbc 2494 9b3d
000000a0: 1aa0 833d 715b 5bbd 7779 e3bc 55e4 863d
000000b0: 124b 19bd 8186 00b9 2593 2ebc 9fee 073d
000000c0: 6ff2 013d af9f 34bd 5c8f 7bbc 37bd 853d
000000d0: 3833 51ba bd3a a73d 7ef4 86bc 6ce7 3dbd
000000e0: 5ee3 aabb 8201 42bb cf9c 8ebb 414c 883d
000000f0: 1122 9bbd 7a88 673d ec9c 943c a674 b6ba

convs.0.pre_nns.1.0.weight f4 [64, 128]
0.024563499 0.006915326 1.7892078e-05 0.007719116 -7.873417e-05 0.0011256407 0.025942294 0.008110516
0.006359951 0.021719366 -0.00016023239 0.04014204 -0.038520362 0.049106978 0.00082688173 -2.0906435e-05
0.035934158 -0.020127252 -0.0073121735 4.5873756e-05 3.0862448e-06 0.0039263894 -0.04716218 -0.060819145
0.014517133 4.9659857e-06 0.06181534 0.038170192 -0.05123028 -0.03234027 -0.04256532 0.053833835
-0.00049798924 0.008365291 0.05967473 3.904639e-05 0.00012702217 0.011292426 0.072011374 0.052397463
0.0036199929 0.030378694 -0.00019068284 -3.652631e-05 0.0005224022 -0.051996022 -0.05018281 0.011085672
0.0021010307 -0.069185324 2.602304e-05 0.028822534 0.030356098 -0.012212331 5.990482e-05 -0.07346493
-0.04197181 0.00048178344 0.011953011 -0.050006166 0.00021090776 -0.015825298 -5.9423095e-05 0.045491636
0.04863515 0.074143544 5.0712333e-05 0.014491226 -0.00048780715 -0.0031104526 0.019440774 -1.8547697e-05
-0.0064203893 -0.06440445 0.0005204538 0.031697758 0.045433868 -0.06221249 -0.0041106935 3.394101e-05
-0.04847136 -0.023057431 -0.008529816 -0.000103120496 -0.00041978268 9.279049e-05 0.009047635 -0.06862362
-0.0034306564 4.1558167e-05 -0.076988 -0.0060718344 -0.040177885 0.046172157 0.0036786653 0.0673992
1.3245001e-06 0.019647045 -0.02356346 8.266341e-05 -0.00045108772 0.030606147 -0.0077593257 0.030798754
-0.0002281385 -0.042984165 -1.877644e-05 4.9586597e-06 -0.00021462794 0.046447854 0.07381402 -9.8964054e-05
-0.008982002 0.04497974 3.579531e-06 0.0071007702 -0.005115388 1.2645742e-05 0.00016866859 -0.06846643
0.0014048582 0.01324033 -0.04496169 0.0291929 0.0003881692 -0.039687365 -0.005738296 0.032213375
-0.079154626 -0.06055702 0.009212699 0.0029770732 0.00037231008 0.00939176 -0.019167963 0.008879981
0.009599114 0.029043794 0.0008663746 0.05330583 0.033610594 0.035870463 -0.0012672492 1.1330169e-05
0.063204184 -0.060892176 -0.016209401 0.0032709623 -0.0042197 8.813845e-05 0.025687145 -0.042782184
0.018738909 -0.0012528378 -0.036139112 -0.013588347 -0.08408497 -0.07681191 -0.06553865 -0.033650678
0.00050832244 0.019346302 -0.051427975 1.7579527e-05 0.0063099777 -0.054945372 -0.03240808 -0.067841835
0.0057775863 0.05411564 0.0004253904 0.014428526 8.538873e-07 0.052964333 -0.022307785 -0.004079792
-2.9687422e-05 -0.04610947 -0.011040978 -0.0428269 0.018379295 0.000897643 -0.001526304 0.049687106
-0.0381387 0.013547808 0.07277581 -0.06306982 0.009527459 0.053823538 -0.0020078176 0.036052044
0.039332353 0.010285193 0.00022058256 -2.4323833e-06 0.014234098 5.3770287e-05 -0.004635565 7.829827e-05
7.878448e-05 0.023667417 -3.3228443e-06 0.026040414 -0.08294759 0.012275432 -0.0005202506 -0.0004265616
0.029303389 0.020457745 -0.029786734 -0.00021462445 8.079809e-05 0.0047896155 -0.041765355 -0.008774384
0.05402917 0.0045117214 -0.055038035 0.0017090867 0.05778021 -0.073578864 -0.018618828 -0.0107181445
0.00015011654 -0.054271314 0.04923974 0.0026152926 0.00044347302 0.0018844784 0.07213152 -0.001083844
5.6486875e-05 -0.087462865 0.012818192 0.010283617 1.3425029e-05 0.009967028 -0.071333215 0.0001271607
0.0001388776 -0.08260149 0.0005212443 0.078289896 -0.07121939 -0.009877371 0.00068812905 0.025706416
-0.016207553 -0.021277303 0.055953413 0.0671518 1.3454038e-05 -0.004170488 -0.00012432097 -0.016416388
00000000: 6439 c93c f699 e23b f216 9637 a3f0 fc3b
00000010: 161e a5b8 3c8a 933a ef84 d43c f8e1 043c
00000020: 2367 d03b d0ec b13c 0e04 28b9 fb6b 243d
00000030: 87c7 1dbd 6624 493d 18c3 583a 3a60 afb7
00000040: b22f 133d e8e1 a4bc f59a efbb 9268 4038
00000050: 481d 4f36 f1a8 803b 212d 41bd 7f1d 79bd
00000060: 45d9 6d3c 7ea1 a636 1532 7d3d 5958 1c3d
00000070: d8d6 51bd 3b77 04bd f958 2ebd de80 5c3d
00000080: 7e8b 02ba 930e 093c 7d6d 743d bec5 2338
00000090: 4131 0539 de03 393c b37a 933d b99e 563d
000000a0: 673d 6d3b bddc f83c 09f2 47b9 d433 19b8
000000b0: d1f1 083a c8f9 54bd 7d8c 4dbd aea0 353c
000000c0: 72b1 093b 09b1 8dbd 0e4c da37 3c1d ec3c
000000d0: 5aad f83c 3b16 48bc 5042 7b38 c874 96bd
000000e0: a2ea 2bbd e197 fc39 90d6 433c 44d3 4cbd
000000f0: 1f27 5d39 0ea4 81bc 103d 79b8 7055 3a3d
00000100: a735 473d 92d8 973d f4b3 5438 9b6c 6d3c
00000110: 5ec0 ffb9 bcd8 4bbb 4242 9f3c e096 9bb7
00000120: 2162 d2bb 7be6 83bd 106f 083a 82d5 013d
00000130: dd18 3a3d 86d2 7ebd ffb2 86bb e25b 0e38
00000140: e889 46bd f0e2 bcbc a4c0 0bbc 6542 d8b8
00000150: 4716 dcb9 8498 c238 883c 143c 8a8a 8cbd
00000160: ddd4 60bb be4e 2e38 e2ab 9dbd 3df6 c6bb
00000170: 9191 24bd 041f 3d3d c315 713b 9708 8a3d
00000180: 7ac5 b135 d7f2 a03c 2808 c1bc 955b ad38
00000190: f87f ecb9 beb9 fa3c f141 febb ab4d fc3c
000001a0: 7638 6fb9 2a10 30bd 1982 9db7 9062 a636
000001b0: c00d 61b9 1b40 3e3d ce2b 973d ec8a cfb8
000001c0: 3f29 13bc ad3c 383d e037 7036 94ad e83b
000001d0: fc9e a7bb 0c29 5437 a1dc 3039 2138 8cbd
000001e0: 3823 b83a f8ed 583c c029 38bd f325 ef3c
000001f0: 3083 cb39 388f 22bd 5108 bcbb 2cf2 033d
00000200: d21b a2bd a30a 78bd dcf0 163c 001b 433b
00000210: 9d32 c339 e6df 193c 2206 9dbc 577d 113c
00000220: 9a45 1d3c 40ed ed3c 6a1d 633a 3757 5a3d
00000230: 43ab 093d e8ec 123d d419 a6ba b516 3e37
00000240: 3271 813d 136a 79bd 94c9 84bc a45d 563b
00000250: 6945 8abb f8d6 b838 d96d d23c 5f3c 2fbd
00000260: 5782 993c 4336 a4ba 9b06 14bd a8a1 5ebc
00000270: be34 acbd 904f 9dbd 2139 86bd 4bd5 09bd
00000280: f140 053a 237c 9e3c 24a6 52bd bf77 9337
00000290: eec3 ce3b 660e 61bd 56be 04bd a9f0 8abd
000002a0: e851 bd3b 5da8 5d3d ef06 df39 a065 6c3c
000002b0: b036 6535 21f1 583d d1be b6bc c7af 85bb
000002c0: 4109 f9b7 49dd 3cbd 38e5 34bc 426b 2fbd
000002d0: 2d90 963c cd4f 6b3a 440e c8ba b584 4b3d
000002e0: 5337 1cbd a0f7 5d3c 7c0b 953d c02a 81bd
000002f0: 0f19 1c3c 1276 5c3d 9795 03bb 4fab 133d
00000300: f61a 213d 3a83 283c 2e4c 6739 073c 23b6
00000310: 2236 693c 6887 6138 f0e5 97bb 1034 a438
00000320: 1839 a538 2ce2 c13c 08fe 5eb6 b552 d53c
00000330: 6de0 a9bd e51e 493c 6d61 08ba 21a4 dfb9
00000340: a90d f03c 0097 a73c 4f03 f4bc d00c 61b9
00000350: 2572 a938 35f2 9c3b 2612 2bbd 6fc2 0fbc
00000360: b14d 5d3d 10d7 933b 906f 61bd 6f03 e03a
00000370: f1aa 6c3d 84b0 96bd 8386 98bc 289b 2fbc
00000380: 9a68 1d39 994b 5ebd 9caf 493d 5465 2b3b
00000390: f181 e839 9a00 f73a b1b9 933d c50f 8eba
000003a0: 52ec 6c38 bb1f b3bd 6503 523c 9e7c 283c
000003b0: 0f3c 6137 bf4c 233c 2617 92bd 7156 0539
000003c0: ac9f 1139 f82a a9bd 1da4 083a 7456 a03d
000003d0: 79db 91bd b2d4 21bc 8f63 343a 4396 d23c
000003e0: b4c5 84bc bd4d aebc 682f 653d e286 893d
000003f0: a7b8 6137 97a8 88bb 285c 02b9 a97b 86bc

convs.0.pre_nns.1.0.bias f4 [64]
-0.06090213 -0.045722093 0.030376533 -0.02057005 0.057003587 0.05975164 -0.05953302 0.0125459265
-0.010290787 0.011813467 -0.050965134 -0.08729811 -0.0019710555 0.035626825 0.0057713576 -0.062250525
0.05792744 -0.026044233 -0.029602014 -0.00018191444 0.008071653 0.055993292 0.032237533 0.015273525
-0.051238526 -0.02158578 -0.076071955 0.014592274 -0.04022143 0.032456018 0.017363142 0.073339425
0.058945637 -0.044526186 -0.06757236 -0.021513531 0.031033821 0.05494214 0.04215366 0.07008281
0.070038825 0.064556494 -0.022783123 0.040160034 0.052729078 0.003936539 -0.0020370276 0.05538392
-0.05151459 -0.061904773 -0.016777903 0.0014445997 -0.050399713 0.039661165 0.040916126 0.08834783
0.03423492 -0.06189642 -0.05287569 0.0760824 -0.05440633 0.02653962 -0.036124386 0.01723438
00000000: 8374 79bd 1747 3bbd 35d8 f83c 8682 a8bc
00000010: 987c 693d 23be 743d e5d8 73bd 6e8d 4d3c
00000020: b09a 28bc 468d 413c d1c0 50bd 5ac9 b2bd
00000030: d32c 01bb 6fed 113d a81d bd3b 68fa 7ebd
00000040: 5345 6d3d b75a d5bc ec7f f2bc 49c0 3eb9
00000050: f73e 043c 3959 653d 810b 043d cf3d 7a3c
00000060: 7ddf 51bd a9d4 b0bc 9dcb 9bbd 6f14 6f3c
00000070: 3abf 24bd 9af0 043d 263d 8e3c fb32 963d
00000080: fb70 713d 1761 36bd 6163 8abd 253d b0bc
00000090: a43a fe3c 020b 613d 51a9 2c3d 9487 8f3d
000000a0: 8470 8f3d 3236 843d aca3 babc d97e 243d
000000b0: 72fa 573d 15fe 803b a77f 05bb 40da 623d
000000c0: f600 53bd dc8f 7dbd d071 89bc b958 bd3a
000000d0: ee6f 4ebd bf73 223d ab97 273d b5ef b43d
000000e0: ea39 0c3d 1a87 7dbd 2e94 58bd 17d1 9b3d
000000f0: 2cd9 5ebd 9e69 d93c 2af7 13bd 1d2f 8d3c

convs.0.pre_nns.2.0.weight f4 [64, 128]
0.00095273316 -0.00065714703 -0.00022053786 0.00022396697 2.4886513e-05 -5.15515e-05 -0.059848897 0.00020563413
-0.00015981181 0.06571768 0.0051048766 0.037720073 0.035844468 0.037166383 -0.012260866 -2.8357701e-05
0.004321308 0.066849016 -0.017512847 -0.01465294 8.26031e-05 -0.0033517634 0.05908718 0.022141946
0.03386815 -0.00020619534 -0.050222307 0.03472033 0.06415424 0.024989568 -0.052322417 0.02278402
-0.010477531 -0.06411161 0.06274215 0.015097929 -0.014218832 -0.05587172 0.06278392 0.030624133
0.008314965 0.027955657 0.000112533744 -2.9673449e-05 0.00034955324 0.064580224 -0.010227364 -0.0023110993
0.0010015465 0.061935663 0.011340646 -0.05609678 0.028794495 0.0121081015 -0.009324307 0.05884918
0.014811581 -0.016142301 -0.01744021 -0.0078638485 -0.00043326736 -0.022590645 -0.00021754722 -0.038508344
-0.008503318 0.03998357 0.0030336503 0.0019246278 0.0005028968 5.8491725e-05 -0.010293559 -0.00030554886
-0.0017473113 -0.004561082 -2.307884e-05 -0.026263738 0.023974359 -0.016672092 6.006812e-05 0.00013162762
-0.019671222 0.0030426066 0.0015224259 0.005636873 0.003997934 0.00046200337 0.06845441 -0.027755095
0.007654177 -4.0668074e-06 -0.026477944 0.051351488 0.06594292 -0.032024074 0.08259452 -0.033777148
0.00047563232 -0.054326944 0.0875378 0.00017587657 4.5970746e-06 0.0145342685 -0.022932978 0.031148652
8.437568e-05 0.03647845 -2.2761436e-05 0.007014247 -3.8517202e-05 -0.036794316 0.047767058 2.6661686e-05
0.0001267883 0.031439256 -0.0052229553 0.074513175 0.04304436 -0.00022266964 0.00010958496 0.05833081
-0.030719483 0.00011638769 -0.019274458 -0.013052563 -0.00084245874 -0.030120315 -0.00024861158 -0.035712518
0.056783605 -0.012983445 0.008954656 0.0048412867 1.0648083e-05 -3.7563073e-05 0.067046404 0.00011866287
-0.0015732279 0.038921773 0.0014020138 0.00075126643 0.018305348 0.049675714 -1.0017863e-05 0.015286441
-0.014290558 0.019428387 -0.0037780094 -0.00052091863 -0.013269141 0.0012747493 -0.07172738 0.004654054
-0.03150272 -0.0037994767 0.00211262 -0.019241937 -0.020435695 -0.034426663 0.033798225 0.050756115
-0.00019323653 -0.071066014 -0.022913674 -0.0024480647 1.8436498e-05 0.063839234 0.07821065 0.016382532
-0.0011064621 0.08129233 0.009335909 -0.009563852 0.0003639017 0.0227434 -0.055747587 -0.000823191
-0.000218855 -0.05657216 -0.00026904474 0.008331604 -0.044850815 1.7795635e-05 -2.2014924e-06 0.010271175
0.017575268 0.051991124 -0.009640789 0.013883425 -3.905124e-06 -0.039268102 -0.013627582 -0.0016432509
0.0562604 0.07827771 -0.010559786 0.00017682945 -3.0247916e-06 0.011919469 -0.0607664 0.00017437228
-0.0024413553 0.030600157 2.8114038e-05 0.03023787 0.0069492557 0.063903496 -0.0001692842 -0.0014057421
-0.04497451 -0.042536173 0.011637745 -0.015453345 0.0005228524 0.00091494963 0.041705087 -0.028003255
0.024956139 0.006181269 -0.0592534 0.004305474 -0.010226349 0.026783852 0.07598531 0.040153902
-7.596721e-05 -0.074491695 -0.075907685 7.233515e-05 -0.00019723152 -0.032633107 0.045599096 0.0046796137
-0.009611441 -0.01771475 -0.015383018 -4.483976e-05 0.0055825105 0.0113726305 -0.033923868 0.00013399683
1.6295702e-05 -0.047648307 -0.00042763643 0.009106311 -0.06643848 0.015476354 0.0042013256 0.04126022
-0.023729967 0.0041923737 0.047075566 0.01046188 0.00075341144 0.027723791 0.0012051532 -0.006006228
00000000: d7c0 793a 6444 2cba 2e40 67b9 add8 6a39
00000010: 61c3 d037 0039 58b8 1e24 75bd 7e9f 5739
00000020: 2893 27b9 fe96 863d cf46 a73b 5d80 1a3d
00000030: a6d1 123d c73b 183d cde1 48bc b3e1 edb7
00000040: c299 8d3b 23e8 883d 1a77 8fbc e312 70bc
00000050: 343b ad38 42a9 5bbb 6605 723d 0763 b53c
00000060: 54b9 0a3d 2436 58b9 e8b5 4dbd e836 0e3d
00000070: 4c63 833d ecb6 cc3c 0850 56bd 8ea5 ba3c
00000080: f3a9 2bbc f34c 83bd f57e 803d 4e5d 773c
00000090: 1bf6 68bc bfd9 64bd db94 803d 76df fa3c
000000a0: 7e3b 083c 4303 e53c 1800 ec38 3feb f8b7
000000b0: 3e44 b739 a342 843d ac90 27bc d075 17bb
000000c0: 5346 833a 40b0 7d3d 1ece 393c bdc5 65bd
000000d0: 6fe2 eb3c 0f61 463c fac4 18bc d60b 713d
000000e0: 46ac 723c dc3c 84bc c5de 8ebc 5fd7 00bc
000000f0: 2928 e3b9 0410 b9bc 631d 64b9 edba 1dbd
00000100: 8051 0bbc d0c5 233d 35d0 463b cb43 fc3a
00000110: d5d4 033a 0355 7538 51a6 28bc 1332 a0b9
00000120: 0a06 e5ba 2175 95bb 6e99 c1b7 0d27 d7bc
00000130: e065 c43c e993 88bc a7f1 7b38 8505 0a39
00000140: 8b25 a1bc 7866 473b 238c c73a 85b5 b83b
00000150: 1a01 833b 0b39 f239 d331 8c3d a75e e3bc
00000160: e4cf fa3b 9c75 88b6 46e8 d8bc f055 523d
00000170: 150d 873d ad2b 03bd 5127 a93d e859 0abd
00000180: 4a5e f939 ee85 5ebd 0547 b33d 826b 3839
00000190: 9240 9a36 2421 6e3c f1dd bbbc 752b ff3c
000001a0: d9f2 b038 6d6a 153d d0ef beb7 c5d7 e53b
000001b0: 888d 21b8 a3b5 16bd 64a7 433d 89a7 df37
000001c0: 7af2 0439 73c6 003d 5325 abbb 5d9a 983d
000001d0: 484f 303d 6d7c 69b9 fad0 e538 4aec 6e3d
000001e0: 6da7 fbbc 2a15 f438 78e5 9dbc 6bda 55bc
000001f0: 73d8 5cba e1be f6bc 1558 82b9 4a47 12bd
00000200: ed95 683d 84b8 54bc 8db6 123c a8a3 9e3b
00000210: 2ba5 3237 0b8d 1db8 a04f 893d a5da f838
00000220: c534 ceba 706c 1f3d c7c3 b73a a3f0 443a
00000230: 19f5 953c c378 4b3d 6512 28b7 fb73 7a3c
00000240: f222 6abc 4828 9f3c 7b98 77bb 428e 08ba
00000250: d066 59bc 7d15 a73a cee5 92bd 0981 983b
00000260: ff08 01bd a400 79bb e273 0a3b 44a1 9dbc
00000270: c268 a7bc f902 0dbd 0270 0a3d a5e5 4f3d
00000280: 899f 4ab9 0f8b 91bd 75b5 bbbc b66f 20bb
00000290: 14a8 9a37 25be 823d e82c a03d a934 863c
000002a0: b506 91ba 987c a63d a4f5 183c b4b1 1cbc
000002b0: 0fca be39 5e50 ba3c 9557 64bd 6acb 57ba
000002c0: 717c 65b9 36b8 67bd 930e 8db9 4881 083c
000002d0: 7db5 37bd d647 9537 5abd 13b6 6e48 283c
000002e0: 02fa 8f3c a5f4 543d 66f4 1dbc 4e77 633c
000002f0: c208 83b6 97d7 20bd 3946 5fbc 5a62 d7ba
00000300: 4e71 663d 1050 a03d f402 2dbc 4b6b 3939
00000310: 86fd 4ab6 e049 433c 30e6 78bd b4d7 3639
00000320: 25ff 1fbb 2ead fa3c 70d6 eb37 69b5 f73c
00000330: 95b6 e33b d6df 823d e281 31b9 e140 b8ba
00000340: 3137 38bd 693a 2ebd 3eac 3e3c 0730 7dbc
00000350: 0810 093a 3bd9 6f3a f4d2 2a3d 1567 e5bc
00000360: d170 cc3c 3e8c ca3b b1b3 72bd ef14 8d3b
00000370: 6b8c 27bc cf69 db3c 309e 9b3d 6b78 243d
00000380: 9650 9fb8 1a8f 98bd 7d75 9bbd a3b2 9738
00000390: efcf 4eb9 4baa 05bd 1ec6 3a3d 7257 993b
000003a0: 4e79 1dbc 861e 91bc 0e09 7cbc 5312 3cb8
000003b0: 7eed b63b 4554 3a3c c1f3 0abd 8081 0c39
000003c0: c1b2 8837 df2a 43bd 6434 e0b9 a332 153c
000003d0: e610 88bd 8990 7d3c 46ab 893b 7a00 293d
000003e0: 5965 c2bc 2e60 893b 4fd2 403d 4e68 2b3c
000003f0: 9680 453a 011d e33c 3bf6 9d3a e4cf c4bb

convs.0.pre_nns.2.0.bias f4 [64]
0.041758757 -0.006108945 -0.007035008 0.05756576 -0.004318028 -0.030224683 -0.029505456 -0.06519449
0.035359245 -0.0103470115 -0.07218022 -0.058242515 0.049154673 -0.040009007 0.05300262 -0.043056846
-0.07722155 0.00441313 0.06909546 -0.06356988 -0.050773077 0.06506197 -0.012703788 -0.07021584
-0.028292703 -0.046455357 -0.06000096 -0.053103484 0.030971954 -0.060105633 -0.071956225 0.017462587
-0.010347146 -0.03018032 0.06057454 -0.02060545 0.0636146 -0.062540986 0.021555308 -0.06007504
-0.0018524257 0.018107759 0.059936967 0.07992563 -0.02163589 0.020308735 0.0682741 0.045396358
-0.011918726 -0.0041751214 9.551968e-05 0.04515061 0.007600941 0.06266995 -0.011363611 -0.0122931115
0.053192254 0.024856854 0.00915744 0.0049026897 -0.048213847 -0.006055359 0.06723584 -0.06420308
00000000: 3b0b 2b3d 8b2d c8bb ed85 e6bb 13ca 6b3d
00000010: 3f7e 8dbb c199 f7bc 6db5 f1bc b084 85bd
00000020: dbd4 103d 8386 29bc 39d3 93bd b48f 6ebd
00000030: 6956 493d 7ce0 23bd 4619 593d 605c 30bd
00000040: 5526 9ebd 059c 903b ec81 8d3d ed30 82bd
00000050: 6ef7 4fbd 363f 853d 8c23 50bc 53cd 8fbd
00000060: 19c6 e7bc f947 3ebd 91c3 75bd 0a83 59bd
00000070: e5b8 fd3c 5331 76bd c95d 93bd b30d 8f3c
00000080: 1387 29bc b83c f7bc 021d 783d c3cc a8bc
00000090: 5f48 823d 7d15 80bd c294 b03c 3f11 76bd
000000a0: 18cd f2ba b956 943c 7780 753d 0cb0 a33d
000000b0: c03d b1bc 815e a63c 4bd3 8b3d 88f1 393d
000000c0: c346 43bc 75cf 88bb bd51 c838 d9ef 383d
000000d0: 5111 f93b 1a59 803d 702e 3abc 0c69 49bc
000000e0: 1fe0 593d 9aa0 cb3c 1609 163c bea6 a03b
000000f0: e27b 45bd 086c c6bb f2b2 893d e87c 83bd

convs.0.pre_nns.3.0.weight f4 [64, 128]
0.039272074 0.029579654 -0.011029645 -0.015186338 0.008751855 -0.0154688265 0.0058914716 0.00013135954
-0.013052688 -0.0743311 -0.00012884791 -0.026261637 -0.026966317 -0.066047154 0.008499526 -5.991111e-05
0.050492827 0.020514008 -0.0049746567 0.00076927955 -1.7896342e-05 4.9886738e-05 -0.015706694 0.054797877
0.03694323 0.007707363 0.050979197 -0.08568714 -0.08375351 0.03279916 -0.055249657 -0.010556639
0.014910321 -0.038029358 0.057323787 0.00030579008 -0.002572873 -0.043723624 -0.06474209 0.020995751
-1.8036175e-05 0.044654686 -4.9705337e-05 -0.0034434407 -0.0043460364 0.039814066 0.062249582 3.1536256e-05
-0.00050749915 -0.04539556 -0.0013967279 0.021282706 -0.061314903 -0.003229804 0.011124458 0.054483335
0.047255084 -0.053393204 -0.04184702 0.01734139 -8.142966e-05 -0.016262647 0.00084900495 -0.06487171
0.031039625 0.046616975 0.0028100018 -7.2178773e-06 7.18153e-05 -0.00010923396 -0.04811915 -0.0005080664
-0.009848336 0.05015055 0.0001469604 -0.0009040968 -0.056945555 0.0046164487 -0.00042129096 -1.0480591e-05
0.014572516 0.05205307 -0.016590487 -2.3192184e-05 -0.01050544 0.00074129144 0.0073006186 -0.05452884
-0.049079515 0.00033992383 -0.018920112 -0.06696373 0.06059181 0.026899638 -0.053449493 -0.062955014
-0.00024899858 0.048042223 -0.029469244 -0.012334634 0.00022208199 0.016681047 0.014337714 0.04202705
-0.0004951834 0.033256933 -0.014894768 0.00012486226 0.0017466305 -0.05128406 -0.022664756 7.082355e-06
0.0042133816 0.056265663 5.836205e-05 -0.024601573 0.052151017 0.007948125 -6.872806e-05 0.012960774
0.006714659 -0.0029196849 -0.011592735 -0.045419272 -0.0002365803 0.008985451 -0.00020312166 -0.037304793
0.008914655 0.029899774 -0.0002668837 0.0009890979 0.00022398344 0.014495459 0.0054918923 -0.00035544502
-3.430343e-05 0.029843034 0.0120643675 0.0060523376 -0.06764862 -0.009963883 0.00015477341 -0.007915598
-0.042052235 0.017405892 -0.00016315593 -0.00035942742 4.8728725e-07 -0.00022372478 -0.033519387 0.019647162
0.0072908206 0.0061516063 -0.059655085 0.008905687 0.031834662 0.006498746 0.08117791 0.021348376
-0.007942896 0.0157494 0.08256461 0.0075433757 -0.001599869 -0.059654947 0.08568934 -0.011110621
0.0009464605 -0.01623881 -0.00021461894 0.011762453 -2.1485648e-05 -0.031603735 0.019428719 0.0005222998
-0.00049476326 0.06026789 -0.00012668346 -0.042037442 0.004143412 -0.00013133111 0.010749189 0.041973453
-0.041703388 0.031441778 0.028043242 0.058786582 0.00034350928 0.0010796413 0.00017046838 -0.023334557
-0.0025102517 0.05087345 -0.00081837643 0.0012899628 0.000370005 -0.00012951574 -0.032868885 0.00016698941
-9.915813e-06 0.06107463 1.405154e-05 0.0404667 -0.056469087 0.04846822 0.00034924434 -0.010052699
-0.056814216 0.018964136 -0.0102251265 -0.00022305094 -0.0005012788 -0.00045470695 0.018743282 -0.03600432
0.009424976 -0.00020081481 -0.009909289 -0.012799426 -0.04275897 -0.01042047 0.008963425 -0.0026359458
0.0058747577 -0.01611811 -0.011302314 0.0001341223 3.4254423e-05 -0.02424978 -0.010789892 -0.00073340983
-2.0348118e-05 -0.064704865 0.00020731194 0.00027472022 0.001401742 0.014251655 0.06742545 -0.0019532663
0.000182027 -0.03737299 -2.2137969e-05 0.043232884 -0.007206631 -5.0648196e-05 -0.014278185 0.006685867
-0.05469386 -0.0024433087 -0.012940855 -0.024386901 -0.012052414 0.03529542 -0.004154885 -0.01954834
00000000: c1db 203d 0851 f23c afb5 34bc 1ed0 78bc
00000010: f163 0f3c f670 7dbc 3f0d c13b 8fbd 0939
00000020: f1da 55bc e73a 98bd 591b 07b9 a522 d7bc
00000030: 77e8 dcbc bb43 87bd 9941 0b3c 1149 7bb8
00000040: 91d1 4e3d fe0c a83c 7202 a3bb 7aa9 493a
00000050: 1a20 96b7 7a3d 5138 53ab 80bc bd73 603d
00000060: c951 173d 0c8e fc3b 90cf 503d bd7c afbd
00000070: f686 abbd 6958 063d 774d 62bd c1f5 2cbc
00000080: 6b4a 743c acc4 1bbd 59cc 6a3d 7352 a039
00000090: a59d 28bb 8b17 33bd 8097 84bd 48ff ab3c
000000a0: 644c 97b7 d5e7 363d b37a 50b8 59ab 61bb
000000b0: 3269 8ebb 1314 233d 6bf9 7e3d cc45 0438
000000c0: b109 05ba b2f0 39bd 6912 b7ba 1259 ae3c
000000d0: 5625 7bbd 1fab 53bb 5c43 363c eb29 5f3d
000000e0: 8c8e 413d d5b2 5abd c867 2bbd 880f 8e3c
000000f0: 37c5 aab8 3e39 85bc c28f 5e3a 76db 84bd
00000100: d046 fe3c 71f1 3e3d 0228 383b 1831 f2b6
00000110: 8c9b 9638 8914 e5b8 9618 45bd c22f 05ba
00000120: ea5a 21bc aa6a 4d3d 6219 1a39 e900 6dba
00000130: be3f 69bd 9445 973b b7e0 dcb9 ccd5 2fb7
00000140: 90c1 6e3c 9a35 553d c6e8 87bc d68c c2b7
00000150: 021f 2cbc 3a53 423a 073a ef3b a259 5fbd
00000160: 9a07 49bd ce37 b239 5afe 9abc 4824 89bd
00000170: 1e2f 783d a15c dc3c dbed 5abd 8fee 80bd
00000180: 068c 82b9 ecc7 443d 7c69 f1bc 3417 4abc
00000190: aede 6839 b1a6 883c bbe8 6a3c 8e24 2c3d
000001a0: 32cf 01ba 6c38 083d 2f09 74bc 75ed 0239
000001b0: 32ef e43a 3c0f 52bd 70ab b9bc f7a4 ed36
000001c0: 6810 8a3b d376 663d c6c9 7438 3d89 c9bc
000001d0: 4e9c 553d da38 023c 1922 90b8 6d59 543c
000001e0: a406 dc3b 2f58 3fbb 74ef 3dbc 8f09 3abd
000001f0: 8a12 78b9 b737 133c 0efd 54b9 e9cc 18bd
00000200: c60e 123c 5ff0 f43c 86ec 8bb9 9ea4 813a
00000210: 19dd 6a39 5d7e 6d3c 55f5 b33b 065b bab9
00000220: 07e1 0fb8 6179 f43c a0a9 453c b052 c63b
00000230: 5c8b 8abd 8e3f 23bc ac4a 2239 6db0 01bc
00000240: f73e 2cbd cd96 8e3c d614 2bb9 8871 bcb9
00000250: 20ce 0235 aa97 6ab9 a04b 09bd 16f3 a03c
00000260: d6e7 ee3b 6a93 c93b e458 74bd 29e9 113c
00000270: 1065 023d 6ff3 d43b 9b40 a63d cae2 ae3c
00000280: ec22 02bc e304 813c a217 a93d 6c2e f73b
00000290: b2b2 d1ba bf58 74bd e57d af3d 5209 36bc
000002a0: e41b 783a 4107 85bc 550b 61b9 4eb7 403c
000002b0: 143c b4b7 eb72 01bd fa28 9f3c f2ea 083a
000002c0: 00b3 01ba 77db 763d 55d6 04b9 742f 2cbd
000002d0: 76c5 873b edb5 09b9 5e1d 303c 5bec 2b3d
000002e0: 2cd1 2abd 18c9 003d f1ba e53c 33ca 703d
000002f0: 0919 b439 c082 8d3a c2bf 3239 1d28 bfbc
00000300: 0983 24bb ae60 503d 5088 56ba f813 a93a
00000310: 3bfd c139 9ece 07b9 86a1 06bd e119 2f39
00000320: 185c 26b7 6429 7a3d e8be 6b37 69c0 253d
00000330: 214c 67bd 9d86 463d c81a b739 13b4 24bc
00000340: 06b6 68bd ad5a 9b3c 4a87 27bc c8e2 69b9
00000350: 4068 03ba bc65 eeb9 838b 993c 4479 13bd
00000360: 376b 1a3c d191 52b9 925a 22bc afb4 51bc
00000370: 0824 2fbd 9eba 2abc 54db 123c d5bf 2cbb
00000380: 0a81 c03b 200a 84bc 572d 39bc 2ea3 0c39
00000390: 68ac 0f38 7aa7 c6bc 16c8 30bc 4d42 40ba
000003a0: 40b1 aab7 fc83 84bd e061 5939 5308 9039
000003b0: a8ba b73a c67f 693c 5b16 8a3d 5f02 00bb
000003c0: 80de 3e39 6c14 19bd edb4 b9b7 f714 313d
000003d0: 9a25 ecbb 166f 54b8 0cef 69bc 1e15 db3b
000003e0: ab06 60bd eb1f 20bb e105 54bc 0ac7 c7bc
000003f0: 7d77 45bc ee91 103d b425 88bb d723 a0bc

convs.0.pre_nns.3.0.bias f4 [64]
0.06756515 0.009962205 0.05124421 -0.075253986 0.008498525 0.06310849 0.05093468 0.035042547
-0.073210284 0.067796595 -0.050907172 0.007520956 0.023269134 -0.05244681 -0.018320141 0.03975491
-0.00065995654 0.06750683 0.037988137 -0.04269298 -0.03320706 -0.048103902 -0.0015359923 0.03493725
0.070428304 0.012876442 -0.08126698 -0.07073499 -0.030290123 0.044372287 0.029929256 0.0050607244
-0.0066681565 -0.02992616 -0.043959077 -0.044867825 0.04673444 0.008009115 -0.015011474 0.05945946
0.04599884 0.05165775 0.0014426721 -0.048132647 -0.017202571 0.05436469 -0.02049922 -0.07180562
0.048930395 -0.0029658214 0.073462114 0.03358673 -0.063894965 0.010212161 0.06473893 -0.07576546
0.049543694 -0.07380544 0.051421117 -0.06158695 0.057054162 0.0063155 -0.073353186 0.05239504
00000000: 995f 8a3d 8438 233c 73e5 513d c31e 9abd
00000010: 663d 0b3c 063f 813d e2a0 503d c688 0f3d
00000020: 46ef 95bd f1d8 8a3d 0a84 50bd 5a72 f63b
00000030: e99e be3c 77d2 56bd 1f14 96bc 0bd6 223d
00000040: ef00 2dba 0541 8a3d 7399 1b3d d6de 2ebd
00000050: 2004 08bd 9908 45bd 5953 c9ba 5d1a 0f3d
00000060: b73c 903d b6f7 523c 4d6f a6bd 82dd 90bd
00000070: fe22 f8bc b7bf 353d 332e f53c 6fd4 a53b
00000080: 8d80 dabb b527 f5bc 6f0e 34bd 53c7 37bd
00000090: 9d6c 3f3d aa38 033c aff2 75bc c38b 733d
000000a0: 4869 3c3d 1497 533d 0b18 bd3a bd26 45bd
000000b0: 68ec 8cbc 82ad 5e3d fbed a7bc d30e 93bd
000000c0: 3d6b 483d 3a5e 42bb 4e73 963d 3d92 093d
000000d0: 5ddb 82bd e850 273c d895 843d ec2a 9bbd
000000e0: 54ee 4a3d 4e27 97bd f39e 523d 9942 7cbd
000000f0: a0b1 693d 41f2 ce3b 323a 96bd 2e9c 563d

convs.0.post_nns.0.0.weight f4 [16, 832]
-0.00019162601 -3.4248984e-05 -6.370192e-07 -1.3746685e-06 2.9161597e-06 -0.00021452493 -1.12175985e-05 -5.6481855e-05
-7.886211e-05 -2.0155905e-05 -9.579785e-05 -7.08942e-05 -0.00022776383 -5.6960682e-05 -5.8299634e-06 -8.843331e-05
-0.00012330982 4.7295493e-05 -0.00022281913 2.1789296e-05 -9.1614755e-05 -7.4381875e-05 0.00015345906 -0.00017365115
0.00018206445 0.00020467323 -0.00014343415 -4.5715817e-05 0.000117905394 -1.6642703e-06 1.8498453e-05 6.443031e-05
-6.4835524e-07 -7.434579e-06 3.7387254e-06 1.147852e-05 -1.6680902e-05 5.828674e-05 0.00021714848 -4.4657454e-06
0.00021576714 0.0001884237 0.000214077 -0.00019504783 0.00021072385 -1.4434237e-05 1.8966843e-05 5.9924292e-05
1.2322389e-05 1.3193101e-05 -7.934017e-05 -1.9710838e-05 -8.520755e-05 -0.00017074445 -0.00014479416 -7.429894e-06
0.00021369716 0.00020994701 -7.514676e-05 0.00013682825 -5.225549e-06 -3.8043676e-05 8.412726e-05 2.6994644e-06
0.0028477968 -0.037047982 0.0014648577 -0.02496492 0.0031667333 0.027381258 -0.025829287 0.0072213216
3.5615576e-06 -0.029950293 -0.0040959623 -0.040342193 0.00912648 0.007973725 0.00392582 0.03402849
-0.0039360374 -0.0046209483 0.03462841 0.005220518 0.0068663857 0.022744656 -0.008189848 0.036917537
-0.028468277 -0.012114693 -0.030254785 -0.0030689032 0.009785485 0.03978731 -0.0145067265 -0.009071878
-0.010954289 0.0042901393 0.02920886 -0.03300211 0.017093113 -0.018806603 0.0044467687 -0.008533867
-0.007570365 0.017786654 0.006559682 -0.00037435998 -0.037809536 0.0055030524 0.021985827 0.004348024
-0.033929612 -0.02948332 0.041462783 0.030063188 -0.033848245 0.020859497 0.014609622 -0.029975712
-0.023898691 0.016528485 0.00021674321 -0.02068911 -0.026110118 0.008149412 0.021490417 0.024632078
0.0064470866 -0.011899065 0.016770585 0.029230414 -0.03067777 0.036817748 -0.011744139 -0.006922554
0.015978042 -0.01987013 0.003757329 0.0065865554 -0.0111173345 0.016819078 -0.012694098 0.009321301
-0.018323367 -0.005333942 0.008196791 -0.027619757 -0.008446046 0.02981816 -0.007694756 0.0123102795
-0.018779192 -0.020750513 0.023040788 0.022011911 -0.034254983 0.017602868 -0.020496253 -0.028186506
-0.035935633 -0.0038865267 0.0077917064 0.00160944 -0.035618838 0.017000983 -0.016028864 -0.032579813
0.004033014 0.030514996 0.0026707083 -0.022996556 -0.033256084 0.0063167596 -0.018005667 0.0024297077
-0.03190125 0.024103083 -0.02008458 0.030052645 -0.016184328 0.026654068 0.024665674 0.014218154
-0.0097418055 0.0073839203 0.006626815 6.393113e-05 0.0048615457 0.012820323 -0.038769584 0.005454816
-0.0046656434 -0.0017161362 -0.014423874 0.014153069 -0.015334641 -0.015778141 -0.005238411 -0.03943208
-0.027540669 0.018262932 0.014401745 0.004309758 -0.026638435 0.011138241 -0.03535545 0.02861768
0.0049368707 0.014628308 -0.0043058577 0.016757088 0.025824444 0.026976107 0.0016362948 0.029969519
0.005097423 -0.023158362 0.00397356 0.0040880707 -0.010832137 -0.0060759066 -0.006287531 -0.0042912294
-0.009066042 0.028223231 -0.014267991 -0.029244253 0.01925354 0.004834758 0.012997455 0.016060483
0.032904204 -0.012625334 -0.0071733603 -0.031144775 -0.0021152718 0.0057230005 0.003470116 -0.015127289
-0.00479547 -0.019618616 -0.01961311 -0.009550588 -0.017710902 0.035751525 0.01591961 0.018384807
0.03551651 -0.00025070348 -0.0062056263 0.024061196 -0.04095688 0.0045112907 0.00347868 0.010192824
00000000: 37ef 48b9 91a6 0fb8 a0ff 2ab5 4081 b8b5
00000010: 3eb3 4336 19f2 60b9 3833 3cb7 eee6 6cb8
00000020: c662 a5b8 7a14 a9b7 14e7 c8b8 09ad 94b8
00000030: e3d3 6eb9 11e9 6eb8 019f c3b6 4675 b9b8
00000040: ba4c 01b9 265f 4638 8ea4 69b9 28c8 b637
00000050: 4c21 c0b8 77fd 9bb8 dae9 2039 2016 36b9
00000060: 8ee8 3e39 8d9d 5639 d066 16b9 fcbe 3fb8
00000070: fa43 f738 e45f dfb5 202d 9b37 c21e 8738
00000080: a20a 2eb5 8c76 f9b6 d0e6 7a36 de93 4037
00000090: f7ed 8bb7 e978 7438 5ab2 6339 76d8 95b6
000000a0: 8d3f 6239 9a93 4539 db79 6039 c185 4cb9
000000b0: c1f5 5c39 932a 72b7 fc1a 9f37 3857 7b38
000000c0: 42bc 4e37 f057 5d37 6e63 a6b8 b458 a5b7
000000d0: 74b1 b2b8 dd09 33b9 e3d3 17b9 4e4e f9b6
000000e0: e513 6039 3925 5c39 1c98 9db8 8e79 0f39
000000f0: 2057 afb6 1691 1fb8 7b6d b038 7228 3536
00000100: 1aa2 3a3b a0bf 17bd 7800 c03a 3b83 ccbc
00000110: f888 4f3b a94e e03c f197 d3bc d6a0 ec3b
00000120: 1803 6f36 515a f5bc 6c37 86bb db3d 25bd
00000130: 3b87 153c 3aa4 023c 2aa4 803b 7561 0b3d
00000140: e0f9 80bb 536b 97bb 85d6 0d3d e110 ab3b
00000150: 6bff e03b 0053 ba3c b62e 06bc d836 173d
00000160: 4e36 e9bc b57c 46bc e2d8 f7bc a71f 49bb
00000170: 4d53 203c 05f8 223d 9fad 6dbc 37a2 14bc
00000180: 9e79 33bc 4c94 8c3b 6b47 ef3c 382d 07bd
00000190: db06 8c3c 4e10 9abc 33b6 913b a2d1 0bbc
000001a0: d310 f8bb 51b5 913c 9af2 d63b bf45 c4b9
000001b0: 2cde 1abd f352 b43b 9f1b b43c de79 8e3b
000001c0: c7f9 0abd 0187 f1bc e1d4 293d 1347 f63c
000001d0: 75a4 0abd 89e1 aa3c 325d 6f3c a08f f5bc
000001e0: 30c7 c3bc bf66 873c 9045 6339 357c a9bc
000001f0: e3e4 d5bc 1d85 053c ac0c b03c 36c9 c93c
00000200: 1542 d33b 4cf4 42bc 7762 893c 9f74 ef3c
00000210: f24f fbbc 35ce 163d 7d6a 40bc 98d6 e2bb
00000220: 62e4 823c afc6 a2bc 853d 763b 08d4 d73b
00000230: 7b25 36bc 2ac8 893c e8fa 4fbc 5fb8 183c
00000240: e31a 96bc 59c8 aebb d54b 063c d442 e2bc
00000250: 4961 0abc 3745 f43c 4b24 fcbb 0eb1 493c
00000260: d2d6 99bc fbfc a9bc 09c0 bc3c 5352 b43c
00000270: f44e 0cbd e433 903c c2e7 a7bc 63e7 e6bc
00000280: 3e31 13bd 19b5 7ebb 9251 ff3b d8f3 d23a
00000290: 0fe5 11bd a545 8b3c f74e 83bc 6972 05bd
000002a0: 6027 843b 96fa f93c 0d07 2f3b 4663 bcbc
000002b0: 8837 08bd d2fc ce3b 9f80 93bc bb3b 1f3b
000002c0: e3aa 02bd d473 c53c 6b88 a4bc f730 f63c
000002d0: ff94 84bc a259 da3c ab0f ca3c 43f3 683c
000002e0: 189c 1fbc d0f4 f13b c125 d93b c412 8638
000002f0: 9a4d 9f3b 550c 523c dbcc 1ebd 50be b23b
00000300: 41e2 98bb faef e0ba 1d52 6cbc 46e2 673c
00000310: 253e 7bbc 2941 81bc faa6 abbb 8883 21bd
00000320: f89c e1bc 259c 953c 4cf5 6b3c df38 8d3b
00000330: d938 dabc 2b7d 363c e0d0 10bd a06f ea3c
00000340: 79c5 a13b 92ab 6f3c 2718 8dbb 2946 893c
00000350: c98d d33c fffc dc3c f178 d63a a382 f53c
00000360: 4908 a73b 9bb6 bdbc a334 823b 39f5 853b
00000370: 4779 31bc 6618 c7bb a207 cebb 719d 8cbb
00000380: bc89 14bc 6834 e73c 4bc4 69bc a591 efbc
00000390: 9ab9 9d3c e46c 9e3b 47f3 543c 4691 833c
000003a0: 8fc6 063d 7dda 4ebc 820e ebbb 5423 ffbc
000003b0: 5fa0 0abb 0288 bb3b e36a 633b 73d8 77bc
000003c0: 5123 9dbb 38b7 a0bc acab a0bc 127a 1cbc
000003d0: 7416 91bc 3170 123d d869 823c bc9b 963c
000003e0: c379 113d da70 83b9 9158 cbbb fc1b c53c
000003f0: 67c2 27bd 73d3 933b 91fa 633b cdff 263c

convs.0.post_nns.0.0.bias f4 [16]
7.76215e-05 -2.1301263e-05 0.00021327725 -3.3608749e-06 -0.00012704467 -0.00014623103 -0.00012216256 -4.3443652e-07
-0.00020381415 -0.000109859495 -7.188201e-05 0.00017290429 2.6193853e-05 -3.3741035e-06 0.00020152774 2.2283988e-05
00000000: bac8 a238 1db0 b2b7 2da3 5f39 648b 61b6
00000010: 4b37 05b9 9855 19b9 c318 00b9 803c e9b4
00000020: f2b6 55b9 5e64 e6b8 5cbf 96b8 a44d 3539
00000030: dfba db37 a86e 62b6 3151 5339 80ee ba37

convs.0.post_nns.1.0.weight f4 [16, 832]
7.787428e-05 6.61137e-05 -1.2266096e-05 6.8612244e-05 1.5293492e-05 -0.00019897151 -8.939405e-07 -0.00010591424
2.895933e-06 -2.624597e-05 0.00013576515 -1.2637643e-05 0.00018157739 6.720122e-05 0.00018292751 6.47296e-05
-8.543491e-05 0.00019578487 -1.6914846e-06 0.00022369098 0.00021430664 4.96045e-05 5.6661665e-05 0.0001165907
2.53855e-05 5.679929e-05 -7.70108e-05 -0.00011702687 -5.1985444e-07 0.00021402678 -2.8056409e-05 9.3208204e-05
2.671009e-05 0.00013723545 -8.757484e-05 4.5210425e-05 2.1072658e-05 4.589374e-06 4.137005e-05 -3.4940847e-05
-3.4261495e-05 -0.00022716439 4.5245044e-05 -2.3560717e-06 1.914201e-05 8.8916284e-05 7.509816e-06 0.00010529105
3.9207578e-05 -8.108128e-05 2.4394432e-05 2.2371561e-05 8.648422e-05 -0.00011745368 -1.5737476e-05 -4.457266e-05
0.0001979622 2.2500984e-05 -8.775187e-05 6.4171436e-05 0.000168879 -4.9907114e-05 -9.810612e-05 1.6578744e-05
0.009468288 -0.03237365 0.011032257 0.008830946 -0.013708199 0.0010584778 0.031020757 -0.01919294
0.019889506 0.0049693715 0.024053495 0.016699916 0.01329925 -0.015842369 0.01773048 -0.0084836455
-0.0135267535 -0.037551664 -0.02368912 0.013847566 -0.018347947 5.664625e-05 -0.0044090184 0.00962446
-0.019131625 -0.006265591 0.025110777 -0.02319355 0.018815007 -0.021067554 0.0057262643 -0.018362781
0.010046336 -0.004168363 -0.011882871 0.024353646 -0.008379173 0.036214314 0.009933717 0.020956624
0.0049635777 0.027409593 -0.010707098 -0.035720523 -0.03785505 -0.025545618 -0.006693116 0.027847802
0.011424885 -0.01173851 -0.02025956 0.034214254 -0.025506876 0.038282305 0.026403993 0.015137875
0.03313627 -0.035051163 0.036379214 0.012767743 -0.01880045 -0.031519685 -0.021226913 0.004461592
0.021681573 -0.03560445 0.006084938 -0.023052089 0.035678495 -0.02304436 0.016710212 0.0070228083
-0.03894698 -0.003288445 0.013000759 0.020964868 -0.010603019 -0.002824941 0.0021633198 -0.005219878
-0.013231477 0.00064235035 -0.012480866 -0.005409742 0.012380753 0.004507652 0.013018964 -0.017882235
0.009184841 -0.027658148 -0.024601145 0.018766213 -0.017461777 -0.004504946 -0.0027091897 -0.007895082
0.0069083218 0.0081033865 7.313847e-05 0.0053301393 0.013945688 0.01028354 -0.014687263 -0.010987774
-0.022253066 -0.0031794282 -0.02231331 0.015622817 0.009684896 0.025521513 -0.025694486 -0.0099447975
0.024586264 0.017827438 -0.035862483 -0.011649562 0.0060784337 0.015903598 0.039235786 0.020862857
-0.012604604 0.013012019 -0.02521201 0.002557253 0.009669285 -0.0054505025 0.008058546 -0.012857844
-0.020329546 -0.025717571 -0.022682404 -0.02938981 -0.008820438 0.0032217768 0.03410912 0.0045642057
-0.024262503 0.025348103 0.036216788 0.00027280606 0.026404412 0.020128047 0.017804062 0.026390348
0.006807972 0.017110065 -0.027132837 0.02921914 0.013169919 -0.0043643764 -0.0039614495 0.03012494
-0.039390445 0.0030624582 -0.009299901 -0.04024048 0.022057638 -0.021179056 -0.015886405 0.029437887
-0.011584245 -0.023496976 0.01588442 -0.03987332 0.01618489 -0.018082408 0.027919255 -0.03446923
-0.023180518 -0.018635523 0.011730203 -0.038041662 -0.033724293 -0.018674312 -0.024549516 0.025189364
0.0375434 -0.004969505 -0.032582518 0.020766323 -0.0108332895 -0.0077876365 -0.012186152 -0.026757266
-0.008121659 0.019798703 0.01460514 -0.012624786 0.0036261957 0.0006268378 -0.024517298 0.02742517
00000000: 7050 a338 86a6 8a38 7bca 4db7 ebe3 8f38
00000010: 864a 8037 02a3 50b9 20f7 6fb5 461e deb8
00000020: c057 4236 cb2a dcb7 2e5c 0e39 4306 54b7
00000030: cf65 3e39 61ee 8c38 3bd0 3f39 70bf 8738
00000040: 852b b3b8 9a4b 4d39 f806 e3b5 978e 6a39
00000050: 80b7 6039 6d0e 5038 00a8 6d38 2882 f438
00000060: f2f2 d437 c63b 6e38 dc80 a1b8 536c f5b8
00000070: 208c 0bb5 606c 6039 ae5a ebb7 c678 c338
00000080: 7b0f e037 dce6 0f39 62a8 b7b8 53a0 3d38
00000090: 30c5 b037 6cfe 9936 c184 2d38 738d 12b8
000000a0: 00b4 0fb8 fa32 6eb9 7fc5 3d38 011d 1eb6
000000b0: 2793 a037 9178 ba38 d4fc fb36 b4cf dc38
000000c0: d172 2438 2e0a aab8 a5a2 cc37 90aa bb37
000000d0: dd5e b538 7751 f6b8 f903 84b7 87f3 3ab8
000000e0: 1394 4f39 7fc0 bc37 6d07 b8b8 c793 8638
000000f0: 1d15 3139 5b53 51b8 52be cdb8 9512 8b37
00000100: e120 1b3c 3c9a 04bd a4c0 343c acaf 103c
00000110: 5b98 60bc 9fbc 8a3a 3e1f fe3c 833a 9dbc
00000120: 51ef a23c 1cd6 a23b d60b c53c 43ce 883c
00000130: 19e5 593c dbc7 81bc 833f 913c fdfe 0abc
00000140: 519f 5dbc c6cf 19bd af0f c2bc e7e0 623c
00000150: 6f4e 96bc 7397 6d38 8779 90bb e9af 1d3c
00000160: edb9 9cbc 964f cdbb 1eb5 cd3c 6600 bebc
00000170: ee21 9a3c dd95 acbc 63a3 bb3b 8b6d 96bc
00000180: 6399 243c c396 88bb 60b0 42bc 4c81 c73c
00000190: cd48 09bc 7655 143d 07c1 223c 3aad ab3c
000001a0: 82a5 a23b 158a e03c d36c 2fbc af4f 12bd
000001b0: e60d 1bbd 0b45 d1bc ed51 dbbb 1321 e43c
000001c0: 712f 3b3c e152 40bc 60f7 a5bc 3f24 0c3d
000001d0: ccf3 d0bc e8cd 1c3d 304d d83c da04 783c
000001e0: e6b9 073d cf91 0fbd 5f02 153d cc2f 513c
000001f0: 6703 9abc c91a 01bd 10e4 adbc 8c32 923b
00000200: 8e9d b13c f9d5 11bd 2964 c73b bcd7 bcbc
00000210: 9d23 123d 87c7 bcbc dbe3 883c 961f e63b
00000220: de86 1fbd f482 57bb 2301 553c 84be ab3c
00000230: 49b8 2dbc a522 39bb 7cc6 0d3b 830b abbb
00000240: d6c8 58bc 6763 283a 8c7c 4cbc 3444 b1bb
00000250: a4d8 4a3c edb4 933b 7e4d 553c c47d 92bc
00000260: 047c 163c 5793 e2bc 5788 c9bc 9abb 993c
00000270: 000c 8fbc 3a9e 93bb a98c 31bb 605a 01bc
00000280: 345f e23b 11c4 043c eb61 9938 73a8 ae3b
00000290: 747c 643c 4b7c 283c d9a2 70bc 1006 34bc
000002a0: 104c b6bc f45d 50bb 67ca b6bc d8f6 7f3c
000002b0: 66ad 1e3c 7e12 d13c 3e7d d2bc 81ef 22bc
000002c0: 2269 c93c d90a 923c 8ae4 12bd cedd 3ebc
000002d0: 992d c73b 4348 823c b4b5 203d 95e8 aa3c
000002e0: 8a83 4ebc 5d30 553c 6b89 cebc 9697 273b
000002f0: ec6b 1e3c 219a b2bb fe07 043c b5a9 52bc
00000300: 268a a6bc a8ad d2bc 73d0 b9bc e6c2 f0bc
00000310: 9983 10bc 7224 533b 01b6 0b3d 558f 953b
00000320: 28c2 c6bc d3a6 cf3c 0e58 143d 6907 8f39
00000330: 114e d83c 93e3 a43c d3d9 913c 9230 d83c
00000340: 6915 df3b 682a 8c3c af45 debc fa5c ef3c
00000350: a5c6 573c 0b03 8fbb 0ccf 81bb 94c8 f63c
00000360: e057 21bd 86b3 483b 9d5e 18bc 34d3 24bd
00000370: 38b2 b43c b37f adbc 3524 82bc b927 f13c
00000380: d8cb 3dbc bb7c c0bc 0b20 823c 3552 23bd
00000390: 2d96 843c 8f21 94bc ecb6 e43c 9b2f 0dbd
000003a0: 12e5 bdbc 86a9 98bc 0a30 403c 93d1 1bbd
000003b0: 7c22 0abd dffa 98bc 111c c9bc ed59 ce3c
000003c0: 1cc7 193d 3bd7 a2bb 3f75 05bd 231e aa3c
000003d0: 1c7e 31bc 6e2f ffbb 6da8 47bc 0e32 dbbc
000003e0: b510 05bc e430 a23c 664a 6f3c 31d8 4ebc
000003f0: 78a5 6d3b 5f52 243a 80d8 c8bc c0aa e03c

convs.0.post_nns.1.0.bias f4 [16]
-0.00010708725 9.039595e-05 4.3566906e-06 -0.00013194123 9.0676105e-05 5.338099e-06 8.3162784e-05 -0.00011721323
-3.096352e-05 0.00012243258 -9.043457e-06 3.3770912e-06 1.8792081e-05 0.00014158661 -0.00011663882 -2.8155262e-05
00000000: 0894 e0b8 f592 bd38 b02f 9236 b459 0ab9
00000010: 5d29 be38 ec1d b336 ae67 ae38 60d0 f5b8
00000020: d4de 01b8 3f61 0039 5ab9 17b7 fca1 6236
00000030: b0a3 9d37 de76 1439 fd9b f4b8 f72e ecb7
